models/E.coli_limonene_gnn_rl_checkpoint.pth (torch, 7186 bytes, 11 tensors)

gat1.att_src f4 [1, 1, 16]
0.37988895 0.4683737 0.2613868 0.050511256 -0.036999267 -0.18282984 0.42872024 -0.029670244
0.23168924 0.5870104 -0.41837683 0.16226092 0.40893415 -0.44356513 0.25202444 -0.3929508
00000000: ce80 c23e adce ef3e 7ed4 853e e4e4 4e3d
00000010: 8b8c 17bd bf37 3bbe 3881 db3e 030f f3bc
00000020: f23f 6d3e 5046 163f 7d35 d6be ba27 263e
00000030: d15f d13e f81a e3be 5909 813e d930 c9be

gat1.att_dst f4 [1, 1, 16]
0.39624497 -0.39041427 0.23280787 -0.44651553 0.32391024 0.25223234 -0.008862425 -0.58553815
-0.038801014 -0.05116755 0.20129398 0.4489248 -0.0323135 -0.588983 0.16443828 0.1607858
00000000: 9fe0 ca3e 61e4 c7be 3065 6e3e af9d e4be
00000010: 90d7 a53e 9924 813e b433 11bc d4e5 15bf
00000020: d0ed 1ebd 1195 51bd 0220 4e3e 79d9 e53e
00000030: 295b 04bd 97c7 16bf 8262 283e 08a5 243e

gat1.bias f4 [16]
-0.0064357026 0.0063130357 -0.0047457265 0.0034301684 0.00083918247 -0.0050538084 0.0069729537 -0.0068760975
0.0063117812 -0.0032998112 0.0071958485 0.0061312197 0.0042596385 0.0054717204 0.0 0.0059484052
00000000: 96e2 d2bb 95dd ce3b 0a82 9bbb adcc 603b
00000010: 95fc 5b3a 6b9a a5bb 607d e43b e350 e1bb
00000020: 0fd3 ce3b a541 58bb 27cb eb3b 66e8 c83b
00000030: 7094 8b3b 1e4c b33b 0000 0000 d7ea c23b

gat1.lin.weight f4 [16, 3]
0.010852192 -0.21367666 -0.46131787 0.11694554 -0.16826184 -0.038165648 0.2117747 -0.005495265
0.020553486 0.46605065 0.543504 -0.031139554 0.107497156 -0.008987706 0.396993 -0.37732634
0.30968463 0.48852062 -0.40459993 0.5026649 0.4562208 0.037329167 0.52094364 0.41444305
0.2600015 -0.3145564 -0.4929149 0.12532593 0.16942129 0.22978605 0.2564488 0.077991955
0.4638705 -0.062114492 0.40733558 -0.2927465 -0.33206934 0.29207754 -0.12606616 -0.53795093
0.46296084 0.21928787 -0.19024982 -0.45058408 -0.37341514 -0.17592077 0.48659652 0.41375935
00000000: 64cd 313c 0ece 5abe db31 ecbe 2581 ef3d
00000010: d54c 2cbe 9553 1cbd 78db 583e a011 b4bb
00000020: c95f a83c 319e ee3e 1423 0b3f 6118 ffbc
00000030: 7827 dc3d 2c41 13bc ab42 cb3e eb30 c1be
00000040: fc8e 9e3e 601f fa3e b927 cfbe a6ae 003f
00000050: c695 e93e 78e6 183d 905c 053f e131 d43e
00000060: eb1e 853e 890d a1be 575f fcbe 7155 003e
00000070: c67c 2d3e 094d 6b3e 424d 833e 3fba 9f3d
00000080: 6f80 ed3e c46b 7ebd 4a8e d03e dfe2 95be
00000090: fe04 aabe 308b 953e 7d17 01be 27b7 09bf
000000a0: 3409 ed3e 008d 603e d9d0 42be f5b2 e6be
000000b0: 4530 bfbe 9324 34be 2e23 f93e 44d8 d33e

gat2.att_src f4 [1, 1, 8]
0.5427689 0.6694284 -0.4554104 -0.8037611 0.12846088 0.07746014 0.1054037 0.36206535
00000000: e7f2 0a3f a95f 2b3f 8d2b e9be 4ac3 4dbf
00000010: 408b 033e 6ca3 9e3d e5dd d73d a160 b93e

gat2.att_dst f4 [1, 1, 8]
0.38930956 -0.38239667 -0.80060714 -0.60619915 -0.56640905 0.006269894 -0.5446698 -0.1598669
00000000: 9553 c73e 7fc9 c3be 97f4 4cbf de2f 1bbf
00000010: 2f00 11bf af73 cd3b 7b6f 0bbf 26b4 23be

gat2.bias f4 [8]
0.0050618565 -0.0068730256 0.006972652 0.0051093884 -0.0049608736 -0.005714404 0.004824272 -0.006166997
00000000: eedd a53b 1e37 e1bb d87a e43b a86c a73b
00000010: d38e a2bb e53f bbbb ed14 9e3b 8514 cabb

gat2.lin.weight f4 [8, 16]
0.044875436 0.25519896 -0.35215104 0.25429657 -0.008279772 -0.3747127 -0.07954834 -0.01633865
0.35440612 -0.3033286 0.013058541 -0.17868863 0.039952163 0.16827321 0.22329229 -0.1265012
-0.16828121 0.06879156 0.23609792 0.37917277 -0.50491285 -0.2301077 0.258438 0.17473209
-0.2428603 -0.07760678 0.40839756 0.085906155 -0.47000867 0.42262253 0.34676737 0.46432823
0.030430008 -0.4464399 -0.24735123 -0.26457918 0.35962856 -0.0933882 0.36707565 -0.37051922
-0.16079096 0.18387532 0.26525322 -0.05330542 -0.17433803 0.1894179 -0.025352657 0.30853096
0.101503335 0.47008058 -0.17678322 -0.073769875 -0.17921151 0.39972028 -0.32778704 0.11068497
0.014456028 0.06396926 0.37836912 -0.06326509 -0.48455578 -0.009635268 0.06063676 -0.406242
0.041951086 0.18943733 -0.33854663 0.038199272 -0.17518209 -0.11647645 0.35430053 -0.16440484
-0.014154104 -0.13861531 -0.27699807 0.07172274 0.40611494 -0.29894766 0.16421157 -0.15221994
-0.008286341 0.069113284 -0.32664573 -0.47276452 -0.109614395 0.21755016 0.48612118 -0.06578384
0.44798073 -0.3383537 0.2529356 0.4054958 0.45757315 -0.34374106 -0.082778215 0.08905361
0.41333857 -0.21264644 0.12401615 0.26987705 0.44314742 -0.23017341 0.33902317 0.46505523
-0.4125892 0.22996783 0.085787736 0.087621726 0.47890556 0.49744058 0.23679328 -0.09578256
0.19892421 -0.03375627 -0.24154831 -0.26315597 0.24198666 0.10543588 0.0062201996 0.356109
-0.21685772 0.17024778 -0.274361 -0.3463156 0.22744507 -0.12514329 0.21536446 0.45762822
00000000: 4ecf 373d 70a9 823e 244d b4be 2933 823e
00000010: e1a7 07bc 58da bfbe 3dea a2bd a2d8 85bc
00000020: b874 b53e e34d 9bbe 7ef3 553c 27fa 36be
00000030: e1a4 233d d04f 2c3e bca6 643e 8889 01be
00000040: e951 2cbe 97e2 8c3d a7c3 713e ef22 c23e
00000050: f841 01bf 5aa1 6bbe fc51 843e f8ec 323e
00000060: 5fb0 78be 4ef0 9ebd 7c19 d13e 91ef af3d
00000070: faa4 f0be fb61 d83e 7e8b b13e 6ebc ed3e
00000080: 5a48 f93c c593 e4be a449 7dbe ec76 87be
00000090: 3c21 b83e 5042 bfbd 57f1 bb3e b2b4 bdbe
000000a0: 63a6 24be d049 3c3e 45cf 873e c956 5abd
000000b0: ab85 32be c4f6 413e 60b0 cfbc c5f7 9d3e
000000c0: fbe0 cf3d 67ae f03e a906 35be a914 97bd
000000d0: 3983 37be 23a8 cc3e b4d3 a7be cdae e23d
000000e0: fad8 6c3c 5102 833d 99b9 c13e 2191 81bd
000000f0: b217 f8be 3edd 1dbc 405e 783d f4fe cfbe
00000100: e7d4 2b3d dcfb 413e fc55 adbe d776 1c3d
00000110: ef62 33be 348b eebd e166 b53e be59 28be
00000120: 9de6 67bc 2cf1 0dbe b1d2 8dbe 5fe3 923d
00000130: 4cee cf3e ab0f 99be 1427 283e 8bdf 1bbe
00000140: 6fc3 07bc 448b 8d3d 1c3e a7be 310e f2be
00000150: 837d e0bd 78c5 5e3e e0e4 f83e aeb9 86bd
00000160: bb5d e53e b23c adbe c680 813e 259d cf3e
00000170: 0747 ea3e d4fe afbe a087 a9bd bd61 b63d
00000180: 1da1 d33e fdbf 59be 2efc fd3d 532d 8a3e
00000190: 38e4 e23e 94b2 6bbe 7294 ad3e b81b ee3e
000001a0: e43e d3be b07c 6b3e 7bb1 af3d 0573 b33d
000001b0: 1c33 f53e 88b0 fe3e f079 723e a629 c4bd
000001c0: cab2 4b3e 0444 0abd 7158 77be 61bc 86be
000001d0: 5acb 773e c4ee d73d d1d2 cb3b eb53 b63e
000001e0: f30f 5ebe 6f55 2e3e 0c79 8cbe 4750 b1be
000001f0: 5ce7 683e 9025 00be 8088 5c3e 3f4e ea3e

net.0.weight f4 [32, 8]
0.30962363 0.18671595 -0.3440125 -0.25002632 0.33350298 0.0832972 0.12109184 -0.020366177
0.3480399 -0.24022649 -0.2829466 -0.008059573 -0.008040944 0.25182822 -0.00487285 0.24471876
0.21369833 0.116691925 -0.14628312 0.3481812 0.13823718 0.07942526 0.2521543 -0.05041917
-0.3552433 0.16546449 0.3125951 -0.14781815 0.28284 0.12589104 -0.22891434 -0.14184678
-0.06262697 0.22974002 -0.038742814 -0.3416754 -0.16078162 0.15480411 -0.34628856 -0.03439604
0.31540442 -0.1969034 -0.05540662 0.24315143 0.28739244 0.021091212 0.20192479 -0.20187066
-0.117309764 0.23769441 0.30997336 -0.09622615 -0.24199753 -0.18209592 -0.3014223 0.117370635
0.234368 -0.25491732 0.14864852 0.28322566 0.2811721 0.0927415 -0.0035449169 -0.29619408
0.050582867 -0.22235614 -0.029539393 -0.04687116 -0.222836 0.29248312 0.29385903 0.3368553
-0.30306327 0.17589629 0.03921279 0.07554756 0.20632008 -0.0074800267 -0.16184708 -0.22923398
0.22346619 0.13691229 0.33874854 -0.34256533 0.19497904 -0.09979546 0.037605565 0.22584367
0.10598599 0.05342092 0.24577242 -0.09791467 -0.15988402 -0.13671038 0.25295594 -0.16486497
-0.15847227 0.14023647 -0.2709913 -0.2777482 -0.26249176 -0.17307793 -0.28040415 0.064849
0.13997208 0.24116828 0.106901534 -0.03307253 0.12879027 0.015606298 -0.2509882 -0.27161542
-0.24686287 0.011617594 -0.059094258 0.35625163 -0.07980537 -0.038214512 0.07525274 0.13479258
-0.13701811 -0.013639829 0.0224287 0.186072 0.16268085 -0.09782444 -0.34560093 0.014874741
-0.09803156 0.26231557 -0.35534483 0.18631667 -0.027369598 -0.267382 0.26969007 0.2778363
0.28718117 -0.032618005 -0.13961522 -0.25841773 0.12663603 -0.025501525 0.051674355 0.2722321
0.108543135 0.099981345 0.19545415 0.068265714 -0.3205319 0.14322692 -0.32350177 0.017731348
0.13978225 -0.16244902 0.0914207 0.18920195 -0.30074564 -0.19303675 0.18692714 -0.30907702
-0.32649112 -0.022253044 -0.2042234 -0.32969338 0.085774325 0.15707344 0.07812364 -0.0014786408
-0.3043585 0.21610442 -0.0295816 -0.018136494 -0.31547096 0.16956651 -0.12669435 -0.021756547
-0.19846484 0.12810963 0.19621505 -0.2145541 0.15232366 0.10098874 0.16336645 -0.30901673
-0.3267171 -0.043222036 -0.08914308 -0.20876026 -0.28487405 -0.2322348 0.35515267 0.035942357
0.2756379 0.16263685 0.33775657 0.1748685 0.12921245 0.3446787 -0.20717801 0.04700937
0.04396686 -0.2075511 -0.020087112 -0.29925773 -0.32555327 0.16261028 0.16389301 -0.11905227
0.21854265 -0.27792495 -0.054264754 -0.021435717 -0.006533554 0.10876768 -0.13548099 0.23086284
0.30923826 -0.33457136 -0.1567225 0.006536723 0.14458582 0.12359411 -0.24526569 0.22322981
-0.023125213 0.35433337 0.3275527 -0.25747007 0.14297435 0.17034064 0.09727989 -0.05469932
-0.108552285 0.0015539543 0.041419268 0.17218138 -0.062109154 0.15518554 -0.0013763475 -0.20284908
-0.20388666 -0.008813136 -0.05241688 -0.31209043 -0.29746714 0.090800844 -0.056327224 -0.008094867
-0.22159721 0.15531808 -0.19761236 -0.1457838 0.04145231 -0.14930369 -0.29102448 0.11869201
00000000: fd86 9e3e 7732 3f3e 6822 b0be 7303 80be
00000010: e7c0 aa3e b997 aa3d 00ff f73d f8d6 a6bc
00000020: 4932 b23e effd 75be 60de 90be 4d0c 04bc
00000030: 2abe 03bc a1ef 803e 6eac 9fbb 8e97 7a3e
00000040: bcd3 5a3e 2dfc ee3d 3ecb 15be ce44 b23e
00000050: 0c8e 0d3e b6a9 a23d 5e1a 813e 5584 4ebd
00000060: 73e2 b5be 866f 293e 770c a03e a45d 17be
00000070: 68d0 903e 95e9 003e 8568 6abe 4840 11be
00000080: 9242 80bd f840 6b3e c9b0 1ebd 14f0 aebe
00000090: f0a3 24be f884 1e3e bc4c b1be dde2 0cbd
000000a0: b07c a13e 0ba1 49be 0df2 62bd b0fc 783e
000000b0: 1a25 933e 7ac7 ac3c 5fc5 4e3e 2fb7 4ebe
000000c0: 1a40 f0bd 2a66 733e d4b4 9e3e 3712 c5bd
000000d0: 33ce 77be 5a77 3abe 0654 9abe 0460 f03d
000000e0: 2afe 6f3e 8684 82be 5137 183e f402 913e
000000f0: caf5 8f3e 41ef bd3d d651 68bb c0a6 97be
00000100: fb2f 4f3d 54b1 63be 99fc f1bc f9fb 3fbd
00000110: 1f2f 64be 59c0 953e b174 963e 4c78 ac3e
00000120: 1c2b 9bbe 281e 343e 979d 203d aeb8 9a3d
00000130: 9245 533e 031b f5bb 3ebb 25be 50bc 6abe
00000140: 52d4 643e bc32 0c3e 7370 ad3e b964 afbe
00000150: 96a8 473e 9061 ccbd 4b08 1a3d 9043 673e
00000160: 2f0f d93d e5cf 5a3d c4ab 7b3e 7d87 c8bd
00000170: a3b8 23be cefd 0bbe 7183 813e 5dd2 28be
00000180: 8e46 22be 269a 0f3e 5fbf 8abe 0335 8ebe
00000190: 5265 86be 573b 31be 2291 8fbe 8dcf 843d
000001a0: d754 0f3e d1f4 763e 31ef da3d 1077 07bd
000001b0: 99e1 033e 8fb1 7f3c 8681 80be 2d11 8bbe
000001c0: 9fc9 7cbe b957 3e3c d20c 72bd 9d66 b63e
000001d0: ff70 a3bd d286 1cbd 1c1e 9a3d 1107 0a3e
000001e0: 7a4e 0cbe 9779 5fbc 65bc b73c a989 3e3e
000001f0: cf95 263e 2e58 c8bd 9bf2 b0be 30b5 733c
00000200: c5c4 c8bd 3a4e 863e c2ef b5be ccc9 3e3e
00000210: 3536 e0bc 4be6 88be d114 8a3e 8f40 8e3e
00000220: 6909 933e 759a 05bd 4bf7 0ebe 544f 84be
00000230: e0ac 013e 93e8 d0bc 7da8 533d 0162 8b3e
00000240: dd4b de3d 05c3 cc3d 2225 483e e5ce 8b3d
00000250: c21c a4be 14aa 123e 06a2 a5be 5541 913c
00000260: 1423 0f3e 0959 26be c73a bb3d 28be 413e
00000270: 55fb 99be 6dab 45be d469 3f3e 583f 9ebe
00000280: d829 a7be 044c b6bc f01f 51be 92cd a8be
00000290: 73aa af3d dcd7 203e 49ff 9f3d f4ce c1ba
000002a0: e1d4 9bbe 7a4a 5d3e 1d55 f2bc fc92 94bc
000002b0: 6985 a1be d8a2 2d3e 2abc 01be c93a b2bc
000002c0: 5e3a 4bbe 2c2f 033e 99ec 483e 12b4 5bbe
000002d0: bcfa 1b3e 2fd3 ce3d 8949 273e 7137 9ebe
000002e0: 7747 a7be 9709 31bd a690 b6bd 40c5 55be
000002f0: 03db 91be f6ce 6dbe 92d6 b53e 4b38 133d
00000300: 6920 8d3e 468a 263e 6eee ac3e ba10 333e
00000310: 4550 043e ba79 b03e 7926 54be e68c 403d
00000320: 9816 343d 4788 54be ba8d a4bc 4f38 99be
00000330: ebae a6be 4f83 263e 92d3 273e add1 f3bd
00000340: a5c9 5f3e 2e4c 8ebe b844 5ebd f599 afbc
00000350: 6c17 d6bb 97c1 de3d 87bb 0abe 4f67 6c3e
00000360: 7a54 9e3e f04c abbe dd7b 20be 0232 d63b
00000370: 4e0e 143e e91e fd3d ee26 7bbe 5b96 643e
00000380: 1671 bdbc 2f6b b53e fdb4 a73e 1ed3 83be
00000390: de67 123e c76d 2e3e ae3a c73d 650c 60bd
000003a0: a950 debd 0eae cb3a 40a7 293d 5150 303e
000003b0: 2b66 7ebd f5e8 1e3e 8f66 b4ba abb7 4fbe
000003c0: aac7 50be f964 10bc 15b3 56bd 51ca 9fbe
000003d0: 9d4d 98be cbf5 b93d 60b7 66bd 55a0 04bc
000003e0: 61ea 62be b40b 1f3e e55a 4abe 5948 15be
000003f0: e6c9 293d 11e3 18be 2901 95be cc14 f33d

net.0.bias f4 [32]
-0.009429639 0.053900212 0.16388491 0.16760449 -0.3353127 0.12321084 0.28051758 0.25916037
-0.110904925 0.11948758 0.2346608 -0.1814879 -0.26216465 0.12042794 0.29195395 0.09013115
0.17311434 -0.0028706305 -0.26506528 0.08824217 -0.18043593 0.33541018 -0.13113588 0.020591876
-0.06907573 0.30895242 0.3410219 -0.33608547 0.022153985 -0.29932663 -0.0070414203 -0.23426959
00000000: c67e 1abc 78c6 5c3d 72d1 273e 83a0 2b3e
00000010: 1bae abbe f755 fc3d 00a0 8f3e abb0 843e
00000020: 1f22 e3bd e8b5 f43d ec4a 703e f7d7 39be
00000030: 723a 86be eca2 f63d fd7a 953e ae96 b83d
00000040: e344 313e 3021 3cbb a3b6 87be 50b8 b43d
00000050: 32c4 38be e2ba ab3e 7c48 06be 4bb0 a83c
00000060: 9477 8dbd 032f 9e3e 6c9a ae3e 6513 acbe
00000070: 467c b53c 5741 99be b7bb e6bb 5ee4 6fbe

net.2.weight f4 [1, 32]
0.00326433 0.07199 0.15446433 0.04652943 -0.105573386 -0.027543565 -0.032849673 -0.09786557
0.033546355 -0.14956512 0.1770124 0.01796419 -0.097685516 -0.14213403 -0.027598444 0.027929397
0.08871855 -0.017202217 -0.095231794 -0.1732621 -0.02222838 0.0070415908 0.04991679 0.13794601
-0.018422788 0.1628045 -0.0695711 0.044008072 0.12363926 0.066223234 0.06804385 0.06328865
00000000: 5fee 553b 7e6f 933d e62b 1e3e a595 3e3d
00000010: dc36 d8bd 0ba3 e1bc 618d 06bd be6d c8bd
00000020: e767 093d 9927 19be bd42 353e a329 933c
00000030: 580f c8bd 958b 11be 2216 e2bc 31cc e43c
00000040: 12b2 b53d aaeb 8cbc e308 c3bd 9f6b 31be
00000050: 4b18 b6bc 25bd e63b 8c75 4c3d b841 0d3e
00000060: 63eb 96bc 39b6 263e 4b7b 8ebd cf41 343d
00000070: 9536 fd3d 0ca0 873d 935a 8b3d 7b9d 813d
