models/E.coli_limonene_supervised_checkpoint.pth (torch, 52782 bytes, 23 tensors)

conv1.att_src f4 [1, 1, 32]
000000 7a 96 a4 be 6b de cf 3e 95 e0 bb 3e da 20 69 3d
       -0.32146055 0.4059938 0.3669478 0.056916095
000010 ca 6b cd 3e 49 96 35 3e 62 19 8b be c3 dc 83 be
       0.401213 0.1773311 -0.27167803 -0.25754365
000020 72 5b b1 be b4 b6 c5 bc 95 ce 22 3e b7 23 58 3e
       -0.3464008 -0.024134971 0.15899117 0.21107374
000030 55 2a ac 3e c4 44 15 be 45 af bd be de 55 ae 3e
       0.33626047 -0.14577013 -0.37047783 0.34049886
000040 4d 35 8b bd 18 58 55 be 4a b2 d0 3c c4 6b ae be
       -0.06797276 -0.20834386 0.02547564 -0.34066594
000050 d2 d6 a9 be 68 b2 1a 3e 72 47 2c be 01 5d 9e be
       -0.33171707 0.15107119 -0.16824129 -0.3093033
000060 2f 00 9a be 63 15 e3 bd f9 8c 8a be b2 12 94 3e
       -0.30078265 -0.110880636 -0.2706068 0.28920513
000070 e0 b5 c4 bd 32 06 ad 3e 79 ae 85 be 7e c2 a6 be
       -0.096050024 0.3379379 -0.26109675 -0.3257026

conv1.att_dst f4 [1, 1, 32]
000000 42 0e 8a 3e 90 0b 85 be c2 69 5d 3e d9 fd fe 3d
       0.26964003 -0.25985384 0.21622375 0.12450761
000010 ce 78 ae 3e ce 5a ca be e0 b0 af 3d c7 0c 3d bd
       0.34076542 -0.39522403 0.08578658 -0.046154764
000020 63 b9 d2 be 74 d1 d4 3e c0 44 ea 3d 34 f4 27 3e
       -0.41157064 0.4156605 0.11438894 0.1640175
000030 bd 4c d2 be b9 0c 3b 3d 28 d8 cd be 25 94 05 be
       -0.41074172 0.04566643 -0.40203977 -0.13044794
000040 7b a4 06 bd 56 69 56 3e 91 7e d7 3e 3d a7 29 3e
       -0.032871705 0.2093862 0.4208875 0.16567703
000050 83 cc d0 bc c8 eb 05 3e d6 ea c4 3e 61 bf 87 3e
       -0.025488144 0.13078225 0.38460416 0.26513198
000060 64 14 c5 3e f3 51 52 3e 76 3d 23 be 18 39 07 3e
       0.3849212 0.20539074 -0.15941414 0.13205373
000070 52 13 ac 3d e8 a6 88 bd 33 01 d9 3e 51 b6 b5 3e
       0.084021226 -0.0667246 0.42383727 0.3549066

conv1.bias f4 [32]
000000 00 00 00 00 00 00 00 00 00 00 00 00 00 00 00 00
       0.0 0.0 0.0 0.0
000010 00 00 00 00 00 00 00 00 00 00 00 00 00 00 00 00
       0.0 0.0 0.0 0.0
000020 00 00 00 00 00 00 00 00 00 00 00 00 00 00 00 00
       0.0 0.0 0.0 0.0
000030 00 00 00 00 00 00 00 00 00 00 00 00 00 00 00 00
       0.0 0.0 0.0 0.0
000040 00 00 00 00 00 00 00 00 00 00 00 00 00 00 00 00
       0.0 0.0 0.0 0.0
000050 00 00 00 00 00 00 00 00 00 00 00 00 00 00 00 00
       0.0 0.0 0.0 0.0
000060 00 00 00 00 00 00 00 00 00 00 00 00 00 00 00 00
       0.0 0.0 0.0 0.0
000070 00 00 00 00 00 00 00 00 00 00 00 00 00 00 00 00
       0.0 0.0 0.0 0.0

conv1.lin.weight f4 [32, 3]
000000 20 d3 02 3e 29 ae 9b 3d 98 77 8e be 63 58 b6 3e
       0.1277585 0.07601578 -0.27825618 0.3561431
000010 68 1d 33 bc 6e 3b d0 be 5c ee 93 be 7c 32 99 be
       -0.010932304 -0.4067034 -0.2889279 -0.2992133
000020 29 e2 94 3d 43 11 a9 be e9 91 8e be 45 2a 01 3e
       0.07269699 -0.33020982 -0.27845696 0.12613781
000030 15 cd 4f be 49 e1 a3 bd d5 2a 78 3e 39 cc ad 3e
       -0.20293076 -0.08001954 0.24235089 0.33944872
000040 be 28 8a be 4e df 47 be 7a 32 12 be b5 16 41 be
       -0.2698421 -0.19518778 -0.14277068 -0.18856318
000050 81 c1 d2 3e 53 de f7 bd e4 80 a9 3e f4 70 11 3d
       0.41163257 -0.12102952 0.33106148 0.03550811
000060 b6 02 59 3e 84 84 15 be ef 95 c2 be 2a d1 0c 3e
       0.2119244 -0.14601332 -0.38005015 0.13751665
000070 42 63 7d 3e 43 89 a1 be ea fe 49 be 42 8a b7 be
       0.24744895 -0.31550035 -0.19726148 -0.3584767
000080 35 52 c3 3e 22 63 13 be 55 90 63 be 97 30 4b bd
       0.38148656 -0.14393285 -0.22223027 -0.049606886
000090 fb e2 82 3e fc aa 18 3d 37 32 a8 be 23 7b 0a 3e
       0.25563797 0.03727244 -0.3285081 0.13523535
0000a0 a7 a0 a2 be 73 8b 40 be 1f 09 aa 3e 39 c8 9e 3e
       -0.31763193 -0.18803196 0.33210084 0.31012133
0000b0 1e c3 5a bd 3a 31 72 3e 76 dd c9 be af 61 25 3e
       -0.053408735 0.23651591 -0.39426774 0.16150545
0000c0 b5 be a4 3e 56 08 9e be 96 af 54 3e d8 c4 d1 3e
       0.32176748 -0.30865735 0.20770106 0.40970492
0000d0 5e 0a 3f 3e 64 bb 7c 3d 58 25 41 3e 96 15 e8 bd
       0.18656299 0.061702147 0.18861902 -0.11332242
0000e0 c0 45 a6 be 9d 28 d7 bd 64 d6 b6 3e 32 92 4a be
       -0.3247509 -0.10505793 0.35710442 -0.19782332
0000f0 70 d8 bc be bd aa cc 3d 9b 09 ba 3e e6 7c 36 be
       -0.3688388 0.09993503 0.36335453 -0.17821082
000100 14 9b 98 be 66 eb 02 3d 96 ee d1 be b3 e0 c1 be
       -0.29805815 0.031962775 -0.4100234 -0.37866744
000110 52 77 63 bd cd 9b b3 3e a7 72 ea 3d 07 4e 19 be
       -0.055533715 0.35079804 0.114476494 -0.14971171
000120 a0 5d ba be 26 b9 9e bd 1a 5e 3c 3e 08 69 87 3a
       -0.36399555 -0.07750158 0.18395272 0.0010330984
000130 e6 d3 58 3e 8b eb d3 be 60 4e 07 3e ac 6d 2f 3e
       0.21174583 -0.41390643 0.13213491 0.1713168
000140 43 42 ce 3e 5e b0 fc bc 9b 4a 51 3d 34 91 56 3d
       0.4028493 -0.030845817 0.05109654 0.05238457
000150 6b ee 93 3e 22 72 ca 3a 74 f9 c3 3e f8 51 71 3e
       0.28892836 0.0015445391 0.38276255 0.23566425
000160 cb a4 c1 3e 74 b8 c6 be 3f a5 a9 3e ff 0e aa 3b
       0.3782104 -0.38812602 0.33133885 0.005189776
000170 77 e6 85 3e 63 ac aa 3e 74 e5 cd 3e 2f fd fe 3d
       0.26152393 0.33334646 0.4021412 0.12450635

conv2.att_src f4 [1, 1, 16]
000000 e3 01 5f 3e c0 ce 7b be f5 e9 b4 bb 9f e0 03 3f
       0.21778063 -0.24590588 -0.005521054 0.5151462
000010 3e 53 ce be 94 ec ec 3d 47 06 b2 3e f6 5f fd bd
       -0.40297884 0.11568561 0.34770414 -0.12371819
000020 70 0c 72 3e 57 9d ae 3e 5d 0a c7 be 86 df 1f be
       0.23637557 0.34104416 -0.38875094 -0.15612611
000030 18 06 de 3e 77 8d 87 3e 9b 68 fa bd 0c 59 a9 3e
       0.43364024 0.26475117 -0.12226983 0.3307575

conv2.att_dst f4 [1, 1, 16]
000000 59 59 7f bc 14 1b d0 3d 1a 55 78 3e 7b 5f 00 3f
       -0.015585267 0.10161415 0.24251214 0.5014569
000010 b6 db 83 3e fe e3 01 3e 6c 5f 24 be f4 03 a9 be
       0.25753564 0.12684628 -0.16052026 -0.33010828
000020 c3 66 85 be 55 69 54 be a8 a2 3c be 62 46 c2 3d
       -0.26054963 -0.20743306 -0.18421423 0.09486081
000030 af 4b 80 be 93 8c 14 bd f0 b2 37 bd 3f ba 9e 3d
       -0.25057742 -0.036266875 -0.044848382 0.077503674

conv2.bias f4 [16]
000000 00 00 00 00 00 00 00 00 00 00 00 00 00 00 00 00
       0.0 0.0 0.0 0.0
000010 00 00 00 00 00 00 00 00 00 00 00 00 00 00 00 00
       0.0 0.0 0.0 0.0
000020 00 00 00 00 00 00 00 00 00 00 00 00 00 00 00 00
       0.0 0.0 0.0 0.0
000030 00 00 00 00 00 00 00 00 00 00 00 00 00 00 00 00
       0.0 0.0 0.0 0.0

conv2.lin.weight f4 [16, 32]
000000 bb e3 0d be 61 df 61 be 8c c5 07 3e 5d 10 92 be
       -0.13856404 -0.22057869 0.13258952 -0.2852811
000010 bd 4c 38 be 4e 61 89 3d df 82 5d be f9 db b6 bc
       -0.17998023 0.067080125 -0.21631955 -0.022321688
000020 4f c6 6a bd 8a 34 1d bd 3d fc 1c bd 27 7b 90 3e
       -0.057318028 -0.038380183 -0.03832649 0.28218958
000030 64 2c b2 3e 7c c6 e6 bd 8f 05 fe bd 6c df 2d 3e
       0.34799492 -0.11268327 -0.12403404 0.1697976
000040 0b 2b a0 bd ac 60 46 3d d2 53 8e bd f7 45 88 be
       -0.0782071 0.048432037 -0.06949581 -0.2661588
000050 9e 85 95 be 61 70 ab be 86 b4 00 3d 37 76 aa 3e
       -0.29203504 -0.33484176 0.03142216 0.33293316
000060 a3 4c 30 3e 5b ee b6 3c 3c 51 9e be 6d aa 58 be
       0.17216735 0.022330454 -0.30921352 -0.21158762
000070 38 b2 34 3d b7 64 93 be 97 5c 7c bd 63 dc 17 be
       0.044115275 -0.28787777 -0.061611738 -0.14830165
000080 79 c3 ad be 80 d0 99 3e 01 bb 91 be 50 ff 1b 3e
       -0.33938196 0.30041885 -0.28462985 0.15234113
000090 c9 33 02 3e 2b aa 0d 3e 0a 74 4f be 40 d2 9b 3e
       0.12715067 0.13834445 -0.20259109 0.30433846
0000a0 35 36 eb bc 20 6b 99 3e e2 f4 9a be 25 9f e3 bd
       -0.028712371 0.29964542 -0.30264956 -0.11114339
0000b0 f2 42 52 3e ad ed 65 3e ee c5 3e 3e bf d9 00 3e
       0.2053335 0.22453947 0.18630192 0.12583064
0000c0 b0 ff 3b be e7 be 32 be 73 0f c9 3c 18 1d b4 3e
       -0.18359256 -0.17455636 0.0245435 0.35178447
0000d0 65 f7 97 3e 29 ee 6c be 82 81 6c 3e f7 06 73 3e
       0.29680935 -0.23137726 0.23096278 0.23733126
0000e0 27 40 9e 3e 30 6f 8d be e7 98 ac 3e b6 af 8b be
       0.3090832 -0.27623892 0.33710405 -0.27282494
0000f0 01 c7 b4 3e f4 bf 7d be 73 de 51 3e 8d 76 94 3e
       0.35308078 -0.24780256 0.20495014 0.28996697
000100 5a 39 8a 3e cf 0a 7c be ec 42 e1 bd 17 45 6f 3e
       0.2699688 -0.24613498 -0.109990925 0.233662
000110 b4 b7 05 be 81 0e ab bd 81 a1 3e bc 6c 31 50 be
       -0.13058358 -0.08352376 -0.011635185 -0.20331353
000120 5f 80 70 be 20 c9 af 3e d6 42 49 3e e4 3c b0 3e
       -0.2348647 0.34333134 0.19654402 0.34421456
000130 47 e5 18 3e d8 6d 90 be ba 54 2b be 78 78 94 bd
       0.14931212 -0.28208804 -0.1673154 -0.0724954
000140 b4 77 86 be 95 0e 6e be 27 9a 50 3e 6f 1d 93 be
       -0.262632 -0.2324775 0.20371304 -0.28733394
000150 d5 ae a4 bd e1 02 0e 3e db 31 34 be 99 7c d0 3c
       -0.08041159 0.13868286 -0.17597143 0.025450038
000160 dd be 92 3e f6 da a4 3b 7f 95 1a be a6 e8 9e bc
       0.28661242 0.005030985 -0.1509609 -0.019398045
000170 92 b1 44 3e 41 6f 34 3e 6a fb 6b 3e fc 8e 60 be
       0.19208363 0.17620565 0.23045126 -0.21929544
000180 70 8a db 3c 7f e7 1a 3e 94 21 58 be 0a b7 44 bd
       0.02679941 0.15127371 -0.21106559 -0.048026122
000190 cc 8d a4 bc 8f c1 42 be ff b6 0d 3c d4 26 e7 3d
       -0.020087145 -0.19019149 0.008649587 0.11286703
0001a0 48 c0 99 3d e0 42 97 be ca 10 27 be c2 b3 2f be
       0.07507378 -0.2954321 -0.16314998 -0.17158416
0001b0 d1 0e ee bd a2 b9 49 3e c7 c2 b3 3e ec 16 ae be
       -0.1162392 0.1969972 0.3510954 -0.34001863
0001c0 66 41 50 3e d3 97 71 3e 1a 92 42 3d 08 cc a0 be
       0.20337448 0.23593073 0.047502615 -0.31405663
0001d0 ff 74 ae bd b2 a9 15 3c d1 38 ef bd f2 e0 18 3e
       -0.08518409 0.009134697 -0.11680759 0.1492956
0001e0 00 88 7e 3e 32 29 40 3e 7c 63 34 3e 8e 02 52 be
       0.24856567 0.18765715 0.17616075 -0.20508787
0001f0 10 8e a4 3d 75 e6 a5 be b1 d0 55 3d 9b a4 36 be
       0.08034909 -0.32402387 0.052200977 -0.1783623
000200 e1 78 59 3e a3 a3 81 3e bb 79 57 be e5 e9 98 be
       0.21237518 0.25320157 -0.2104253 -0.29865947
000210 ff 6d 83 3e 3b 67 e9 bc 91 61 b0 be 0b 72 5b 3c
       0.25669858 -0.028491607 -0.34449437 0.013393889
000220 e9 73 09 3e f3 03 a5 3e b0 58 a1 be 88 80 c7 bd
       0.13423122 0.32229576 -0.31512976 -0.09741312
000230 81 58 a7 bd 35 b8 3c be 24 a0 1d be e1 01 82 3e
       -0.08171178 -0.18429644 -0.1539312 0.25392058
000240 d6 27 a8 3e bb e8 30 3e 29 d6 21 be c9 d8 06 3e
       0.32842892 0.1727628 -0.15804352 0.13168634
000250 ce 35 87 be 2d 78 13 3e 52 6f 3a bd 33 a1 80 be
       -0.26408237 0.14401312 -0.04551632 -0.25122985
000260 dc cb c7 3b cf 7a f5 bd b4 69 a2 3d 12 44 e5 bc
       0.0060973 -0.119863145 0.079303175 -0.02798656
000270 ab 2c 1a be bb d8 52 bd 10 fd 2d be 14 ba 0f bd
       -0.15056102 -0.05147622 -0.16991067 -0.035089567
000280 92 45 6a 3d a5 1c 77 3e ff ee 4f be 58 38 18 be
       0.057195254 0.24132021 -0.20306014 -0.14865243
000290 84 2a 39 be c1 97 15 bd d1 c7 ed bd e2 bc a9 be
       -0.18082625 -0.036521677 -0.116103776 -0.3315192
0002a0 e1 ed 36 be 66 00 67 be 05 09 38 bd 3f 48 d0 3d
       -0.17864181 -0.22558746 -0.044930477 0.1017003
0002b0 af 86 39 be 9b c6 3c be 8a fb 46 be cd 56 9c 3e
       -0.18117784 -0.18435137 -0.19431892 0.30534974
0002c0 2c 5f 5b 3d 0a 39 a8 be bd 6d a2 be 4a b1 b2 3e
       0.05355756 -0.32856017 -0.3172435 0.34900886
0002d0 71 66 b1 bd df 13 da 3d 89 e9 04 3d 31 b9 5e be
       -0.08662117 0.10648321 0.03244928 -0.21750332
0002e0 23 1e fd bd ef 1b 7c be 4f 98 77 3e aa cd 66 bd
       -0.12359264 -0.24620031 0.24179195 -0.05634848
0002f0 ee ed 9b be 0b 65 6f be a0 fd 89 3e b9 7a 3a bd
       -0.30454963 -0.23378389 0.26951313 -0.045527194
000300 b0 fb 02 3e 46 c4 36 3e 05 2e 1b 3e 37 24 18 3e
       0.12791324 0.1784831 0.15154274 0.14857565
000310 22 24 ae 3e 84 f9 98 bc 2c 93 88 3e 5c e0 38 3e
       0.34011942 -0.018673666 0.26674783 0.18054336
000320 6e 53 11 3e 29 26 20 be 20 cd 33 3e 3d 93 71 3e
       0.14191982 -0.15639557 0.17558718 0.23591323
000330 76 d3 99 3e 01 f2 03 3e 95 a6 83 be ff d8 9e 3e
       0.30044144 0.12885286 -0.2571303 0.3102493
000340 40 e3 02 be 9d ce 3e be fc ba ca 3d ef 12 e0 bd
       -0.12782001 -0.18633504 0.09898946 -0.10941111
000350 5c 03 28 bc 82 4e 87 3c c4 96 05 be cf 85 88 be
       -0.010254707 0.016516928 -0.13045794 -0.26664588
000360 c7 7e 34 be ab 82 bc bd c3 ab a9 be d3 ec 8d bd
       -0.17626487 -0.092046104 -0.33138856 -0.06929936
000370 cb a6 38 3d 84 91 7b be 2f 3e b0 bc ff 0a 80 bb
       0.04508094 -0.24567229 -0.021514026 -0.003907561
000380 e2 41 1e 3e 62 1a 35 3d a9 83 38 bd c8 36 3f 3e
       0.1545482 0.044214614 -0.045047436 0.18673241
000390 2e 53 2b 3d fd 19 2a 3e 93 2b 2d bd b9 c7 2d be
       0.041827373 0.16611476 -0.042277884 -0.1697072
0003a0 8b 8c b8 bc 99 50 af be 8c d7 82 be 1b ce 10 be
       -0.022527954 -0.3424118 -0.25555074 -0.14141123
0003b0 34 7b b3 3e 47 c1 71 3e 43 ec 8b 3e 48 38 63 3e
       0.35054934 0.23608886 0.2732869 0.22189438
0003c0 be 72 d8 3d 06 5b a3 be 6a 9e 46 3d 25 fd aa be
       0.1056876 -0.31905383 0.04849092 -0.3339626
0003d0 b3 2e 05 3d 7a d1 a6 be 25 9b 92 3e a8 2d 83 3e
       0.03251524 -0.32581693 0.2863399 0.2562077
0003e0 2b cd 98 be 18 a7 4b be d4 12 06 be 8d fc 9f bd
       -0.2984403 -0.1988796 -0.1309312 -0.07811842
0003f0 73 a0 9d be fc 5f 9e 3e 8f 9c 8b bd 95 72 b0 be
       -0.30786476 0.30932605 -0.068169706 -0.3446242

fc1.weight f4 [64, 16]
000000 fc 0f a3 3d e0 3d b1 bd a4 47 50 3e 18 c4 8d 3d
       0.07962033 -0.0865438 0.20339829 0.069221675
000010 78 fd aa bd 52 8c 50 3e 6a 84 66 3e e0 cb 40 3e
       -0.083491266 0.20366028 0.2251145 0.18827772
000020 74 0b 5a 3e 50 2e 91 3c 40 ea 67 bc ac d3 8e 3d
       0.21293432 0.017722279 -0.014154971 0.06973967
000030 c0 e4 ed bc 3a 70 74 be 60 bc 0d 3d fc b3 08 3e
       -0.02903974 -0.23870936 0.034603477 0.13349909
000040 97 f5 86 bc 0f d1 35 be de 3f 58 3e da 50 da bd
       -0.016474528 -0.17755531 0.21118113 -0.106599525
000050 66 06 73 bd a1 0c 33 bc 53 91 2a be d5 8a 44 3c
       -0.059332274 -0.010928304 -0.16657 0.011995991
000060 2f fd 25 3e 9b 19 81 be 9c 34 57 3e b6 7d 00 be
       0.16209863 -0.25214848 0.21016163 -0.12547955
000070 7e 7d 65 3e 9a 52 1b 3e 62 26 51 3d ad 93 62 3d
       0.22411153 0.15168229 0.051061995 0.055316616
000080 df a4 47 be 95 d8 c4 3c 73 4a 0f 3e 4f 18 fa 3d
       -0.19496487 0.024029056 0.13993244 0.12211668
000090 94 9d 20 be 3e a5 53 be bf 4d f2 bd cd 26 a1 3b
       -0.15685111 -0.20668504 -0.11831235 0.0049179555
0000a0 95 f7 24 3d 74 f7 fe 3c 59 1c 6a bd 2a 1d 2b be
       0.040275175 0.031123854 -0.05715594 -0.16710344
0000b0 41 45 ca 3d cb 65 28 bd d6 41 1d 3e e8 b7 31 be
       0.098764904 -0.041112702 0.15357146 -0.17355311
0000c0 90 0d 60 3d 3a ba 7c be 88 67 c8 3d 8e ee 10 be
       0.054700434 -0.24680415 0.09785372 -0.14153501
0000d0 b8 9d 96 bd 9a 51 75 3e 74 50 cc 3d c4 4b df bd
       -0.07354301 0.2395691 0.09976283 -0.10903123
0000e0 c8 db 37 be e0 9d 3b be a8 0c 41 bd b8 c6 26 bd
       -0.17954934 -0.18321943 -0.04713121 -0.040716857
0000f0 7a e8 30 3e be 1d 54 be 56 12 09 be 5a 60 76 3e
       0.17276183 -0.2071447 -0.13385901 0.24060193
000100 53 88 a0 3d 96 69 87 be 50 51 80 3e 80 18 84 bd
       0.07838502 -0.26447743 0.25062037 -0.064499855
000110 a5 40 1e be f9 80 63 bd 16 6e 4b 3e f0 e2 73 3e
       -0.15454347 -0.05554292 0.19866213 0.23817039
000120 6d 41 37 3e f9 e4 84 bd 2b 61 f8 bd 4c f6 ba 3d
       0.17896052 -0.064889856 -0.12127908 0.09129009
000130 66 83 2a 3e 90 39 2a 3e 2c 37 3b be b6 3c 2a be
       0.16651687 0.16623521 -0.18282765 -0.16624722
000140 a8 03 69 be f9 b0 d2 3d ea de f9 bd e1 d6 09 be
       -0.22755301 0.10287661 -0.122007206 -0.13460876
000150 ff 1b 53 be e0 b5 6f bd fd 6e 68 3e 4f 41 41 be
       -0.20616148 -0.05852306 0.22698589 -0.1887257
000160 47 f6 62 be 44 30 70 3d 43 9a 4e be 27 59 00 3b
       -0.2216426 0.05863978 -0.20176034 0.001958439
000170 47 50 8a be 14 a2 21 be 5a f9 12 be f1 21 31 3d
       -0.27014372 -0.15784484 -0.14352933 0.04324526
000180 6c 5f 5a 3e a0 4b 28 bc 26 23 1e 3e ee 8b 02 be
       0.21325463 -0.010271937 0.15443096 -0.12748691
000190 92 e0 41 be 80 0e 4a 3e 3a c3 23 3e 82 ff 5d 3e
       -0.18933323 0.19732094 0.15992442 0.216795
0001a0 b0 1d 12 be c4 97 bc 3d 40 c0 60 be 94 b7 2d be
       -0.14269137 0.092086345 -0.21948338 -0.16964561
0001b0 26 b3 74 3e ac f5 6d be 20 d6 c6 3c 38 a2 c5 3d
       0.23896465 -0.23238248 0.024272025 0.096500814
0001c0 8a 10 39 3e 10 02 97 bd 70 48 90 bd f0 f7 99 3d
       0.18072715 -0.0737344 -0.07045066 0.075179935
0001d0 b0 41 5b be 84 06 34 3e 24 73 b5 bd 40 28 1c 3c
       -0.21411777 0.1758061 -0.08859852 0.009531081
0001e0 d8 cc 2a 3d 90 c9 be 3c dc 66 ab 3d 74 28 ba 3d
       0.04169926 0.023289472 0.08369228 0.09089747
0001f0 00 08 6c b9 90 e3 64 3d e0 af 1c bc d6 eb 34 be
       -0.00022509694 0.055881083 -0.009563416 -0.1766809
000200 99 bd 8e be bb 12 49 3d 43 cc 11 bd 5f 64 17 3d
       -0.27879027 0.04909013 -0.03559519 0.036960956
000210 57 2f 9f 3e 19 e0 99 be 11 f6 25 3e 08 fa 9d 3d
       0.31090805 -0.30053785 0.16207148 0.07713705
000220 4b ce 42 3d cf f4 b9 bd 35 64 8c 3e b7 82 58 3e
       0.047560018 -0.09079897 0.27420202 0.21143614
000230 b5 03 0d be 9a eb 99 bc df 03 1a 3e c1 1d 89 be
       -0.13770945 -0.018789101 0.15040539 -0.26780513
000240 6f 34 7d be 3d 20 4b 3e ca f1 4c be 69 fc 3d be
       -0.24727033 0.19836517 -0.2001411 -0.18553318
000250 17 96 10 be f5 c4 2b bd d5 3c b4 bd 76 48 4b be
       -0.14119755 -0.04193588 -0.08800665 -0.1985186
000260 b7 0c e7 3d 9d 07 5a be 48 9c 81 3e 38 51 04 be
       0.11281722 -0.21291967 0.25314546 -0.12921607
000270 85 31 1a bd a7 a0 75 3e 89 00 d5 bb 7d 90 00 3d
       -0.03764488 0.23987065 -0.006500308 0.031387795
000280 dc 45 6c be e0 fd 8a 3c b0 f6 1d bd c0 35 59 bd
       -0.23073524 0.01696676 -0.038565338 -0.053029776
000290 40 45 da 3c a8 7c 4b be 40 d1 97 3c 04 b8 96 3d
       0.02664435 -0.19871771 0.018532395 0.07359317
0002a0 24 fe d4 bd 36 b2 5e 3e 14 fb 73 3e e0 3b ef 3d
       -0.10400036 0.2174767 0.23826247 0.11681342
0002b0 22 55 13 3e ba c4 7f be 60 c6 18 3d d0 14 8f 3d
       0.14387944 -0.24977389 0.03729856 0.069863915
0002c0 e7 ef 4e 3e 87 83 45 3e 2f 05 5a 3e 6e 15 19 3e
       0.20208703 0.19288455 0.2129104 0.14949581
0002d0 05 f9 60 3e 2b 58 33 3e 38 36 b4 bd 04 cc 21 be
       0.21969993 0.17514102 -0.08799404 -0.15800482
0002e0 43 64 d0 3d be 2e 65 bc 03 fa 2c 3e ff ec 7d bc
       0.101753734 -0.013988195 0.16892247 -0.015498399
0002f0 e8 0f 10 be ec 5f 5b be 96 51 08 be 9d a9 0b bd
       -0.14068568 -0.2142331 -0.13312373 -0.034097303
000300 21 3c f6 bb 85 01 ce 3d 72 7e 9f bd f0 14 70 bd
       -0.007514492 0.100588836 -0.077877894 -0.058613718
000310 7a 07 6f 3e cc 81 5b 3e 97 77 3b be 17 34 d8 3d
       0.23342696 0.21436232 -0.18307339 0.1055681
000320 64 e9 24 3e 2b 88 de 3c 83 ce 79 3e c5 6d 55 be
       0.16104656 0.02716454 0.24395184 -0.20842655
000330 65 1e 3a bd 0b 9e 98 3d ac d1 3a 3e 3f 52 1e 3d
       -0.045439143 0.07452019 0.18244046 0.038652655
000340 98 aa 09 3d f4 5d dd 3d 76 d5 6d 3e 1c 4e 28 3e
       0.033609957 0.10808936 0.2322596 0.16436046
000350 d4 a1 e7 3d 8c 64 d8 bd 82 45 42 3e 30 9c 57 3d
       0.11310163 -0.10566053 0.18971828 0.052639186
000360 70 29 25 bd cc ac ab 3d fc e9 34 3e e0 83 bc bc
       -0.04032272 0.08382568 0.17667383 -0.023012102
000370 1e 6a 40 3e b2 68 71 be 32 17 6a be 38 a1 53 3e
       0.1879048 -0.23575094 -0.22860411 0.20666969
000380 84 65 7d 3e 70 57 4a be dc 22 da 3d d0 30 52 be
       0.24745756 -0.19759917 0.1065118 -0.20526433
000390 c4 f0 31 be 52 9a 76 3e 48 4f 60 bd 20 cc 13 3c
       -0.17377001 0.24082306 -0.05476311 0.009020835
0003a0 90 12 5a 3d 18 ae a0 bd 1c 4d 42 be 48 d8 f0 3d
       0.05324036 -0.07845706 -0.18974727 0.117600024
0003b0 20 2e ce 3c a0 a3 09 3c 08 cd 52 3d b0 03 a2 bd
       0.025168478 0.008400828 0.051465064 -0.079108596
0003c0 84 3e 44 3e 00 e2 47 be fc da 2b be a4 24 99 bd
       0.19164473 -0.19519806 -0.16782755 -0.07477692
0003d0 f0 b2 51 bd 34 81 93 bd cc 67 99 3d ec 29 ef bd
       -0.05119604 -0.07202378 0.07490501 -0.11677918
0003e0 54 6a 4d 3e 5e 3d 7d be b0 19 9f 3c 00 7a 09 be
       0.20060092 -0.24730441 0.019421428 -0.13425446
0003f0 ae 1f 7f be 5e 43 4f 3e 10 53 2d 3d 90 2f 82 3d
       -0.24914429 0.20240542 0.042315543 0.06356728

fc1.bias f4 [64]
000000 00 41 26 bd a1 fd 1a 3e cf 98 31 bb 64 33 0b 3e
       -0.040589333 0.15135814 -0.0027099138 0.13593823
000010 07 0a 44 3e 5a 63 4b 3e c8 74 0e 3d 5c ca c4 bd
       0.1914445 0.19862118 0.03477934 -0.096089095
000020 fe 4d e9 bb 49 e7 51 3e 60 be 7d bd ea 64 0e 3e
       -0.007119893 0.20498385 -0.061949134 0.13905683
000030 b9 92 49 3e 62 bd 15 3e 84 b7 17 3e 60 52 c6 bd
       0.19684877 0.14623025 0.148161 -0.096836805
000040 a4 58 5a be 65 c0 cd 3d 4c 8c 6a 3e 23 f5 54 3e
       -0.21322876 0.10046462 0.22905082 0.20796637
000050 b3 b4 31 3e 2a 47 75 be 00 f7 f6 3d f0 2b bf bd
       0.17354088 -0.23952928 0.1205883 -0.09334552
000060 80 e0 fb bc 41 d5 83 3e 2a a2 76 be 74 53 05 be
       -0.030746698 0.25748637 -0.24085298 -0.13020116
000070 bb 3d 78 bd ae e3 0f be ac a9 bb bd 08 08 50 3e
       -0.060605746 -0.14051697 -0.09163222 0.20315564
000080 71 dc 72 3d 28 2b 45 3d be 1a 63 be ff 2c 34 3e
       0.05929226 0.04813686 -0.2217817 0.1759529
000090 32 f9 66 3e 7e bc 56 be 4b 9b 83 3d 9c 85 cb 3d
       0.22555998 -0.20970342 0.06426104 0.09937593
0000a0 00 df 4b bc cc 40 51 be 08 a4 3d bd 67 94 8a 3d
       -0.012443304 -0.20434874 -0.04629901 0.06766587
0000b0 c0 36 1e bd 32 8a 46 3e 83 71 dc 3d 7c 08 85 3e
       -0.038626432 0.19388655 0.10763838 0.25983036
0000c0 a7 30 8b 3d a4 4d 14 be 1c 09 92 bd 1b f1 24 be
       0.06796389 -0.14482743 -0.07130644 -0.161076
0000d0 7c 7c e6 3c 75 22 02 be e3 c6 55 3e 78 a6 0b 3d
       0.02813553 -0.12708457 0.2087665 0.034094304
0000e0 2f fb 02 bd 8a fe 3b be 4e be 2b 3e 2b 70 48 be
       -0.03197783 -0.18358818 0.16771814 -0.19574039
0000f0 03 b8 1e 3e 70 fc 4a be d4 0f 04 be df 3f 2e bd
       0.15499882 -0.1982286 -0.12896663 -0.04254138

fc2.weight f4 [32, 64]
000000 e0 c3 32 3c e6 bb b6 bd 9f 48 c5 3d 10 f8 9c 3c
       0.010910958 -0.089225575 0.09632992 0.019161254
000010 1e 8b 01 3e a2 d6 16 bc c0 0e 8b 3c f8 c1 11 3d
       0.12650725 -0.009206446 0.016974807 0.035585374
000020 28 10 f2 3d 27 99 41 3d fe bd a7 3d f5 d5 b8 bd
       0.11819488 0.047265198 0.08190535 -0.09025184
000030 2e c8 cd 3c 48 35 de 3d a8 87 52 3d a8 c0 be bc
       0.025119867 0.10850006 0.051398903 -0.023285225
000040 a0 c1 7d bd e0 11 46 3d e0 56 83 bc a8 bc b7 3d
       -0.061952233 0.04835689 -0.016032636 0.0897153
000050 8e 64 fb 3d 78 5a f7 3d 00 16 cb 3b 14 b7 c7 bd
       0.12275039 0.120778024 0.006197691 -0.09751716
000060 74 07 9c bd ce c5 b1 bd be ac d2 bd d6 18 85 3d
       -0.07618609 -0.086803064 -0.10286854 0.06498878
000070 0e c1 dd 3d c6 08 91 bd ae 4f f2 3d 54 01 07 3e
       0.10827838 -0.070817515 0.11831604 0.131841
000080 30 10 85 3d 28 93 d2 bd 08 5a a7 3d e7 48 54 bd
       0.06497228 -0.10281974 0.08171469 -0.051827338
000090 4d bb 5e 3d e4 73 9c bd fa 7d e0 bc 52 e6 8f bd
       0.054377843 -0.07639292 -0.02740382 -0.07026352
0000a0 74 5f 23 3d d0 92 8c bd 82 e5 a6 bd 2f b5 d2 3c
       0.039885953 -0.0686394 -0.08149244 0.02572116
0000b0 3a 00 bb 3d 1a 7c 8a 3c 18 51 0e 3d 29 8f fe 3d
       0.091309026 0.01690488 0.034745306 0.124296494
0000c0 f8 9a 30 bd 1e fa ab 3d c0 0a 40 bb 29 59 0b 3e
       -0.04311654 0.083973154 -0.0029303282 0.1360823
0000d0 15 57 3c bd 1c 9c bb 3d 4b 35 0a ba ee 11 c9 3d
       -0.045981485 0.09160635 -0.00052722235 0.09817873
0000e0 dc e8 52 bc c8 01 41 3d ce 6e 62 3d b1 8a 14 3e
       -0.012872901 0.04712084 0.055281453 0.14506032
0000f0 8d eb 2d 3d 7c 9c 18 bd e7 79 09 3e 47 ab bf 3d
       0.042460967 -0.03725861 0.13425408 0.093588404
000100 60 3a d1 3b fc bd 26 3c d0 50 a9 bd 28 98 ae bd
       0.0063851327 0.010177132 -0.08267367 -0.08525115
000110 e8 83 c9 3d ed 78 aa bb 1c 16 7a bd 18 fe da 3d
       0.09839612 -0.0052024038 -0.06105624 0.10692996
000120 47 40 26 3e 25 ff 83 bd 84 bc 0b bd e0 58 f6 3d
       0.16235457 -0.06445149 -0.03411533 0.1202867
000130 c0 53 ac 3d 18 56 e5 bc a0 17 d8 bb 8c 08 10 bd
       0.084144115 -0.027995154 -0.006594613 -0.0351644
000140 3e c9 c8 bd 87 00 5d 3d 9b 91 d2 3b 36 d4 1e 3e
       -0.09804009 0.05395558 0.006426049 0.1551064
000150 12 ab 4b bd 44 cd 08 bd c8 67 71 bd c2 ca d5 3d
       -0.049723692 -0.03339888 -0.058936864 0.104390636
000160 e0 51 2b 3c c1 f3 0e bd e0 ee 16 3d 64 20 5c bd
       0.010456532 -0.03490043 0.036848903 -0.053741828
000170 9f bc 84 3d bc f3 19 bd 02 ec b5 3d ae 5d bb 3d
       0.06481289 -0.03758596 0.088829055 0.09148727
000180 9a 32 e6 3d 88 5e 90 3c 38 93 f1 bd f8 87 1b bd
       0.1124012 0.017623201 -0.11795658 -0.037971467
000190 25 05 14 bd 70 40 fb 3d 1b a0 ea 3d 7e a7 c9 3d
       -0.03613772 0.1226815 0.11456319 0.098464
0001a0 24 56 9d 3d 64 6f ec 3d ac ab b7 3d ec 31 e7 3d
       0.07682446 0.115446836 0.08968291 0.11288819
0001b0 70 fa 1a 3c 12 b1 ec bd 4b 65 ce 3d 2e be fb 3c
       0.009459123 -0.11557211 0.10077914 0.030730333
0001c0 b7 19 9c bd f0 51 25 bc 28 6d d7 bc 58 14 ad bd
       -0.07622092 -0.010090336 -0.026297167 -0.08451146
0001d0 76 94 90 3d c3 b1 d2 bd bf d5 0d 3e 0f 64 1c 3c
       0.07059567 -0.102878116 0.13851069 0.00954534
0001e0 3d ed d9 3d e0 57 fe bd 69 e4 8a 3c 32 f3 05 3e
       0.10640953 -0.124191046 0.016954618 0.13081053
0001f0 a6 69 5d 3d 60 e9 a8 3d 71 22 12 bc 55 dd df 3d
       0.054055832 0.08247638 -0.008919344 0.109308876
000200 18 89 96 bc d1 84 cc bd a6 90 8b 3d 40 09 22 3d
       -0.018375918 -0.0998627 0.06814699 0.039559603
000210 c4 e7 35 3d 1e f0 9f 3d 98 b8 03 3d c0 0c 4b 3d
       0.044410482 0.078094706 0.032158464 0.049572706
000220 3d 8f 45 bd 36 a8 ae bd 70 71 12 3c 73 50 de bd
       -0.048232306 -0.085281774 0.008938178 -0.10855188
000230 28 65 0a be d0 f9 d7 bc 0e b3 be 3d d4 8a 6b bd
       -0.1351515 -0.026364237 0.09311496 -0.057505444
000240 94 ab f0 3d 97 ab c0 bd bd 2a 0e 3d 16 8f b0 3d
       0.11751476 -0.09407728 0.034708727 0.086210415
000250 fd 1b 05 3c 20 7e 8f bb 24 70 b0 bd b8 86 9f 3c
       0.008124349 -0.004379049 -0.08615139 0.019473419
000260 00 f7 fe ba a1 34 49 bd 8a a8 e9 bd b8 15 8d bd
       -0.0019452274 -0.049122456 -0.114090994 -0.06888908
000270 f0 da cb bc e4 a1 62 3d 28 c8 7d 3d 3f e9 83 3d
       -0.024884671 0.055330172 0.061958462 0.064409725
000280 e5 6e 86 bc 4c b9 64 3d 7c 5c bb 3d 38 d2 09 be
       -0.0164103 0.055840775 0.09148499 -0.13459098
000290 16 48 a4 bd e0 83 ea bc 0c 00 c9 bd b6 28 89 bd
       -0.08021562 -0.028627336 -0.09814462 -0.06697218
0002a0 2e 54 be 3d 00 ac 9b 3a 80 56 60 3c fc 9e 9e bc
       0.092934 0.0011876822 0.013692498 -0.019362919
0002b0 04 09 ed bd 1b a5 ba bd 56 f7 ba bc 7d 07 ab bd
       -0.11573985 -0.091135226 -0.022823017 -0.08351038
0002c0 cb c8 0d 3c 10 e8 00 bd a8 af 13 bd 4c 6a c6 3d
       0.00865383 -0.031471312 -0.03605619 0.09688243
0002d0 75 19 07 3d 35 1d d2 3c 07 b8 16 bd 2f fe 1c bd
       0.032983262 0.025648693 -0.036796596 -0.038328346
0002e0 61 ea 7f bd f8 cf 11 bd 6a d7 9c 3c 50 d9 47 3a
       -0.06247938 -0.035598725 0.019145686 0.00076236296
0002f0 e4 46 e4 bd 00 82 fe 3b f1 c6 ab 3c 52 29 84 3d
       -0.11146334 0.007766962 0.020968886 0.06453194
000300 f4 8f 1d bd f2 d5 92 bd be 54 fb 3c 30 04 f8 bc
       -0.038467363 -0.07169713 0.030680057 -0.030275434
000310 a1 f7 a6 bd a8 83 b3 3c 34 af 9d 3d 38 38 8c bc
       -0.081527 0.021913365 0.07699433 -0.017116651
000320 e2 9b 99 3d 48 36 70 3c 40 27 fb bc 8c eb 1d 3d
       0.075004354 0.014661379 -0.030658364 0.038554713
000330 56 16 a4 bd 08 8c b0 3d 72 23 e1 3d 90 db f4 bc
       -0.08012073 0.08620459 0.10993089 -0.029889852
000340 1a 45 9d bd d6 87 bf bd 82 11 e8 3c e3 71 9b 3d
       -0.07679196 -0.093520805 0.02832866 0.075900815
000350 58 9d 27 bd 48 49 9b 3c d8 7b 1a bd 4c 31 8b 3d
       -0.04092154 0.018955842 -0.037715763 0.06796512
000360 6e ec 90 bd 8e f7 17 bd c0 37 20 3b ca ff fd bd
       -0.070763454 -0.03710132 0.0024447292 -0.124023035
000370 a9 dc f5 3c a4 c1 5d 3d 32 5c 89 3d 47 fd d7 3d
       0.030012446 0.05413975 0.06707038 0.10546356
000380 a2 6d 3b bc 68 f9 55 bd 54 47 42 3d b7 3f 1d bd
       -0.011439713 -0.052239805 0.047431305 -0.03839084
000390 ef 5a c6 3d a0 d6 98 3d 2f 93 ec bd 01 89 c8 bc
       0.09685313 0.074628115 -0.115515105 -0.024479391
0003a0 80 08 ee 3b c0 c0 11 3d e6 68 97 3d 98 1a f3 3d
       0.007264197 0.03558421 0.07393055 0.11870307
0003b0 28 7c cc 3d cd e8 c5 bd 99 31 47 bd 59 7d ef bc
       0.099846184 -0.09663544 -0.048631284 -0.029234575
0003c0 ce 9c 40 3d 4e 44 c6 3d 84 5e 0d 3d 90 e0 02 3e
       0.04702454 0.09680997 0.034513965 0.12780976
0003d0 aa 0e e9 bc 54 32 6b 3c dc fa 74 bd 07 98 d0 3c
       -0.028449375 0.014355261 -0.05980955 0.025463117
0003e0 51 e0 63 3d 68 cf d4 3d 1a 13 ad 3d 8c b9 0d be
       0.055633847 0.10391122 0.08450909 -0.13840312
0003f0 e7 54 e5 3d 32 32 b2 3d 7b f8 c9 bd 7a 2d a8 3d
       0.111978345 0.0870098 -0.09861847 0.08211799

fc2.bias f4 [32]
000000 8f 00 9c 3d 20 a7 a8 bd 28 10 66 3d 6d a7 cd 3d
       0.07617294 -0.082350016 0.05616775 0.100416996
000010 29 62 a5 3d ee e9 9d 3c 89 d3 8b 3d 00 58 06 3c
       0.08075363 0.019276585 0.068274565 0.008199692
000020 52 4a 44 3a fa 78 9b bd d0 e0 f5 bd ec 5d c4 3c
       0.0007487881 -0.07591434 -0.1200577 0.023970567
000030 16 72 62 bb 7c 36 b3 bd a1 61 f1 3c d2 7c 1b bd
       -0.0034552864 -0.087506264 0.029465498 -0.037960835
000040 5f 08 8c 3d 69 a2 e3 3b 47 89 0d 3e 3c 8a d4 bd
       0.06837534 0.006946851 0.13821898 -0.103779286
000050 68 4d 16 3e 47 7c 0d 3e d1 b8 7b 3c c8 e4 5a bd
       0.14677966 0.1381694 0.015363888 -0.05344084
000060 d8 05 6e bd dd ad 8b bc 3e 71 7f 3d 1f 10 48 bd
       -0.05811104 -0.017050678 0.062363856 -0.0488435
000070 36 d6 c3 bd 8f 53 a0 bd f0 45 46 3d 80 5e 80 3b
       -0.09562342 -0.078284375 0.04840654 0.0039175153

fc3.weight f4 [1, 32]
000000 84 ef 66 3d 67 38 0d 3e 8a 3e 8e bd b4 58 b2 3c
       0.056380764 0.13791047 -0.06945522 0.021770813
000010 18 51 a2 3c 48 09 0d be c9 d2 f5 bd ee 44 48 3d
       0.01981406 -0.13773072 -0.12003095 0.04889386
000020 b6 97 3f 3e 31 80 f2 bd 23 d4 5a bd e5 77 6d 3d
       0.18710217 -0.11840857 -0.053424966 0.05797567
000030 7b 30 92 3d 16 a6 30 3d 90 aa 02 be 74 47 2a 3e
       0.07138153 0.043127142 -0.12760377 0.1662882
000040 9c 37 06 3d cf 0a a5 bc b2 96 f7 3d 1a 17 90 bd
       0.032767877 -0.020146756 0.1208929 -0.07035656
000050 61 cb b4 3c de f4 09 3e 35 5e 17 bd ea a4 d9 3d
       0.022069635 0.13472316 -0.036955077 0.10627158
000060 38 c6 0f be 99 16 a8 3a ef 46 a0 bc 97 ef e8 3d
       -0.14040458 0.0012824117 -0.019565074 0.11373823
000070 cf 4e 31 3e 1c d0 0c be 9a 44 0c be 44 2e ca bd
       0.1731522 -0.13751262 -0.13698044 -0.09872106

exp_avg f4 [64, 16]
000000 00 00 00 00 00 00 00 00 00 00 00 00 00 00 00 00
       0.0 0.0 0.0 0.0
000010 00 00 00 00 00 00 00 00 00 00 00 00 00 00 00 00
       0.0 0.0 0.0 0.0
000020 00 00 00 00 00 00 00 00 00 00 00 00 00 00 00 00
       0.0 0.0 0.0 0.0
000030 00 00 00 00 00 00 00 00 00 00 00 00 00 00 00 00
       0.0 0.0 0.0 0.0
000040 4a 1c 3e 3a 8c 97 fd ba 42 3e 23 3a cb 22 b6 b9
       0.000725214 -0.0019347533 0.00062272337 -0.00034739668
000050 cf 95 2e b9 05 ca c4 3a bc 76 85 3a dd 8d 1a 39
       -0.00016649741 0.001501382 0.001018248 0.00014739433
000060 ef 2d bc ba b0 f5 c0 39 b3 32 db b9 4d a6 f2 b9
       -0.0014356951 0.00036804145 -0.0004180871 -0.0004628174
000070 61 0f 5b 3a e1 11 68 ba 99 e7 b0 ba 54 8d 9f 3a
       0.00083564786 -0.0008852762 -0.0013496756 0.0012172856
000080 f3 14 84 b9 2f 93 d1 39 23 60 d6 b8 51 10 21 37
       -0.0002519261 0.00039973247 -0.00010222222 9.600147e-06
000090 54 11 56 b7 60 04 ba b9 4e 06 a8 b9 22 df 45 b9
       -1.27594285e-05 -0.00035479944 -0.00032048154 -0.00018870507
0000a0 26 83 cb 39 3b 30 33 b9 64 1b 24 39 13 4a c7 38
       0.0003881689 -0.00017088738 0.00015650463 9.502857e-05
0000b0 20 6b 19 b9 da be 46 39 e4 77 3c 39 1a 2e 94 b9
       -0.00014631124 0.00018953849 0.0001797374 -0.00028263108
0000c0 00 00 00 00 00 00 00 00 00 00 00 00 00 00 00 00
       0.0 0.0 0.0 0.0
0000d0 00 00 00 00 00 00 00 00 00 00 00 00 00 00 00 00
       0.0 0.0 0.0 0.0
0000e0 00 00 00 00 00 00 00 00 00 00 00 00 00 00 00 00
       0.0 0.0 0.0 0.0
0000f0 00 00 00 00 00 00 00 00 00 00 00 00 00 00 00 00
       0.0 0.0 0.0 0.0
000100 8f 03 25 ba 1a f7 aa 3a 35 f4 de b9 c2 46 0a 39
       -0.0006294781 0.0013043613 -0.00042525088 0.00013187065
000110 30 7e 99 38 21 41 8a ba b9 fb 51 ba d4 b5 95 b9
       7.319113e-05 -0.0010547974 -0.0008010227 -0.00028554967
000120 ed 6a 88 3a b4 70 b6 b9 08 41 ba 39 b1 bd 95 39
       0.0010407843 -0.00034797715 0.00035525137 0.00028560826
000130 fe 26 03 ba 99 80 1e 3a 7a 55 4b 3a 14 85 63 ba
       -0.00050030637 0.0006046384 0.00077565724 -0.0008679193
000140 bd dd 10 ba 4b 40 00 3a 26 17 75 b9 63 4a 61 b9
       -0.00055262056 0.0004892393 -0.00023373644 -0.00021485383
000150 9d 25 a6 b7 6b c7 e7 b9 28 c0 04 ba 57 0f 04 ba
       -1.9806257e-05 -0.0004420833 -0.0005064034 -0.0005037686
000160 bd 04 06 3a 61 71 ac b9 af 35 91 39 2b 0a 9e 37
       0.00051124004 -0.0003289087 0.00027696553 1.8839803e-05
000170 78 1a 9f 36 ee be 73 39 b2 d9 0f b7 50 fc de b9
       4.7416506e-06 0.00023245413 -8.57415e-06 -0.00042531127
000180 00 00 00 00 00 00 00 00 00 00 00 00 00 00 00 00
       0.0 0.0 0.0 0.0
000190 00 00 00 00 00 00 00 00 00 00 00 00 00 00 00 00
       0.0 0.0 0.0 0.0
0001a0 00 00 00 00 00 00 00 00 00 00 00 00 00 00 00 00
       0.0 0.0 0.0 0.0
0001b0 00 00 00 00 00 00 00 00 00 00 00 00 00 00 00 00
       0.0 0.0 0.0 0.0
0001c0 00 00 00 00 00 00 00 00 00 00 00 00 00 00 00 00
       0.0 0.0 0.0 0.0
0001d0 00 00 00 00 00 00 00 00 00 00 00 00 00 00 00 00
       0.0 0.0 0.0 0.0
0001e0 00 00 00 00 00 00 00 00 00 00 00 00 00 00 00 00
       0.0 0.0 0.0 0.0
0001f0 00 00 00 00 00 00 00 00 00 00 00 00 00 00 00 00
       0.0 0.0 0.0 0.0
000200 7e 05 b1 3b 79 ee 62 bc 3d 60 93 3b e6 d5 15 bb
       0.005402266 -0.013850802 0.0044975565 -0.002286309
000210 a9 af 94 ba b0 d3 2f 3c c1 94 f2 3b b5 71 b4 3a
       -0.0011343855 0.010731623 0.0074029868 0.0013766797
000220 a1 e3 2a bc be 49 37 3b 75 08 4a bb 1f c8 56 bb
       -0.0104302475 0.0027967538 -0.0030827795 -0.003277309
000230 95 cf bd 3b 0b b3 ce bb 16 75 1a bc 02 3b 0f 3c
       0.005792568 -0.0063079647 -0.0094273295 0.008742096
000240 39 52 8d 3a 8a d3 3c bb 60 4b 73 3a e4 b7 06 ba
       0.001078195 -0.002881261 0.0009280946 -0.0005139096
000250 09 4d 81 b9 97 db 11 3b b7 f9 c5 3a e6 39 6b 39
       -0.00024662193 0.002225613 0.0015104328 0.00022432915
000260 bc b3 0c bb 72 3c 10 3a fd 15 23 ba da 89 35 ba
       -0.0021469435 0.0005502171 -0.0006221233 -0.00069251435
000270 e9 06 a2 3a a4 21 ac ba 21 8b 03 bb 94 c9 ec 3a
       0.0012361679 -0.0013132584 -0.002007194 0.0018065446
000280 00 00 00 00 00 00 00 00 00 00 00 00 00 00 00 00
       0.0 0.0 0.0 0.0
000290 00 00 00 00 00 00 00 00 00 00 00 00 00 00 00 00
       0.0 0.0 0.0 0.0
0002a0 00 00 00 00 00 00 00 00 00 00 00 00 00 00 00 00
       0.0 0.0 0.0 0.0
0002b0 00 00 00 00 00 00 00 00 00 00 00 00 00 00 00 00
       0.0 0.0 0.0 0.0
0002c0 5a b7 83 37 90 34 af 38 d8 1f 3c b7 8f 03 54 38
       1.5701797e-05 8.354441e-05 -1.1213087e-05 5.0548053e-05
0002d0 0f 02 f1 36 49 95 45 b8 94 8d 2e b7 55 74 24 38
       7.1825993e-06 -4.7107493e-05 -1.0404172e-05 3.920899e-05
0002e0 76 82 72 38 5a 06 ad 36 40 d4 a0 b6 ae b7 1d 38
       5.7818797e-05 5.156541e-06 -4.7930807e-06 3.7602782e-05
0002f0 f3 d8 69 b8 7d fb 02 38 6c da c5 38 84 59 e3 b7
       -5.575358e-05 3.1228632e-05 9.434376e-05 -2.7102193e-05
000300 4b a9 80 3a 7b 3c 49 bb 87 53 84 3a c7 80 2d ba
       0.0009816078 -0.0030706215 0.0010095694 -0.00066186156
000310 f2 82 a8 b9 1b cf 17 3b 15 06 bd 3a 49 40 73 b7
       -0.0003214102 0.0023164216 0.0014421368 -1.4498896e-05
000320 37 87 0c bb 98 27 e5 39 e7 5d 0f ba 79 af 43 ba
       -0.00214429 0.00043707783 -0.00054690096 -0.0007464807
000330 67 39 b4 3a 2a 89 b6 ba 4a 68 16 bb e6 a0 f5 3a
       0.0013750017 -0.0013926376 -0.0022950345 0.0018739968
000340 00 00 00 00 00 00 00 00 00 00 00 00 00 00 00 00
       0.0 0.0 0.0 0.0
000350 00 00 00 00 00 00 00 00 00 00 00 00 00 00 00 00
       0.0 0.0 0.0 0.0
000360 00 00 00 00 00 00 00 00 00 00 00 00 00 00 00 00
       0.0 0.0 0.0 0.0
000370 00 00 00 00 00 00 00 00 00 00 00 00 00 00 00 00
       0.0 0.0 0.0 0.0
000380 00 00 00 00 00 00 00 00 00 00 00 00 00 00 00 00
       0.0 0.0 0.0 0.0
000390 00 00 00 00 00 00 00 00 00 00 00 00 00 00 00 00
       0.0 0.0 0.0 0.0
0003a0 00 00 00 00 00 00 00 00 00 00 00 00 00 00 00 00
       0.0 0.0 0.0 0.0
0003b0 00 00 00 00 00 00 00 00 00 00 00 00 00 00 00 00
       0.0 0.0 0.0 0.0
0003c0 00 00 00 00 00 00 00 00 00 00 00 00 00 00 00 00
       0.0 0.0 0.0 0.0
0003d0 00 00 00 00 00 00 00 00 00 00 00 00 00 00 00 00
       0.0 0.0 0.0 0.0
0003e0 00 00 00 00 00 00 00 00 00 00 00 00 00 00 00 00
       0.0 0.0 0.0 0.0
0003f0 00 00 00 00 00 00 00 00 00 00 00 00 00 00 00 00
       0.0 0.0 0.0 0.0

exp_avg_sq f4 [64, 16]
000000 00 00 00 00 00 00 00 00 00 00 00 00 00 00 00 00
       0.0 0.0 0.0 0.0
000010 00 00 00 00 00 00 00 00 00 00 00 00 00 00 00 00
       0.0 0.0 0.0 0.0
000020 00 00 00 00 00 00 00 00 00 00 00 00 00 00 00 00
       0.0 0.0 0.0 0.0
000030 00 00 00 00 00 00 00 00 00 00 00 00 00 00 00 00
       0.0 0.0 0.0 0.0
000040 01 7d 0b 37 93 4b 40 38 81 ff ae 36 c0 cc 8c 35
       8.31415e-06 4.584675e-05 5.2153487e-06 1.0490403e-06
000050 21 ac a9 34 c5 8c e8 37 75 f9 6a 37 00 b3 a8 35
       3.1603943e-07 2.7722106e-05 1.4005568e-05 1.2569071e-06
000060 d4 ae dd 37 49 cc 18 36 fb 81 2d 36 ee 05 1e 36
       2.6426664e-05 2.2768675e-06 2.5854667e-06 2.3547286e-06
000070 d4 ac f5 36 6c e1 1f 37 b7 5c a6 37 57 7e 9e 37
       7.321689e-06 9.529624e-06 1.9831916e-05 1.88939e-05
000080 8c da 0a 37 a4 56 42 38 79 a0 b0 36 54 01 95 35
       8.276325e-06 4.6333895e-05 5.26389e-06 1.1101752e-06
000090 f7 34 af 34 8f 7c ea 37 75 dc 6a 37 e2 64 a6 35
       3.2634827e-07 2.7952976e-05 1.3998816e-05 1.2397325e-06
0000a0 6c 96 de 37 aa 0e 17 36 d8 43 2c 36 74 94 20 36
       2.6534508e-05 2.250929e-06 2.5669488e-06 2.392827e-06
0000b0 66 75 fa 36 82 79 21 37 7d 09 aa 37 8c 95 9f 37
       7.4642476e-06 9.624639e-06 2.0269998e-05 1.9023915e-05
0000c0 00 00 00 00 00 00 00 00 00 00 00 00 00 00 00 00
       0.0 0.0 0.0 0.0
0000d0 00 00 00 00 00 00 00 00 00 00 00 00 00 00 00 00
       0.0 0.0 0.0 0.0
0000e0 00 00 00 00 00 00 00 00 00 00 00 00 00 00 00 00
       0.0 0.0 0.0 0.0
0000f0 00 00 00 00 00 00 00 00 00 00 00 00 00 00 00 00
       0.0 0.0 0.0 0.0
000100 e3 ed c6 36 34 1b 0c 38 08 a3 7c 36 89 08 58 35
       5.9285535e-06 3.3403936e-05 3.7645823e-06 8.047869e-07
000110 cc c3 77 34 a5 0e a9 37 56 5e 29 37 d7 fc 68 35
       2.3074898e-07 2.015319e-05 1.0095149e-05 8.6794665e-07
000120 ec 17 a1 37 ef bb d9 35 66 35 f8 35 df c9 e9 35
       1.9203835e-05 1.6222456e-06 1.8492981e-06 1.7418605e-06
000130 dc 86 b5 36 ba ad e8 36 0c 66 75 37 7f 95 65 37
       5.40992e-06 6.9343632e-06 1.4626898e-05 1.3684271e-05
000140 3c 86 95 37 56 a4 cd 38 fb 00 3a 37 d7 46 19 36
       1.7824692e-05 9.805772e-05 1.1086692e-05 2.284001e-06
000150 c3 3a 32 35 4a 1b 79 38 bd 2f fc 37 af 83 38 36
       6.6395677e-07 5.939164e-05 3.006297e-05 2.7494787e-06
000160 dc ac 6d 38 ea 9a a4 36 cf 5a ba 36 b0 d7 a9 36
       5.666619e-05 4.9056152e-06 5.5538035e-06 5.061702e-06
000170 e0 fe 83 37 77 15 ab 37 8d f7 31 38 39 83 29 38
       1.5735102e-05 2.0394784e-05 4.2430638e-05 4.041495e-05
000180 00 00 00 00 00 00 00 00 00 00 00 00 00 00 00 00
       0.0 0.0 0.0 0.0
000190 00 00 00 00 00 00 00 00 00 00 00 00 00 00 00 00
       0.0 0.0 0.0 0.0
0001a0 00 00 00 00 00 00 00 00 00 00 00 00 00 00 00 00
       0.0 0.0 0.0 0.0
0001b0 00 00 00 00 00 00 00 00 00 00 00 00 00 00 00 00
       0.0 0.0 0.0 0.0
0001c0 00 00 00 00 00 00 00 00 00 00 00 00 00 00 00 00
       0.0 0.0 0.0 0.0
0001d0 00 00 00 00 00 00 00 00 00 00 00 00 00 00 00 00
       0.0 0.0 0.0 0.0
0001e0 00 00 00 00 00 00 00 00 00 00 00 00 00 00 00 00
       0.0 0.0 0.0 0.0
0001f0 00 00 00 00 00 00 00 00 00 00 00 00 00 00 00 00
       0.0 0.0 0.0 0.0
000200 b0 d6 89 38 fa 89 bb 39 c8 59 2a 38 de bd 09 37
       6.572658e-05 0.0003577022 4.0614774e-05 8.210043e-06
000210 27 6d 22 36 59 80 63 39 50 3a e7 38 41 e4 2d 37
       2.4203416e-06 0.0002169622 0.000110258 1.0364748e-05
000220 56 fd 58 39 6b c3 97 37 aa 89 ab 37 ca f6 99 37
       0.0002069374 1.8091601e-05 2.0448893e-05 1.8353941e-05
000230 c0 83 6f 38 6d 26 9c 38 0a 80 21 39 50 0e 1b 39
       5.7104742e-05 7.445817e-05 0.00015401855 0.00014787284
000240 17 b2 5d 37 18 8c 98 38 ae 25 08 37 0e 6b e4 35
       1.3214091e-05 7.274019e-05 8.115005e-06 1.7018481e-06
000250 d2 46 ff 34 d0 73 39 38 af 81 bc 37 f4 3b 08 36
       4.754898e-07 4.4215296e-05 2.2471735e-05 2.0300477e-06
000260 c3 77 31 38 5a cf 76 36 21 94 8b 36 b5 c5 7e 36
       4.2311625e-05 3.677755e-06 4.1597673e-06 3.796403e-06
000270 e2 7e 45 37 6e 27 7e 37 71 db 03 38 18 87 fb 37
       1.1771657e-05 1.514876e-05 3.1437205e-05 2.998444e-05
000280 00 00 00 00 00 00 00 00 00 00 00 00 00 00 00 00
       0.0 0.0 0.0 0.0
000290 00 00 00 00 00 00 00 00 00 00 00 00 00 00 00 00
       0.0 0.0 0.0 0.0
0002a0 00 00 00 00 00 00 00 00 00 00 00 00 00 00 00 00
       0.0 0.0 0.0 0.0
0002b0 00 00 00 00 00 00 00 00 00 00 00 00 00 00 00 00
       0.0 0.0 0.0 0.0
0002c0 17 c8 dc 35 52 08 17 37 e7 18 86 35 75 35 62 34
       1.6449511e-06 9.002239e-06 9.991026e-07 2.1067338e-07
0002d0 ad 46 7a 33 12 08 b8 36 22 8c 3c 36 a9 e2 8a 34
       5.827194e-08 5.484567e-06 2.809575e-06 2.586942e-07
0002e0 66 21 b1 36 3c 4f f9 34 2d d9 0c 35 8a 24 fe 34
       5.278899e-06 4.6437515e-07 5.2470097e-07 4.7337772e-07
0002f0 1b 8f c4 35 3a da fb 35 d8 45 82 36 48 5e 79 36
       1.4644787e-06 1.876447e-06 3.882433e-06 3.715877e-06
000300 04 92 b0 37 b7 47 fb 38 64 aa 60 37 53 de 44 36
       2.1048829e-05 0.000119819706 1.3391113e-05 2.9335686e-06
000310 01 23 5d 35 8e cb 97 38 48 b9 17 38 1c f3 49 36
       8.2379853e-07 7.238156e-05 3.6173762e-05 3.0092842e-06
000320 b4 8c 90 38 b7 b6 c1 36 05 23 de 36 6b 74 d3 36
       6.892663e-05 5.773119e-06 6.6201924e-06 6.301843e-06
000330 27 58 a4 37 0b d3 d0 37 80 42 5d 38 30 a5 4d 38
       1.9591373e-05 2.4893807e-05 5.275244e-05 4.902965e-05
000340 00 00 00 00 00 00 00 00 00 00 00 00 00 00 00 00
       0.0 0.0 0.0 0.0
000350 00 00 00 00 00 00 00 00 00 00 00 00 00 00 00 00
       0.0 0.0 0.0 0.0
000360 00 00 00 00 00 00 00 00 00 00 00 00 00 00 00 00
       0.0 0.0 0.0 0.0
000370 00 00 00 00 00 00 00 00 00 00 00 00 00 00 00 00
       0.0 0.0 0.0 0.0
000380 00 00 00 00 00 00 00 00 00 00 00 00 00 00 00 00
       0.0 0.0 0.0 0.0
000390 00 00 00 00 00 00 00 00 00 00 00 00 00 00 00 00
       0.0 0.0 0.0 0.0
0003a0 00 00 00 00 00 00 00 00 00 00 00 00 00 00 00 00
       0.0 0.0 0.0 0.0
0003b0 00 00 00 00 00 00 00 00 00 00 00 00 00 00 00 00
       0.0 0.0 0.0 0.0
0003c0 00 00 00 00 00 00 00 00 00 00 00 00 00 00 00 00
       0.0 0.0 0.0 0.0
0003d0 00 00 00 00 00 00 00 00 00 00 00 00 00 00 00 00
       0.0 0.0 0.0 0.0
0003e0 00 00 00 00 00 00 00 00 00 00 00 00 00 00 00 00
       0.0 0.0 0.0 0.0
0003f0 00 00 00 00 00 00 00 00 00 00 00 00 00 00 00 00
       0.0 0.0 0.0 0.0

exp_avg f4 [64]
000000 00 00 00 00 9a f7 95 bb 09 06 90 3a 00 00 00 00
       0.0 -0.0045766355 0.0010988127 0.0
000010 3d 80 53 3b 9c 71 b9 3a 00 00 00 00 00 00 00 00
       0.003227248 0.0014148238 0.0 0.0
000020 52 62 06 bd da c1 de bb 00 00 00 00 99 60 1a 39
       -0.03280861 -0.0067980113 0.0 0.0001472257
000030 58 07 e6 bb 00 00 00 00 00 00 00 00 00 00 00 00
       -0.0070199184 0.0 0.0 0.0
000040 00 00 00 00 93 9a 47 bc 57 4a 37 bc 80 dc 64 b9
       0.0 -0.012182849 -0.011187158 -0.00021825917
000050 a6 52 90 bb 00 00 00 00 00 00 00 00 00 00 00 00
       -0.0044043837 0.0 0.0 0.0
000060 00 00 00 00 d3 d6 01 bc 00 00 00 00 00 00 00 00
       0.0 -0.007924753 0.0 0.0
000070 20 9e a5 bc 00 00 00 00 00 00 00 00 f2 f4 52 bc
       -0.020217001 0.0 0.0 -0.012875782
000080 5b b4 9a ba 00 00 00 00 00 00 00 00 41 35 da bb
       -0.0011803018 0.0 0.0 -0.0066591804
000090 0a d5 7f bc 00 00 00 00 d9 8d 4a bc d0 92 b3 bb
       -0.015614757 0.0 -0.012362921 -0.005480148
0000a0 00 00 00 00 00 00 00 00 00 00 00 00 10 15 0f bc
       0.0 0.0 0.0 -0.008733049
0000b0 00 00 00 00 cc e5 d8 bb 32 a2 4d bc b3 43 45 bc
       0.0 -0.006619191 -0.012550877 -0.0120400665
0000c0 a7 45 f4 3a 00 00 00 00 00 00 00 00 9f ad ef ba
       0.0018636481 0.0 0.0 -0.0018285996
0000d0 7b 98 52 bc e8 97 a2 0d 2f f4 f6 bb 9f 39 4d bb
       -0.012853737 1.0020591e-30 -0.007536433 -0.0031314862
0000e0 51 c1 a0 18 00 00 00 00 75 37 50 bc 3c 2b 8f 0d
       4.155423e-24 0.0 -0.0127085345 8.823464e-31
0000f0 a8 e5 1f bc 00 00 00 00 12 c8 5f bc 2e 78 63 0c
       -0.009759344 0.0 -0.01365854 1.7523609e-31

exp_avg_sq f4 [64]
000000 00 00 00 00 de 5d 88 39 99 58 89 39 00 00 00 00
       0.0 0.00026009878 0.00026196687 0.0
000010 aa 28 46 39 dd 0e 12 3a 00 00 00 00 00 00 00 00
       0.000188979 0.0005571673 0.0 0.0
000020 89 66 05 3b 53 81 d9 39 00 00 00 00 6f 36 58 38
       0.0020355305 0.0004148582 0.0 5.154911e-05
000030 b6 df 31 3a 00 00 00 00 00 00 00 00 00 00 00 00
       0.00067853497 0.0 0.0 0.0
000040 00 00 00 00 8d b1 0a 3b c2 d6 1c 3a 19 c3 df 38
       0.0 0.0021162957 0.0005982929 0.000106698084
000050 c3 88 5a 39 00 00 00 00 00 00 00 00 00 00 00 00
       0.00020841048 0.0 0.0 0.0
000060 00 00 00 00 57 02 f6 39 00 00 00 00 00 00 00 00
       0.0 0.0004692252 0.0 0.0
000070 10 ff b6 3a 00 00 00 00 00 00 00 00 18 de a3 39
       0.0013961513 0.0 0.0 0.00031255255
000080 0e 22 15 39 00 00 00 00 00 00 00 00 c6 c3 a0 38
       0.00014222434 0.0 0.0 7.66586e-05
000090 25 d8 a0 3a 00 00 00 00 18 ef 8f 3a 54 8a 41 39
       0.0012271447 0.0 0.001098129 0.00018457446
0000a0 00 00 00 00 00 00 00 00 00 00 00 00 70 24 53 3a
       0.0 0.0 0.0 0.0008054441
0000b0 00 00 00 00 7b 6c 7b 39 47 45 a2 3a 01 7c 76 3a
       0.0 0.00023977637 0.0012380265 0.00094026333
0000c0 3b 95 97 38 00 00 00 00 00 00 00 00 f1 a3 1b 39
       7.2280374e-05 0.0 0.0 0.00014843025
0000d0 2a 32 a6 3a d1 cd a6 37 05 68 2b 3a fa 4c f7 39
       0.0012679745 1.9884583e-05 0.00065386324 0.00047168863
0000e0 40 81 40 37 00 00 00 00 dd c3 8b 3a e7 6c 03 37
       1.1474185e-05 0.0 0.001066323 7.833564e-06
0000f0 20 73 ca 39 00 00 00 00 1d 8a 8b 3a 9d cc 29 37
       0.00038614217 0.0 0.0010646019 1.0120825e-05
