models/E.coli_limonene_supervised_checkpoint.pth (torch, 52782 bytes, 23 tensors)

conv1.att_src f4 [1, 1, 32]
-0.11736093 -0.31760076 -0.26852185 0.23987241 0.1157506 -0.20100152 0.29571328 -0.013477995
-0.32916105 -0.35905412 -0.11720305 0.27065256 0.16537464 0.33303133 0.41022834 0.35903358
-0.22854894 0.12340606 -0.03962618 -0.28389212 -0.024966974 0.07919578 -0.035597924 0.2127009
-0.24694835 -0.21602778 -0.232593 0.3803673 -0.03360916 0.13387495 -0.19305156 -0.29212523
00000000: ed5a f0bd 919c a2be b27b 89be 1da1 753e
00000010: a70e ed3d 58d3 4dbe bb67 973e cfd2 5cbc
00000020: cc87 a8be f1d5 b7be 2708 f0bd f992 8a3e
00000030: f857 293e 1583 aa3e 7309 d23e 40d3 b73e
00000040: bc08 6abe 51bc fc3d 104f 22bd 4f5a 91be
00000050: 8a87 ccbc 6631 a23d 21cf 11bd 44ce 593e
00000060: 07e0 7cbe 6336 5dbe dc2c 6ebe 81bf c23e
00000070: c2a9 09bd 8416 093e 4faf 45be 7091 95be

conv1.att_dst f4 [1, 1, 32]
0.29984066 -0.12853308 -0.3238703 0.10092381 0.122405805 -0.14818689 0.055913962 -0.24175641
-0.29652068 0.30222362 -0.15861833 0.21479036 0.36093804 0.3739421 0.36053964 0.39476362
-0.29270002 -0.011385181 0.122477226 0.007900766 -0.13631591 0.22385047 0.21707252 -0.19886205
0.19151936 -0.3945203 0.4101439 -0.38429222 -0.2224446 0.20561795 0.12798807 -0.23753525
00000000: b784 993e 2d9e 03be 54d2 a5be 24b1 ce3d
00000010: e5af fa3d 4ebe 17be 0a06 653d fe8e 77be
00000020: 8fd1 97be 0ebd 9a3e d86c 22be 01f2 5b3e
00000030: dfcc b83e 5775 bf3e a798 b83e 751e ca3e
00000040: c7dc 95be e988 3abc 57d5 fa3d 3772 013c
00000050: 6696 0bbe 0f39 653e 4248 5e3e 7ea2 4bbe
00000060: a71d 443e 91fe c9be 62fe d13e f3c1 c4be
00000070: 84c8 63be 838d 523e 4e0f 033e 713c 73be

conv1.bias f4 [32]
0.0 0.0 0.0 0.0 0.0 0.0 0.0 0.0
0.0 0.0 0.0 0.0 0.0 0.0 0.0 0.0
0.0 0.0 0.0 0.0 0.0 0.0 0.0 0.0
0.0 0.0 0.0 0.0 0.0 0.0 0.0 0.0
00000000: 0000 0000 0000 0000 0000 0000 0000 0000
00000010: 0000 0000 0000 0000 0000 0000 0000 0000
00000020: 0000 0000 0000 0000 0000 0000 0000 0000
00000030: 0000 0000 0000 0000 0000 0000 0000 0000
00000040: 0000 0000 0000 0000 0000 0000 0000 0000
00000050: 0000 0000 0000 0000 0000 0000 0000 0000
00000060: 0000 0000 0000 0000 0000 0000 0000 0000
00000070: 0000 0000 0000 0000 0000 0000 0000 0000

conv1.lin.weight f4 [32, 3]
0.23076381 -0.32236287 0.13721848 -0.2685149 -0.31696802 -0.16581553 0.15123719 -0.022873621
-0.1245678 -0.2824974 -0.039180495 -0.11770052 -0.27690226 0.12567152 0.2988487 -0.21305682
0.15573755 0.21234064 0.056021612 0.32541424 -0.034057006 -0.37873843 0.069731794 0.22348276
0.1120451 -0.09781543 0.18583974 0.29002967 0.3643039 0.253476 0.1057972 -0.18677828
0.27241722 -0.24330403 -0.2637666 -0.361242 0.39769885 -0.37001106 -0.036066737 0.029676838
-0.18967071 -0.06992483 -0.32646236 0.37802103 -0.30944684 0.3877914 0.26504558 -0.09728247
0.16111839 0.21105547 0.055921268 -0.093433835 0.14777665 -0.28184777 0.3771472 -0.034392636
0.32735193 -0.37993446 -0.078335814 0.038409237 -0.21260688 -0.2811033 -0.07014645 -0.03329108
0.18485072 0.117238775 -0.11850035 0.37788382 0.32494769 0.30806118 0.2599453 -0.2736348
0.37079057 0.2314134 0.35505477 -0.12673779 -0.16207479 -0.076011285 0.36508974 -0.3493185
-0.016485104 -0.07644321 -0.19417784 0.2999547 0.14912924 0.2457027 0.34512627 0.012930142
0.04716967 0.08327027 0.053302765 0.14017819 0.23294403 -0.12697521 0.16588616 -0.39691097
00000000: 594d 6c3e bf0c a5be 0083 0c3e c97a 89be
00000010: a249 a2be 8ccb 29be ecdd 1a3e 7661 bbbc
00000020: 671d ffbd 80a3 90be ba7b 20bd f80c f1bd
00000030: 22c6 8dbe 09b0 003e b202 993e 912b 5abe
00000040: aa79 1f3e d36f 593e eb76 653d b29c a63e
00000050: 5c7f 0bbd 01ea c1be 8bcf 8e3d aad8 643e
00000060: e777 e53d 7553 c8bd c64c 3e3e c57e 943e
00000070: 0a86 ba3e 9bc7 813e 34ac d83d ce42 3fbe
00000080: 457a 8b3e b124 79be 6a0c 87be b6f4 b8be
00000090: 2f9f cb3e 1772 bdbe b7ba 13bd d71c f33c
000000a0: 0a39 42be c034 8fbd 1326 a7be f98b c13e
000000b0: d16f 9ebe 988c c63e 0eb4 873e 083c c7bd
000000c0: 38fc 243e ed1e 583e b30d 653d 3d5a bfbd
000000d0: c352 173e 5a4e 90be 7019 c13e 4bdf 0cbd
000000e0: ac9a a73e c586 c2be 876e a0bd 0153 1d3d
000000f0: 9eb5 59be c6ec 8fbe f1a8 8fbd 3a5c 08bd
00000100: 8249 3d3e e21a f03d 50b0 f2bd fd79 c13e
00000110: 8b5f a63e 32ba 9d3e 8d17 853e dc19 8cbe
00000120: 43d8 bd3e a2f7 6c3e bdc9 b53e 8dc7 01be
00000130: eff6 25be ceab 9bbd 0bed ba3e e0d9 b2be
00000140: c50b 87bc 428e 9cbd 8ed6 46be aa93 993e
00000150: 56b5 183e 7d99 7b3e 64b4 b03e f2d8 533c
00000160: fc34 413d 9a89 aa3d 0054 5a3d df8a 0f3e
00000170: e188 6e3e ca05 02be 10de 293e ea37 cbbe

conv2.att_src f4 [1, 1, 16]
0.22863492 0.197592 0.11028623 -0.56527233 -0.5390791 0.38383612 -0.42554882 0.027110726
-0.3670243 -0.26351428 -0.51667774 0.23650482 -0.24037936 -0.2237019 -0.2808972 -0.041308045
00000000: 461f 6a3e 8f55 4a3e bfdd e13d b0b5 10bf
00000010: 1701 0abf 2b86 c43e 89e1 d9be 5017 de3c
00000020: 9cea bbbe 58eb 86be fe44 04bf 522e 723e
00000030: 0226 76be 1c12 65be c2d1 8fbe a032 29bd

conv2.att_dst f4 [1, 1, 16]
-0.09375274 -0.5640921 0.35378277 0.40609404 -0.25983024 0.08745776 0.46214905 -0.24965881
-0.07556878 0.43681997 -0.16018626 -0.074292086 0.42476732 -0.5074501 -0.25101942 0.19561094
00000000: 7001 c0bd 5768 10bf 0423 b53e 8feb cf3e
00000010: 7808 85be 0e1d b33d cd9e ec3e 8fa6 7fbe
00000020: cec3 9abd dea6 df3e de07 24be 7326 98bd
00000030: 1a7b d93e 40e8 01bf 9e85 80be 3c4e 483e

conv2.bias f4 [16]
0.0 0.0 0.0 0.0 0.0 0.0 0.0 0.0
0.0 0.0 0.0 0.0 0.0 0.0 0.0 0.0
00000000: 0000 0000 0000 0000 0000 0000 0000 0000
00000010: 0000 0000 0000 0000 0000 0000 0000 0000
00000020: 0000 0000 0000 0000 0000 0000 0000 0000
00000030: 0000 0000 0000 0000 0000 0000 0000 0000

conv2.lin.weight f4 [16, 32]
0.0032506178 0.17981796 -0.23575872 0.14435709 0.065127246 0.25036782 -0.28317958 0.046212036
-0.24138992 -0.22010264 -0.26228043 -0.1966042 -0.26421598 -0.11537788 -0.044666555 0.3223113
0.07548964 0.12899156 -0.32975134 -0.21849065 0.14401713 -0.32891667 -0.23852605 -0.18957463
-0.13723874 -0.0035907428 -0.08217784 -0.1147877 0.20746006 -0.18891132 0.12308106 0.30460697
-0.30884957 -0.34211478 0.27745637 0.12794258 0.1953847 0.0821708 0.1751049 -0.094801955
-0.15148214 -0.1357451 -0.14656752 0.16114527 -0.22399014 0.1062847 0.09502905 0.17994407
-0.31803074 -0.28367022 0.054224744 -0.060560804 -0.20041011 0.27850017 -0.04060832 0.002919217
0.22467658 0.24429105 -0.15228988 -0.3500343 -0.06466987 0.19893308 -0.2504381 -0.060265355
0.1994981 -0.28986537 -0.16878632 0.03615171 -0.23972175 0.2529018 0.06718583 0.16226381
-0.021499107 0.04999948 0.16069093 -0.12300507 0.3136312 0.119333744 0.16541943 -0.11743031
-0.19563816 0.12729388 -0.2859374 -0.30566463 0.33914587 -0.16533454 -0.078604124 0.0879504
-0.056292888 -0.040499877 -0.13742836 0.013591979 -0.15257564 -0.15943487 0.14748468 -0.25088233
-0.2665888 0.119628474 0.08869214 -0.2856711 0.10734819 0.17710839 -0.19970188 -0.3277739
-0.06937401 -0.20262071 -0.021717764 0.15026397 0.14732262 -0.0667134 0.28928104 0.020877779
0.07689435 -0.041723274 -0.26940885 -0.3450131 -0.30433974 -0.2762595 -0.1226912 0.28053105
0.21220647 -0.050002597 -0.2670763 -0.18032639 0.12379983 -0.22277083 0.07108521 -0.14096557
0.17130034 -0.27183113 -0.14930736 -0.058578093 0.110433385 0.04385717 -0.2348312 -0.27938467
0.33521393 0.2558467 -0.30422765 -0.13556112 0.10444975 -0.1953324 0.052017767 0.2064981
-0.116061926 0.23727524 0.09368916 -0.29749086 -0.20587133 0.3027871 0.067545466 0.020006856
-0.11452997 0.22828835 0.050581276 -0.10956191 0.12817194 0.2954319 0.08899817 0.07489773
-0.11789641 -0.025657147 0.21432832 0.118806235 0.000585209 0.27045918 0.056309033 0.21611255
-0.041065697 -0.15996566 0.24561062 -0.24888249 -0.07707403 -0.113927945 0.22626619 -0.11496299
0.22027506 -0.28720284 0.12005471 0.14843631 0.14423983 -0.2930666 0.14659837 0.03984057
-0.33127588 0.292538 0.29652175 -0.34914422 0.15075392 -0.11719272 0.29056475 -0.053419065
-0.2055967 -0.024636772 -0.029514847 -0.07491467 -0.27695885 0.08924903 0.1990108 0.35208538
-0.032425 -0.16634412 -0.029059492 0.082197145 -0.24857554 0.07505026 -0.095244244 0.32726336
-0.3393347 0.19562553 -0.02583273 0.31721753 0.03849335 0.1152546 -0.16460966 0.024814589
-0.07037306 0.08050533 0.24547769 0.3090866 -0.12284596 0.25470737 -0.018667808 -0.03577867
0.26500183 0.12677675 -0.15315722 -0.21058694 -0.18504173 -0.032644756 0.012169144 0.30134395
-0.35134426 -0.20121896 0.00068577135 -0.08507565 0.0556649 0.28634375 -0.15947933 -0.19696824
0.04496942 0.12411142 0.0143494 0.23038125 0.22377688 -0.34985012 -0.18698597 0.23038395
0.1668863 -0.06515835 0.31139928 0.1477958 0.09549814 -0.31006035 -0.27025542 -0.196988
00000000: 5108 553b 3322 383e bc6a 71be 58d2 133e
00000010: 6f61 853d 3630 803e eafc 90be d548 3d3d
00000020: eb2e 77be 9662 61be 9f49 86be 9d52 49be
00000030: 5147 87be 3d4b ecbd 47f4 36bd fd05 a53e
00000040: 509a 9a3d 5d16 043e 2bd5 a8be 03bc 5fbe
00000050: 3a79 133e c467 a8be 2c40 74be da1f 42be
00000060: 5088 0cbe ab52 6bbb db4c a8bd d015 ebbd
00000070: 6970 543e f871 41be ec11 fc3d 72f5 9b3e
00000080: 8821 9ebe ab29 afbe c30e 8e3e 6103 033e
00000090: ed12 483e 2a49 a83d b34e 333e 8727 c2bd
000000a0: 221e 1bbe c300 0bbe cc15 16be 4403 253e
000000b0: ac5d 65be cbab d93d 979e c23d 4243 383e
000000c0: edd4 a2be 393d 91be c41a 5e3d 9b0e 78bd
000000d0: 4f38 4dbe 9397 8e3e e954 26bd 5650 3f3b
000000e0: 9e11 663e 6f27 7a3e e1f1 1bbe b237 b3be
000000f0: a371 84bd 1db5 4b3e 6c39 80be ced8 76bd
00000100: 3b49 4c3e 3c69 94be 52d6 2cbe d113 143d
00000110: 9e79 75be 587c 813e b998 893d 7c28 263e
00000120: e51e b0bc 41cc 4c3d 2a8c 243e 15ea fbbd
00000130: 4594 a03e 4065 f43d b663 293e 4d7f f0bd
00000140: 5f55 48be 5459 023e 6366 92be 1380 9cbe
00000150: 87a4 ad3e 754d 29be 33fb a0bd 571f b43d
00000160: 5f93 66bd 33e3 25bd 05ba 0cbe e4b0 5e3c
00000170: ca3c 1cbe e542 23be 3906 173e a673 80be
00000180: 547e 88be c6ff f43d 3aa4 b53d 7b43 92be
00000190: 5ed9 db3d e75b 353e a67e 4cbe fbd1 a7be
000001a0: f613 8ebd ce7b 4fbe 74e9 b1bc ccde 193e
000001b0: bedb 163e 09a1 88bd a51c 943e e007 ab3c
000001c0: c97a 9d3d 06e6 2abd f5ef 89be 8fa5 b0be
000001d0: 6bd2 9bbe e371 8dbe 8645 fbbd c4a1 8f3e
000001e0: a74c 593e 86cf 4cbd 3abe 88be 7ba7 38be
000001f0: c48a fd3d 091e 64be 1f95 913d 4759 10be
00000200: 5b69 2f3e 732d 8bbe 07e4 18be 95ef 6fbd
00000210: e62a e23d 93a3 333d 9777 70be 820b 8fbe
00000220: 29a1 ab3e 57fe 823e bac3 9bbe 89d0 0abe
00000230: c0e9 d53d 3705 48be 9510 553d 3d74 533e
00000240: e0b1 edbd 48f8 723e 1ae0 bf3d b950 98be
00000250: efcf 52be e906 9b3e 4755 8a3d 6be5 a33c
00000260: b08e eabd 6cc4 693e 502e 4f3d ff61 e0bd
00000270: 813f 033e da42 973e ac44 b63d fb63 993d
00000280: ac73 f1bd f02e d2bc e278 5b3e af50 f33d
00000290: b668 193a a079 8a3e 4da4 663d 9c4c 5d3e
000002a0: 8134 28bd 0ace 23be 5a81 7b3e 0ddb 7ebe
000002b0: fdd8 9dbd 0e53 e9bd 53b2 673e b771 ebbd
000002c0: c98f 613e 400c 93be 3edf f53d b0ff 173e
000002d0: 9bb3 133e d30c 96be e21d 163e de2f 233d
000002e0: fe9c a9be 8ac7 953e b3d1 973e 08c3 b2be
000002f0: 3c5f 1a3e bd02 f0bd e7c4 943e f3cd 5abd
00000300: f187 52be 0ed3 c9bc 1fc9 f1bc dd6c 99bd
00000310: 8dcd 8dbe 32c8 b63d 7dc9 4b3e 8944 b43e
00000320: 14d0 04bd 1d56 2abe 2c0e eebc fa56 a83d
00000330: 968a 7ebe f3b3 993d 6a0f c3bd 108f a73e
00000340: 47bd adbe 0f52 483e 299f d3bc 566a a23e
00000350: 34ab 1d3d 9b0a ec3d 6f8f 28be f747 cb3c
00000360: c01f 90bd fadf a43d 815e 7b3e 9940 9e3e
00000370: aa96 fbbd 0169 823e 3bed 98bc a88c 12bd
00000380: 52ae 873e c4d1 013e 3fd5 1cbe 1aa4 57be
00000390: 947b 3dbe 82b6 05bd 1761 473c c149 9a3e
000003a0: 65e3 b3be 580c 4ebe 56c5 333a 243c aebd
000003b0: e100 643d a69b 923e 8d4e 23be 0bb2 49be
000003c0: db31 383d 212e fe3d bf19 6b3c 10e9 6b3e
000003d0: c425 653e 8e1f b3be 4079 3fbe c5e9 6b3e
000003e0: 3ee4 2a3e be71 85bd ba6f 9f3e c857 173e
000003f0: 8794 c33d 3bc0 9ebe eb5e 8abe 39b7 49be

fc1.weight f4 [64, 16]
-0.008319348 -0.06210822 -0.21538168 -0.21881092 0.13910905 0.12238523 0.21207443 0.22129473
0.08407274 -0.08506632 0.15037146 0.203695 -0.09241626 0.18098658 0.17627674 0.112148196
-0.00977743 -0.10362163 -0.25998086 -0.2496923 0.07181482 0.108668655 0.025854768 -0.14329596
0.19335206 -0.055347957 -0.09110165 -0.17861935 -0.04311338 -0.035380606 0.16834289 0.043962896
0.013125212 -0.056086298 0.19726771 -0.07852924 0.1479001 0.095662594 0.24454105 -0.101413906
-9.0278976e-05 -0.112005316 0.124676056 0.20362844 0.123539194 0.11206666 -0.15969178 0.2316442
0.21286365 -0.18737805 0.081353486 -0.09018466 -0.089514226 -0.08222988 -0.018585354 0.1761873
0.1537331 0.069461346 0.13833946 -0.115917474 0.1572426 -0.008292168 0.22594598 0.19652832
0.07420155 -0.07965884 -0.04479802 0.13780145 -0.08472716 -0.035573665 0.07978126 -0.016891276
-0.2163304 0.027468652 0.21241784 0.2658866 0.15498535 -0.07480956 -0.23769645 0.13822615
0.1372279 -0.20429224 0.12871218 0.18651178 -0.23907414 -0.22443122 -0.004640043 -0.029003978
-0.15424386 0.066580236 -0.17217189 -0.21969336 -0.22728083 0.099939466 0.11854884 0.13974011
0.013869521 0.16616116 0.09636724 -0.14132825 0.05629017 -0.1927883 0.089793555 -0.22378333
-0.09583718 -0.03564309 0.1944157 -0.11712785 -0.005405433 0.04749832 -0.0774276 -0.08634913
0.14832623 0.006534047 -0.06220963 -0.2611088 -0.043064594 -0.223244 4.8735714e-05 -0.25260293
0.015849866 0.11758741 -0.19404045 -0.11585152 0.028478691 0.12176101 -0.23064671 0.06489389
-0.009007573 0.12767044 0.01555261 0.24640203 -0.007159978 -0.14684144 0.13916692 0.054000676
0.15133837 -0.21057388 0.1963332 -0.05246511 0.18051147 0.118092924 -0.08919275 -0.24661517
0.0027276352 0.3001855 -0.25262013 -0.17778155 -0.023414409 -0.18342555 -0.12740682 0.19192107
-0.045232564 -0.037606083 -0.0016628667 -0.053947177 0.21350923 -0.20459245 -0.16093841 0.028075974
-0.08345297 0.039321005 -0.10943657 0.20530957 0.09380147 -0.17167512 0.10277441 -0.09309068
0.0321469 0.18091571 -0.051085234 0.043462157 0.006454587 -0.23512527 0.02253449 -0.1726982
0.2321949 -0.033258438 -0.07382056 0.13331485 -0.24716395 -0.22573477 -0.06334695 -0.07903138
0.15571108 -0.009520918 -0.011415273 0.1933201 -0.17726961 -0.13260752 0.21793935 0.1798709
0.0015259385 -0.1298446 0.0076205134 0.21483651 -0.14738575 -0.023054928 -0.2118558 -0.051717788
-0.011469066 0.1714099 0.054570854 -0.2283167 -0.24645585 -0.22825795 0.048624545 -0.054399937
-0.01405145 -0.08804005 0.18790115 -0.2579007 0.091218226 0.10320035 0.010194819 0.18985395
-0.26908433 -0.11087763 0.07280869 -0.053686365 0.0701141 0.09982522 -0.21880737 0.1641805
0.019602805 -0.111703455 -0.045391023 -0.03265643 -0.22433841 -0.050058186 -0.13909379 0.21405858
0.056342483 -0.17734766 -0.2114335 -0.1920197 0.14302498 0.051047057 -0.24363795 0.09516892
-0.022666544 0.04488054 0.0143582225 -0.04080105 0.1396308 0.21957758 0.035804927 0.024986506
-0.042313665 0.08755055 0.23958647 -0.223483 0.20232931 -0.0051760375 0.21471354 0.08858907
00000000: e04d 08bc 3065 7ebd 048d 5cbe f80f 60be
00000010: 9a72 0e3e 1ca5 fa3d 0a2a 593e 169b 623e
00000020: 542e ac3d 4037 aebd fafa 193e 6c95 503e
00000030: bc44 bdbd 8c54 393e e481 343e f4ad e53d
00000040: 8431 20bc 9437 d4bd 361c 85be 57af 7fbe
00000050: a613 933d ac8d de3d 61cd d33c 2dbc 12be
00000060: 15fe 453e 8ab4 62bd 8093 babd fee7 36be
00000070: a897 30bd 41eb 10bd 1462 2c3e 7012 343d
00000080: 210b 573c bfba 65bd 8c00 4a3e f0d3 a0bd
00000090: 2073 173e c0ea c33d f868 7a3e 18b2 cfbd
000000a0: 2854 bdb8 0b63 e5bd 2956 ff3d f983 503e
000000b0: 1e02 fd3d 3483 e53d 3e86 23be 2334 6d3e
000000c0: eef8 593e 08e0 3fbe a89c a63d bcb2 b8bd
000000d0: 3c53 b7bd 2468 a8bd 5040 98bc 726a 343e
000000e0: 366c 1d3e c041 8e3d dca8 0d3e 2466 edbd
000000f0: 3404 213e e0db 07bc 625e 673e b83e 493e
00000100: fbf6 973d 2d24 a3bd 217e 37bd d31b 0d3e
00000110: 6f85 adbd b1b5 11bd 5b64 a33d 935f 8abc
00000120: b785 5dbe f005 e13c 1084 593e 4a22 883e
00000130: 7bb4 1e3e c135 99bd b366 73be 288b 0d3e
00000140: 7885 0c3e fc31 51be 20cd 033e f2fc 3e3e
00000150: dacf 74be 4cd1 65be 800b 98bb c099 edbc
00000160: 1af2 1dbe 385b 883d d44d 30be 4cf7 60be
00000170: 4ebc 68be 10ad cc3d bcc9 f23d 0818 0f3e
00000180: fd3c 633c 2726 2a3e 305c c53d 5ab8 10be
00000190: 8590 663d 4c6a 45be afe5 b73d 7527 65be
000001a0: 4946 c4bd 7dfe 11bd e914 473e bae0 efbd
000001b0: 0f20 b1bb 998d 423d 5d92 9ebd d0d7 b0bd
000001c0: d5e2 173e 8f1b d63b 86cf 7ebd 0db0 85be
000001d0: 8064 30bd 139a 64be 9369 4c38 2c55 81be
000001e0: 94d7 813c abd1 f03d 8ab2 46be 9043 edbd
000001f0: 254c e93c d65d f93d a72e 6cbe 16e7 843d
00000200: 8094 13bc 0abc 023e 60d0 7e3c d050 7c3e
00000210: 409e eabb 9a5d 16be c681 0e3e d02f 5d3d
00000220: 72f8 1a3e aea0 57be 920b 493e a8e5 56bd
00000230: 00d8 383e b4da f13d b0aa b6bd b088 7cbe
00000240: 20c2 323b eab1 993e 6d57 81be 5e0c 36be
00000250: 93cf bfbc e8d3 3bbe ef76 02be f586 443e
00000260: c845 39bd d608 1abd 8cf4 d9ba b7f7 5cbd
00000270: 2aa2 5a3e af80 51be 0acd 24be 96ff e53c
00000280: 64e9 aabd 100f 213d 4820 e0bd ac3c 523e
00000290: fc1a c03d 9acb 2fbe 647b d23d 54a6 bebd
000002a0: 78ac 033d f841 393e c03e 51bd 6005 323d
000002b0: 0081 d33b aec4 70be 409a b83c ccd7 30be
000002c0: 80c4 6d3e 003a 08bd 3c2f 97bd b083 083e
000002d0: 8c18 7dbe 0427 67be 0cbc 81bd 34db a1bd
000002e0: ba72 1f3e a0fd 1bbc 2007 3bbc b4f5 453e
000002f0: 2a86 35be 44ca 07be 7e2b 5f3e 1430 383e
00000300: 0002 c83a fcf5 04be 80b5 f93b 1afe 5b3e
00000310: 4aec 16be b0dd bcbc baf0 58be 08d6 53bd
00000320: c0e8 3bbc 1486 2f3e b085 5f3d dacb 69be
00000330: ec5e 7cbe 74bc 69be 882a 473d 78d2 5ebd
00000340: 0e38 66bc 574e b4bd 2969 403e 900b 84be
00000350: 9fd0 ba3d b55a d33d 2c08 273c 1369 423e
00000360: 6cc5 89be d013 e3bd b91c 953d 3ce6 5bbd
00000370: fb97 8f3d 2a71 cc3d 0a0f 60be ef1e 283e
00000380: 1096 a03c c8c4 e4bd f0eb 39bd c0c2 05bd
00000390: f8b8 65be d009 4dbd 9a6e 0ebe 2c32 5b3e
000003a0: 60c7 663d a09a 35be 0682 58be d0a0 44be
000003b0: 2475 123e b816 513d 3a7c 79be ece7 c23d
000003c0: 30af b9bc a8d4 373d c03e 6b3c 001f 27bd
000003d0: 60fb 0e3e f2d8 603e 30a8 123d 80b0 cc3c
000003e0: 1851 2dbd b44d b33d 2856 753e bad8 64be
000003f0: 6a2f 4f3e c09b a9bb dedd 5b3e 306e b53d

fc1.bias f4 [64]
-0.12603092 0.2601086 0.008070566 -0.19507298 0.25721797 0.117596686 0.107838295 0.23545726
-0.19461438 0.25697482 -0.18907475 -0.03602746 -0.080593824 0.27325097 -0.24272111 -0.09727183
0.0145248175 -0.07594371 0.15098275 0.02195735 0.290302 -0.18647465 0.030913204 0.23873289
-0.0789749 0.075816765 -0.24592215 -0.05456981 0.2187438 -0.06504646 -0.13101318 -0.13130826
-0.18845278 -0.048784703 -0.008330077 -0.14359626 0.11326562 0.24913344 0.086113505 -0.194567
-0.14643365 0.011383653 -0.028250787 -0.19813389 -0.07202846 -0.027059823 -0.20913574 0.09141195
0.237923 0.07510335 0.12079322 0.042935047 -0.14124316 0.01200424 0.16854276 -0.12030324
0.14679107 0.2076518 -0.090756 -0.059553087 0.0910145 0.03689117 -0.190622 0.10734924
00000000: 400e 01be f42c 853e 683a 043c 36c1 47be
00000010: 13b2 833e 88d6 f03d 53da dc3d b51b 713e
00000020: fe48 47be 3492 833e d09c 41be 8891 13bd
00000030: 600e a5bd 8de7 8b3e e28b 78be 7436 c7bd
00000040: 80f9 6d3c 6088 9bbd 399b 1a3e e7df b33c
00000050: 77a2 943e 36f3 3ebe b03d fd3c 6576 743e
00000060: 98bd a1bd d245 9b3d 04d3 7bbe 9884 5fbd
00000070: 60fe 5f3e 1437 85bd 5228 06be ac75 06be
00000080: c4f9 40be 78d2 47bd e07a 08bc e60a 13be
00000090: cef7 e73d d61c 7f3e 475c b03d 923c 47be
000000a0: b4f2 15be 8082 3a3c 326e e7bc 9ce3 4abe
000000b0: a883 93bd 90ac ddbc ae27 56be 3036 bb3d
000000c0: 16a2 733e c9cf 993d 7062 f73d a9dc 2f3d
000000d0: 0ca2 10be 6fad 443c 7996 2c3e 8c61 f6bd
000000e0: 6650 163e aca2 543e 48de b9bd f0ed 73bd
000000f0: cf65 ba3d 321b 173d 6a32 43be ebd9 db3d

fc2.weight f4 [32, 64]
0.09809165 -0.0065380335 0.09336719 0.033598945 -0.048807736 0.014954373 -0.09761416 -0.022078125
-0.03577043 -0.09897743 -0.066202894 -0.07789782 -0.035775736 0.05723934 0.086040154 0.097825944
-0.031840384 -0.11872764 0.084512085 0.025808198 -0.098105006 -0.035387903 -0.023584768 0.02760637
-0.04921399 0.09501729 -0.07617928 0.10990905 -0.084083274 0.004994154 -0.0023939162 -0.0379308
-0.08896746 -0.033294395 -0.039164454 -0.10895336 0.059436735 0.09208454 -0.048466578 0.08260432
0.035973012 -0.111630395 0.07497512 -0.009474441 0.091148496 -0.01268591 -0.02309987 -0.12409207
-0.047328763 0.040182862 -0.0918927 -0.0584504 -0.025946468 -0.02915401 -0.048633114 -0.07475518
-0.12836437 0.06686104 0.10651757 0.03636627 0.115386926 0.11740609 0.08461529 -0.030107062
0.00161542 -0.07418702 -0.08901419 0.012702391 -0.11454281 0.08844206 -0.034292698 -0.07939458
-0.0116833 -0.0699476 -0.08819243 -0.044301286 -0.010042459 0.015576564 0.08228746 0.032450974
0.076409504 -0.11719054 0.0707736 0.024055403 -0.1085423 -0.02520211 0.01205416 -0.09725743
0.10519482 0.0651397 -0.11513038 0.03819645 -0.06515765 0.091713205 -0.08606924 -0.035480678
0.10988943 0.011239722 -0.101451635 -0.07847831 -0.041899692 0.0020315181 -0.12862836 -0.09193677
0.018495798 0.09389752 0.07104377 0.09638673 0.046832234 -0.07395738 0.020264387 -0.030304592
-0.034219906 0.03209962 0.08876326 -0.08408649 0.10027468 0.046199296 0.111761265 -0.08123028
-0.036834434 -0.032117277 0.009764716 0.08345574 0.075426415 0.09845226 -0.086649954 0.04447174
-0.017174944 -0.11818335 0.120784104 0.03805223 0.057517834 -0.08955151 0.03260607 0.04185819
-0.0049628615 -0.11824168 0.050894067 0.029612213 0.104287624 0.09576791 0.1232827 0.08489248
-0.073346525 0.08371715 -0.06939889 0.09532683 -0.066327564 -0.01969096 0.094844505 -0.10196445
0.055888355 -0.111926146 -0.04967095 0.028229386 -0.0961039 0.06820199 -0.04972872 0.07923627
-0.023443907 -0.06025724 -0.07159622 -0.022412047 -0.01383029 -0.031890552 -0.06316842 0.10012494
-0.041051254 0.11368585 -0.012236834 0.046010196 0.03268008 0.122548044 0.107327 0.04246871
0.10623184 0.1110412 -0.03755192 0.10277268 -0.05100909 -0.04807205 -0.0034930916 0.08463162
0.10597548 0.106089644 -0.025746822 0.08902611 0.10142233 -0.038220942 -0.072543606 -0.029987874
0.002076149 0.056112908 0.10561316 -0.012248516 -0.052356023 0.03970629 -0.022292608 0.077371396
-0.113341466 -0.025815852 0.06676999 0.07188839 -0.10814744 0.07829198 -0.07492423 -0.06462313
-0.05954577 0.11410043 0.0049654907 -0.11309217 0.064070545 -0.06806703 -0.014398277 -0.103691
0.013650939 -0.093880996 -0.07681592 0.0044895858 0.121649206 0.022353873 -0.0651419 0.057001352
-0.0820808 0.07377659 0.02843751 0.006353706 -0.03658441 0.033146635 0.10473587 -0.09312475
0.07381597 0.10880306 0.1126526 -0.061755925 0.06645881 -0.05063057 -0.039475426 0.11034898
-0.019812845 -0.038990736 -0.07828246 0.1009884 0.04656659 -0.030400917 -0.058011465 0.08614832
-0.07381327 -0.101937875 -0.058137164 -0.087392464 0.10072669 0.056190506 -0.036447927 0.10491778
00000000: 46e4 c83d 003d d6bb 4c37 bf3d 0c9f 093d
00000010: 9fea 47bd 3003 753c efe9 c7bd 2fdd b4bc
00000020: 0484 12bd aeb4 cabd 6295 87bd e488 9fbd
00000030: 9489 12bd cc73 6a3d d235 b03d f858 c83d
00000040: 106b 02bd 7a27 f3bd ac14 ad3d b76b d33c
00000050: 47eb c8bd e8f2 10bd d834 c1bc c126 e23c
00000060: 9c94 49bd 6d98 c23d e203 9cbd ff17 e13d
00000070: da33 acbd 00a6 a33b 40e3 1cbb 545d 1bbd
00000080: 9234 b6bd b45f 08bd e86a 20bd f022 dfbd
00000090: ef73 733d d296 bc3d e484 46bd 742c a93d
000000a0: 7058 133d 7a9e e4bd 8e8c 993d b03a 1bbc
000000b0: 10ac ba3d 90d8 4fbc f03b bdbc fc23 febd
000000c0: cedb 41bd c996 243d 3d32 bcbd b069 6fbd
000000d0: b08d d4bc 64d4 eebc 8433 47bd 3e19 99bd
000000e0: f371 03be 71ee 883d e225 da3d ccf4 143d
000000f0: fb4f ec3d 9b72 f03d c84a ad3d 16a3 f6bc
00000100: 80bc d33a 5def 97bd 124d b6bd b01d 503c
00000110: 6c95 eabd 1c21 b53d 8076 0cbd a099 a2bd
00000120: 506b 3fbc b040 8fbd 3c9e b4bd 4475 35bd
00000130: 2089 24bc d834 7f3c 5486 a83d 50eb 043d
00000140: 967c 9c3d 9801 f0bd c0f1 903d d60f c53c
00000150: 6d4b debd a874 cebc d07e 453c e72e c7bd
00000160: 6270 d73d f767 853d 7ac9 ebbd e173 1c3d
00000170: 6071 85bd 22d4 bb3d 1245 b0bd 3054 11bd
00000180: b60d e13d d026 383c e0c5 cfbd 3cb9 a0bd
00000190: 039f 2bbd 3823 053b 27b7 03be 5849 bcbd
000001a0: 8084 973c 584d c03d 657f 913d 6866 c53d
000001b0: 28d3 3f3d f876 97bd 8001 a63c 5641 f8bc
000001c0: 2c2a 0cbd e47a 033d 83c9 b53d 8a35 acbd
000001d0: d05c cd3d 793b 3d3d 17e3 e43d 105c a6bd
000001e0: b4df 16bd 688d 03bd 30fc 1f3c d8ea aa3d
000001f0: 2a79 9a3d 57a1 c93d 8875 b1bd 0028 363d
00000200: 78b2 8cbc 1d0a f2bd a85d f73d a8dc 1b3d
00000210: d297 6b3d c866 b7bd f18d 053d 7e73 2b3d
00000220: 809f a2bb b228 f2bd 4c76 503d 5095 f23c
00000230: c094 d53d f721 c43d a47b fc3d 1cdc ad3d
00000240: b436 96bd e673 ab3d 0121 8ebd b73a c33d
00000250: bfd6 87bd f04e a1bc d63d c23d bdd2 d0bd
00000260: 30eb 643d 8939 e5bd c473 4bbd 5041 e73c
00000270: 1fd2 c4bd 7cad 8b3d 58b0 4bbd a046 a23d
00000280: 700d c0bc 4cd0 76bd 0aa1 92bd 7899 b7bc
00000290: 7198 62bc ab9f 02bd 725e 81bd 4e0e cd3d
000002a0: 5c25 28bd 20d4 e83d 007d 48bc 3075 3c3d
000002b0: 8cdb 053d 78fa fa3d 42ce db3d acf3 2d3d
000002c0: 1490 d93d 9269 e33d 0bd0 19bd 7c7a d23d
000002d0: e8ee 50bd 33e7 44bd 5aec 64bb 5853 ad3d
000002e0: ac09 d93d 8745 d93d 00eb d2bc 5253 b63d
000002f0: 83b6 cf3d 908d 1cbd be91 94bd 21a9 f5bc
00000300: 0010 083b a6d6 653d b64b d83d 00ae 48bc
00000310: 4573 56bd 10a3 223d fd9e b6bc e574 9e3d
00000320: 921f e8bd c47b d3bc b4be 883d 383a 933d
00000330: 687c ddbd 8c57 a03d e071 99bd 2259 84bd
00000340: 44e6 73bd 7cad e93d 8eb5 a23b de9c e7bd
00000350: 6b37 833d ba66 8bbd c0e6 6bbc f25b d4bd
00000360: 30a8 5f3c ae44 c0bd aa51 9dbd 601d 933b
00000370: 3823 f93d 781f b73c 1e69 85bd 407a 693d
00000380: fa19 a8bd 2e18 973d c8f5 e83c c032 d03b
00000390: 89d9 15bd c4c4 073d c37f d63d 30b8 bebd
000003a0: d42c 973d 24d4 de3d 68b6 e63d c8f3 7cbd
000003b0: 8e1b 883d 0062 4fbd fcb0 21bd a5fe e13d
000003c0: 8c4e a2bc c0b4 1fbd 8e52 a0bd 02d3 ce3d
000003d0: 9cbc 3e3d 580b f9bc 6e9d 6dbd 886e b03d
000003e0: 692b 97bd cec4 d0bd 3c21 6ebd d2fa b2bd
000003f0: cb49 ce3d 0428 663d 6c4a 15bd 22df d63d

fc2.bias f4 [32]
-0.067277394 -0.0061832867 -0.017725835 -0.099626005 0.023536831 -0.00802361 0.00230435 -0.12485963
0.06205468 -0.076726414 -0.048496947 -0.03414118 -0.10311973 0.15660991 0.004899053 0.12524237
-0.020333633 0.036864247 0.06329527 0.029750973 0.026778733 0.045016155 0.08379013 0.06833441
0.02612847 0.042111382 -0.04368989 -0.051798828 0.09084338 -0.050599795 -0.06409316 -0.08056295
00000000: bbc8 89bd 2b9d cabb c535 91bc b808 ccbd
00000010: 50d0 c03c 7675 03bc 9404 173b 68b6 ffbd
00000020: 0c2d 7e3d bd22 9dbd bca4 46bd 9fd7 0bbd
00000030: 7030 d3bd 595e 203e 3c88 a03b 893f 003e
00000040: b892 a6bc f7fe 163d f3a0 813d 50b8 f33c
00000050: 135f db3c dc62 383d 299a ab3d e9f2 8b3d
00000060: 600b d63c fc7c 2c3d 2cf4 32bd 022b 54bd
00000070: 180c ba3d bb41 4fbd 4643 83bd 30fe a4bd

fc3.weight f4 [1, 32]
-0.09082489 -0.13497229 0.10005205 0.15098812 0.115510434 -0.038153525 -0.15047106 -0.1541264
-0.027516553 0.16475497 0.1012628 -0.035396464 0.15216026 0.15507591 -0.13664362 0.20041771
-0.05088134 0.0016510977 -0.030936487 0.21128914 0.09566843 -0.041530177 0.034435444 0.15329458
-0.04796446 0.014250863 -0.026864907 -0.024791276 0.09394213 -0.09409507 -0.075231574 0.0008011273
00000000: 6602 babd 2d36 0abe 17e8 cc3d a19c 1a3e
00000010: bc90 ec3d df46 1cbd 1615 1abe 50d3 1dbe
00000020: 656a e1bc 87b5 283e df62 cf3d e2fb 10bd
00000030: e6cf 1b3e 38cc 1e3e 4eec 0bbe 4d3a 4d3e
00000040: f468 50bd a569 d83a 846e fdbc 2e5c 583e
00000050: cfed c33d 8c1b 2abd 2e0c 0d3d 41f9 1c3e
00000060: 6276 44bd 747c 693c cb13 dcbc 1317 cbbc
00000070: bb64 c03d ebb4 c0bd 0313 9abd be02 523a

exp_avg f4 [64, 16]
0.0 0.0 0.0 0.0 0.0 0.0 0.0 0.0
0.0 0.0 0.0 0.0 0.0 0.0 0.0 0.0
-0.00044713315 -0.000106273685 -6.685763e-05 -2.1180711e-05 0.00041633553 9.426994e-05 -0.00012718665 -9.044438e-05
-0.00026898927 -0.00017349623 0.0002692434 0.00010117279 0.00025395633 -0.00034943523 -5.1061274e-05 -0.00040865788
-4.2441197e-06 -4.755434e-09 -1.8570244e-06 -2.6693334e-08 3.5064145e-06 -1.7281589e-07 -8.2353813e-07 -7.645471e-07
-4.2087404e-06 3.3516628e-07 1.1337685e-06 8.278329e-07 3.1222642e-06 -4.387032e-06 -1.6290805e-06 -3.182659e-06
0.0 0.0 0.0 0.0 0.0 0.0 0.0 0.0
0.0 0.0 0.0 0.0 0.0 0.0 0.0 0.0
0.0005877985 -0.00018394446 0.0004819609 -2.8361203e-05 -0.000403736 0.00022023801 4.350642e-05 8.861526e-05
0.00088730425 -0.00041084687 0.000104414 -9.0292444e-05 -0.0005632949 0.0008043789 0.00043604837 0.00031276664
0.0 0.0 0.0 0.0 0.0 0.0 0.0 0.0
0.0 0.0 0.0 0.0 0.0 0.0 0.0 0.0
0.0017183218 -0.00014149837 0.0009264845 -1.40995935e-05 -0.0013560214 0.00022248231 0.0002786133 0.0002961237
0.0019404992 -0.00041883372 -0.00025591126 -0.00031623954 -0.0013657915 0.001929073 0.00082305353 0.0011891021
0.00018041598 -0.000103112165 0.00020473452 -1.6806836e-05 -0.000103224775 0.000117208896 -4.47618e-06 2.283403e-05
0.0003492746 -0.00021820192 9.811925e-05 -2.1557606e-05 -0.00020596872 0.00029662464 0.00018701752 6.3645006e-05
0.0 0.0 0.0 0.0 0.0 0.0 0.0 0.0
0.0 0.0 0.0 0.0 0.0 0.0 0.0 0.0
0.0013078405 -0.00016472959 0.0007746034 -2.0635765e-05 -0.0010067875 0.00022998251 0.00019025999 0.00022004786
0.0015709888 -0.0004313703 -0.000114006776 -0.0002331686 -0.0010799564 0.0015290437 0.00069144915 0.0008654909
0.0 0.0 0.0 0.0 0.0 0.0 0.0 0.0
0.0 0.0 0.0 0.0 0.0 0.0 0.0 0.0
0.0 0.0 0.0 0.0 0.0 0.0 0.0 0.0
0.0 0.0 0.0 0.0 0.0 0.0 0.0 0.0
0.0 0.0 0.0 0.0 0.0 0.0 0.0 0.0
0.0 0.0 0.0 0.0 0.0 0.0 0.0 0.0
-0.00034417835 -0.00020107895 9.376363e-05 -3.7017086e-05 0.00037338428 0.000199399 -0.00014348568 -8.0779086e-05
-1.0371025e-05 -0.00036901078 0.00037616826 9.361672e-05 0.00011092388 -0.00014182788 9.665537e-05 -0.00039727977
0.0 0.0 0.0 0.0 0.0 0.0 0.0 0.0
0.0 0.0 0.0 0.0 0.0 0.0 0.0 0.0
0.0 0.0 0.0 0.0 0.0 0.0 0.0 0.0
0.0 0.0 0.0 0.0 0.0 0.0 0.0 0.0
00000000: 0000 0000 0000 0000 0000 0000 0000 0000
00000010: 0000 0000 0000 0000 0000 0000 0000 0000
00000020: 0000 0000 0000 0000 0000 0000 0000 0000
00000030: 0000 0000 0000 0000 0000 0000 0000 0000
00000040: 326d eab9 40df deb8 eb35 8cb8 3bad b1b7
00000050: 9c47 da39 cab2 c538 685d 05b9 f5ac bdb8
00000060: 2107 8db9 8aec 35b9 3d29 8d39 ba2c d438
00000070: 7125 8539 6734 b7b9 a02a 56b8 2241 d6b9
00000080: b668 8eb6 3d65 a3b1 df3e f9b5 434b e5b2
00000090: be4f 6b36 458f 39b4 1c11 5db5 473b 4db5
000000a0: ce38 8db6 e7f0 b334 fd2b 9835 3e38 5e35
000000b0: 1788 5136 5134 93b6 c8a6 dab5 aa95 55b6
000000c0: 0000 0000 0000 0000 0000 0000 0000 0000
000000d0: 0000 0000 0000 0000 0000 0000 0000 0000
000000e0: 0000 0000 0000 0000 0000 0000 0000 0000
000000f0: 0000 0000 0000 0000 0000 0000 0000 0000
00000100: 7d16 1a3a 37e1 40b9 b2af fc39 38e9 edb7
00000110: 87ac d3b9 b1ef 6639 aa7a 3638 f5d6 b938
00000120: fb99 683a ef66 d7b9 d7f8 da38 635b bdb8
00000130: 15aa 13ba f4dc 523a 6c9d e439 d4fa a339
00000140: 0000 0000 0000 0000 0000 0000 0000 0000
00000150: 0000 0000 0000 0000 0000 0000 0000 0000
00000160: 0000 0000 0000 0000 0000 0000 0000 0000
00000170: 0000 0000 0000 0000 0000 0000 0000 0000
00000180: 5039 e13a 2e5f 14b9 53df 723a 4b8d 6cb7
00000190: 87bc b1ba 244a 6939 d812 9239 0d41 9b39
000001a0: 5958 fe3a e996 dbb9 d42b 86b9 f4cc a5b9
000001b0: 5c04 b3ba f3d8 fc3a 30c2 573a a5db 9b3a
000001c0: 0c2e 3d39 ec3d d8b8 01ae 5639 68fc 8cb7
000001d0: 617a d8b8 0cce f538 1832 96b6 b58b bf37
000001e0: d81e b739 22cd 64b9 5fc5 cd38 9bd6 b4b7
000001f0: 4ff9 57b9 4984 9b39 221a 4439 2779 8538
00000200: 0000 0000 0000 0000 0000 0000 0000 0000
00000210: 0000 0000 0000 0000 0000 0000 0000 0000
00000220: 0000 0000 0000 0000 0000 0000 0000 0000
00000230: 0000 0000 0000 0000 0000 0000 0000 0000
00000240: d86b ab3a 43bb 2cb9 c10e 4b3a f81a adb7
00000250: 2ff6 83ba 7627 7139 8780 4739 a6bc 6639
00000260: a3e9 cd3a 8b29 e2b9 ec16 efb8 b87e 74b9
00000270: 538d 8dba 316a c83a 5e42 353a 1ce2 623a
00000280: 0000 0000 0000 0000 0000 0000 0000 0000
00000290: 0000 0000 0000 0000 0000 0000 0000 0000
000002a0: 0000 0000 0000 0000 0000 0000 0000 0000
000002b0: 0000 0000 0000 0000 0000 0000 0000 0000
000002c0: 0000 0000 0000 0000 0000 0000 0000 0000
000002d0: 0000 0000 0000 0000 0000 0000 0000 0000
000002e0: 0000 0000 0000 0000 0000 0000 0000 0000
000002f0: 0000 0000 0000 0000 0000 0000 0000 0000
00000300: 0000 0000 0000 0000 0000 0000 0000 0000
00000310: 0000 0000 0000 0000 0000 0000 0000 0000
00000320: 0000 0000 0000 0000 0000 0000 0000 0000
00000330: 0000 0000 0000 0000 0000 0000 0000 0000
00000340: d672 b4b9 b8d8 52b9 f7a2 c438 cb42 1bb8
00000350: cac2 c339 c315 5139 a574 16b9 f167 a9b8
00000360: 37ff 2db7 ca77 c1b9 7338 c539 1854 c438
00000370: ce9f e838 a2b7 14b9 75b3 ca38 fd49 d0b9
00000380: 0000 0000 0000 0000 0000 0000 0000 0000
00000390: 0000 0000 0000 0000 0000 0000 0000 0000
000003a0: 0000 0000 0000 0000 0000 0000 0000 0000
000003b0: 0000 0000 0000 0000 0000 0000 0000 0000
000003c0: 0000 0000 0000 0000 0000 0000 0000 0000
000003d0: 0000 0000 0000 0000 0000 0000 0000 0000
000003e0: 0000 0000 0000 0000 0000 0000 0000 0000
000003f0: 0000 0000 0000 0000 0000 0000 0000 0000

exp_avg_sq f4 [64, 16]
0.0 0.0 0.0 0.0 0.0 0.0 0.0 0.0
0.0 0.0 0.0 0.0 0.0 0.0 0.0 0.0
9.158734e-07 4.7196197e-10 1.804412e-07 4.1718535e-11 6.222321e-07 2.4176678e-09 3.3944623e-08 2.958686e-08
9.154282e-07 8.8655385e-09 6.320903e-08 3.4641936e-08 5.002104e-07 9.882046e-07 1.3916558e-07 5.1099033e-07
3.184313e-07 1.5355477e-11 6.2433756e-08 1.0180848e-11 2.1636461e-07 6.655793e-10 1.1791465e-08 1.02880415e-08
3.176218e-07 2.4782472e-09 2.1735687e-08 1.2045669e-08 1.7375882e-07 3.4324205e-07 4.8124843e-08 1.7766918e-07
0.0 0.0 0.0 0.0 0.0 0.0 0.0 0.0
0.0 0.0 0.0 0.0 0.0 0.0 0.0 0.0
9.4656673e-07 1.0460666e-09 1.8888063e-07 5.6854358e-11 6.4212196e-07 3.2604774e-09 3.49471e-08 3.0533958e-08
9.524214e-07 1.1807603e-08 6.5345986e-08 3.573729e-08 5.1878294e-07 1.0251867e-06 1.4584009e-07 5.2686244e-07
0.0 0.0 0.0 0.0 0.0 0.0 0.0 0.0
0.0 0.0 0.0 0.0 0.0 0.0 0.0 0.0
1.1260265e-06 8.1075424e-10 2.2797401e-07 4.6779584e-11 7.610857e-07 3.7157146e-09 4.096577e-08 3.6195342e-08
1.1438485e-06 1.353374e-08 7.410218e-08 4.2316234e-08 6.207573e-07 1.2271644e-06 1.7615181e-07 6.2272505e-07
6.648678e-07 4.3315032e-10 1.3229187e-07 3.070128e-11 4.509193e-07 1.9548927e-09 2.449316e-08 2.1442208e-08
6.6837276e-07 7.1390627e-09 4.524523e-08 2.5093264e-08 3.6430896e-07 7.1989075e-07 1.02103115e-07 3.6985534e-07
0.0 0.0 0.0 0.0 0.0 0.0 0.0 0.0
0.0 0.0 0.0 0.0 0.0 0.0 0.0 0.0
1.0361538e-06 9.1801466e-10 2.111946e-07 4.593244e-11 6.9957855e-07 3.7104404e-09 3.756045e-08 3.3271363e-08
1.0565805e-06 1.3471965e-08 6.771559e-08 3.8885908e-08 5.724327e-07 1.1318117e-06 1.6326966e-07 5.719768e-07
0.0 0.0 0.0 0.0 0.0 0.0 0.0 0.0
0.0 0.0 0.0 0.0 0.0 0.0 0.0 0.0
0.0 0.0 0.0 0.0 0.0 0.0 0.0 0.0
0.0 0.0 0.0 0.0 0.0 0.0 0.0 0.0
0.0 0.0 0.0 0.0 0.0 0.0 0.0 0.0
0.0 0.0 0.0 0.0 0.0 0.0 0.0 0.0
2.5594754e-06 1.3531206e-09 5.017001e-07 1.2277938e-10 1.7406664e-06 6.5776207e-09 9.52267e-08 8.276514e-08
2.550333e-06 2.4126875e-08 1.7854535e-07 9.693548e-08 1.3953448e-06 2.756269e-06 3.8681162e-07 1.4305505e-06
0.0 0.0 0.0 0.0 0.0 0.0 0.0 0.0
0.0 0.0 0.0 0.0 0.0 0.0 0.0 0.0
0.0 0.0 0.0 0.0 0.0 0.0 0.0 0.0
0.0 0.0 0.0 0.0 0.0 0.0 0.0 0.0
00000000: 0000 0000 0000 0000 0000 0000 0000 0000
00000010: 0000 0000 0000 0000 0000 0000 0000 0000
00000020: 0000 0000 0000 0000 0000 0000 0000 0000
00000030: 0000 0000 0000 0000 0000 0000 0000 0000
00000040: 57da 7535 5fbb 0130 4dbf 4134 e57a 372e
00000050: 7707 2735 1024 2631 82ca 1133 3126 fe32
00000060: bfbb 7535 0d4f 1832 88bd 8733 36c9 1433
00000070: 3246 0635 74a2 8435 8b6d 1534 fd2a 0935
00000080: ddf4 aa34 7611 872d 5213 8633 771a 332d
00000090: da51 6834 fbf3 3630 6993 4a32 49bf 3032
000000a0: 9c85 aa34 c94d 2a31 48b5 ba32 6af1 4e32
000000b0: 7692 3a34 d446 b834 d3b1 4e33 55c5 3e34
000000c0: 0000 0000 0000 0000 0000 0000 0000 0000
000000d0: 0000 0000 0000 0000 0000 0000 0000 0000
000000e0: 0000 0000 0000 0000 0000 0000 0000 0000
000000f0: 0000 0000 0000 0000 0000 0000 0000 0000
00000100: 9217 7e35 32c5 8f30 1dcf 4a34 510c 7a2e
00000110: 495e 2c35 ed0e 6031 be18 1633 7124 0333
00000120: e6a9 7f35 63da 4a32 5654 8c33 917d 1933
00000130: 7e42 0b35 2699 8935 3898 1c34 b66d 0d35
00000140: 0000 0000 0000 0000 0000 0000 0000 0000
00000150: 0000 0000 0000 0000 0000 0000 0000 0000
00000160: 0000 0000 0000 0000 0000 0000 0000 0000
00000170: 0000 0000 0000 0000 0000 0000 0000 0000
00000180: fa21 9735 c2db 5e30 05c9 7434 21bd 4d2e
00000190: 694d 4c35 8b57 7f31 57f2 2f33 3375 1b33
000001a0: 5686 9935 0582 6832 1b22 9f33 31bf 3533
000001b0: 1ea2 2635 0cb5 a435 3e24 3d34 5729 2735
000001c0: 5e79 3235 7d20 ee2f 1d0c 0e34 9106 072e
000001d0: e015 f234 d656 0631 0765 d232 ea2f b832
000001e0: 3a6a 3335 dc4b f531 a853 4233 ac8c d732
000001f0: 3e96 c334 843e 4135 c843 db33 8890 c634
00000200: 0000 0000 0000 0000 0000 0000 0000 0000
00000210: 0000 0000 0000 0000 0000 0000 0000 0000
00000220: 0000 0000 0000 0000 0000 0000 0000 0000
00000230: 0000 0000 0000 0000 0000 0000 0000 0000
00000240: f911 8b35 8a57 7c30 bbc4 6234 5403 4a2e
00000250: acca 3b35 c2fa 7e31 2752 2133 40e6 0e33
00000260: d4cf 8d35 5472 6732 0a6b 9133 8203 2733
00000270: 47a9 1935 c1e8 9735 394f 2f34 f289 1935
00000280: 0000 0000 0000 0000 0000 0000 0000 0000
00000290: 0000 0000 0000 0000 0000 0000 0000 0000
000002a0: 0000 0000 0000 0000 0000 0000 0000 0000
000002b0: 0000 0000 0000 0000 0000 0000 0000 0000
000002c0: 0000 0000 0000 0000 0000 0000 0000 0000
000002d0: 0000 0000 0000 0000 0000 0000 0000 0000
000002e0: 0000 0000 0000 0000 0000 0000 0000 0000
000002f0: 0000 0000 0000 0000 0000 0000 0000 0000
00000300: 0000 0000 0000 0000 0000 0000 0000 0000
00000310: 0000 0000 0000 0000 0000 0000 0000 0000
00000320: 0000 0000 0000 0000 0000 0000 0000 0000
00000330: 0000 0000 0000 0000 0000 0000 0000 0000
00000340: 74c3 2b36 b3f8 b930 91ac 0635 53ff 062f
00000350: d8a0 e935 5d01 e231 6f7f cc33 9ebc b133
00000360: 6326 2b36 8f3f cf32 2cb6 3f34 d82a d033
00000370: af47 bb35 57f8 3836 fcaa cf34 5701 c035
00000380: 0000 0000 0000 0000 0000 0000 0000 0000
00000390: 0000 0000 0000 0000 0000 0000 0000 0000
000003a0: 0000 0000 0000 0000 0000 0000 0000 0000
000003b0: 0000 0000 0000 0000 0000 0000 0000 0000
000003c0: 0000 0000 0000 0000 0000 0000 0000 0000
000003d0: 0000 0000 0000 0000 0000 0000 0000 0000
000003e0: 0000 0000 0000 0000 0000 0000 0000 0000
000003f0: 0000 0000 0000 0000 0000 0000 0000 0000

exp_avg f4 [64]
0.0 0.0017463568 1.8801695e-05 0.0 -0.003013196 0.0 -0.007930196 -0.001028273
0.0 -0.0061622174 0.0 0.0 0.0 0.0010798486 0.0 0.0
0.0 0.0 -0.0135347545 0.00022013085 -0.0024925093 0.0 0.0 -0.0027220638
0.0 -0.0052700434 0.0 6.079039e-05 -0.0062649506 0.0 0.0 0.0
0.0 0.0 0.0 0.0 -0.0008226985 -0.008022364 -0.0024402915 0.0
0.0 0.0 0.00010012518 0.0 0.00026247205 0.0 0.0 -8.475749e-05
-0.0061761597 0.00080160453 -0.0032600034 0.00026924946 0.0 -0.0079416465 -0.00040813998 0.0
0.0012248246 -0.0013790412 0.0 0.0 -0.0038918403 0.0005170541 0.0 0.002355206
00000000: 0000 0000 03e6 e43a 55b8 9d37 0000 0000
00000010: 0a79 45bb 0000 0000 a7ed 01bc 1ec7 86ba
00000020: 0000 0000 6dec c9bb 0000 0000 0000 0000
00000030: 0000 0000 b589 8d3a 0000 0000 0000 0000
00000040: 0000 0000 0000 0000 e0c0 5dbc edd2 6639
00000050: 5e59 23bb 0000 0000 0000 0000 a764 32bb
00000060: 0000 0000 54b0 acbb 0000 0000 2ff9 7e38
00000070: 374a cdbb 0000 0000 0000 0000 0000 0000
00000080: 0000 0000 0000 0000 0000 0000 0000 0000
00000090: 5daa 57ba 3c70 03bc 4ced 1fbb 0000 0000
000000a0: 0000 0000 0000 0000 4cfa d138 0000 0000
000000b0: 679c 8939 0000 0000 0000 0000 d5bf b1b8
000000c0: 6261 cabb c522 523a c8a5 55bb 0d2a 8d39
000000d0: 0000 0000 ae1d 02bc 9ffb d5b9 0000 0000
000000e0: 4b8a a03a f2c0 b4ba 0000 0000 0000 0000
000000f0: 3f0e 7fbb ea8a 073a 0000 0000 cd59 1a3b

exp_avg_sq f4 [64]
0.0 1.8057557e-05 6.2760287e-06 0.0 1.8694234e-05 0.0 2.2308534e-05 1.3130608e-05
0.0 2.0550191e-05 0.0 0.0 0.0 5.0415423e-05 0.0 0.0
0.0 0.0 4.5116423e-05 1.0020962e-05 8.3361236e-05 0.0 0.0 9.867589e-06
0.0 1.8111774e-05 0.0 3.925501e-06 0.00011650005 0.0 0.0 0.0
0.0 0.0 0.0 0.0 6.5265162e-06 1.5115108e-05 3.3868353e-05 0.0
0.0 0.0 1.2570493e-05 0.0 1.8803432e-05 0.0 0.0 1.200582e-05
3.2626132e-05 2.7621574e-05 2.5757783e-05 1.0473082e-05 0.0 5.1336516e-05 3.0183177e-05 0.0
6.17099e-06 6.8834347e-06 0.0 0.0 5.781195e-05 1.504096e-05 0.0 7.66638e-06
00000000: 0000 0000 4f7a 9737 ad96 d236 0000 0000
00000010: 90d1 9c37 0000 0000 3623 bb37 884b 5c37
00000020: 0000 0000 3363 ac37 0000 0000 0000 0000
00000030: 0000 0000 2675 5338 0000 0000 0000 0000
00000040: 0000 0000 0000 0000 643b 3d38 b41f 2837
00000050: 39d2 ae38 0000 0000 0000 0000 f98c 2537
00000060: 0000 0000 bdee 9737 0000 0000 ccb7 8336
00000070: 7d51 f438 0000 0000 0000 0000 0000 0000
00000080: 0000 0000 0000 0000 0000 0000 0000 0000
00000090: 59fe da36 e596 7d37 de0d 0e38 0000 0000
000000a0: 0000 0000 0000 0000 dbe5 5237 0000 0000
000000b0: 10bc 9d37 0000 0000 0000 0000 9b6c 4937
000000c0: 0bd8 0838 e1b4 e737 6b12 d837 8bb5 2f37
000000d0: 0000 0000 2a52 5738 e131 fd37 0000 0000
000000e0: 6710 cf36 41f8 e636 0000 0000 0000 0000
000000f0: 1c7b 7238 6e58 7c37 0000 0000 da9e 0037

exp_avg f4 [32, 64]
0.0 5.9686254e-06 4.617478e-08 0.0 8.544654e-06 0.0 3.3732584e-07 4.5395822e-07
0.0 1.0834228e-06 0.0 0.0 0.0 8.207796e-06 0.0 0.0
0.0 0.0 7.5672215e-06 4.3435107e-06 6.605734e-06 0.0 0.0 1.4018533e-05
0.0 4.5661322e-06 0.0 5.9415646e-07 1.6559461e-06 0.0 0.0 0.0
0.0 0.0 0.0 0.0 6.9857565e-06 1.024746e-05 4.6700993e-06 0.0
0.0 0.0 1.1067115e-06 0.0 1.294933e-06 0.0 0.0 1.5216791e-06
7.624266e-06 1.3583494e-06 3.3339777e-06 0.0 0.0 4.439463e-06 1.4380722e-06 0.0
2.008809e-07 4.552795e-06 0.0 0.0 5.862423e-06 3.9119718e-07 0.0 1.2818466e-06
0.0 3.882062e-06 3.4931597e-07 0.0 0.0 0.0 0.00021521054 6.2977e-06
0.0 0.0006417286 0.0 0.0 0.0 1.6893586e-05 0.0 0.0
0.0 0.0 0.00049288664 0.00012507018 1.2318233e-05 0.0 0.0 0.0006295305
0.0 0.0001895477 0.0 1.6455801e-06 2.1519136e-05 0.0 0.0 0.0
0.0 0.0 0.0 0.0 0.00034130045 0.0005547198 9.516853e-06 0.0
0.0 0.0 1.6664586e-06 0.0 3.0745632e-06 0.0 0.0 9.975502e-05
0.0006034201 0.00016078055 0.00027098425 1.5962801e-06 0.0 0.00035904796 0.00032251122 0.0
1.702951e-05 0.0001593934 0.0 0.0 1.1869597e-05 0.00018232972 0.0 0.00029959407
0.0 2.2776214e-05 0.0 0.0 0.00022437511 0.0 9.552194e-05 0.00011820626
0.0 0.00025394862 0.0 0.0 0.0 0.00020688325 0.0 0.0
0.0 0.0 0.00016860726 4.3008582e-05 -7.115803e-06 0.0 0.0 3.7123667e-05
0.0 6.2324456e-05 0.0 0.0 -8.281343e-06 0.0 0.0 0.0
0.0 0.0 0.0 0.0 0.00012220824 0.00023520694 0.00013646032 0.0
0.0 0.0 0.0 0.0 0.0 0.0 0.0 6.4822143e-06
0.00024626128 7.479914e-05 0.00011137771 0.0 0.0 2.0862813e-05 0.0001159016 0.0
5.626628e-06 5.544899e-05 0.0 0.0 0.0001706137 -1.9780841e-06 0.0 0.00010645386
0.0 0.0017651039 0.0 0.0 0.0025286195 0.0 0.00010317288 0.0014507895
0.0 0.0030754425 0.0 0.0 0.0 0.002909091 0.0 0.0
0.0 0.0 0.00046696494 0.00039214216 0.002554069 0.0 0.0 0.0035656244
0.0 8.035013e-05 0.0 0.0 0.0028285277 0.0 0.0 0.0
0.0 0.0 0.0 0.0 0.0005538758 0.0025908109 0.0013998938 0.0
0.0 0.0 0.0 0.0 0.0 0.0 0.0 0.0006203741
0.003445342 0.0011329943 0.00039329688 0.0 0.0 0.0014657513 0.00055316335 0.0
9.034717e-05 0.0005960817 0.0 0.0 0.0019502656 0.00083209865 0.0 0.0003561107
00000000: 0000 0000 1a46 c836 b551 4633 0000 0000
00000010: 025b 0f37 0000 0000 b619 b534 8bb7 f334
00000020: 0000 0000 206a 9135 0000 0000 0000 0000
00000030: 0000 0000 37b4 0937 0000 0000 0000 0000
00000040: 0000 0000 0000 0000 f0e9 fd36 79be 9136
00000050: d3a6 dd36 0000 0000 0000 0000 2431 6b37
00000060: 0000 0000 c736 9936 0000 0000 1f7e 1f35
00000070: e041 de35 0000 0000 0000 0000 0000 0000
00000080: 0000 0000 0000 0000 0000 0000 0000 0000
00000090: 3167 ea36 81ec 2b37 d9b3 9c36 0000 0000
000000a0: 0000 0000 0000 0000 518a 9435 0000 0000
000000b0: 8fcd ad35 0000 0000 0000 0000 7f3c cc35
000000c0: f2d3 ff36 8850 b635 4dbd 5f36 0000 0000
000000d0: 0000 0000 b2f6 9436 c903 c135 0000 0000
000000e0: b9b1 5734 36c4 9836 0000 0000 0000 0000
000000f0: d5b5 c436 bb05 d234 0000 0000 ea0b ac35
00000100: 0000 0000 a942 8236 9f89 bb34 0000 0000
00000110: 0000 0000 0000 0000 24aa 6139 d550 d336
00000120: 0000 0000 ad39 283a 0000 0000 0000 0000
00000130: 0000 0000 b3b6 8d37 0000 0000 0000 0000
00000140: 0000 0000 0000 0000 1035 013a 4525 0339
00000150: 68aa 4e37 0000 0000 0000 0000 1407 253a
00000160: 0000 0000 53c1 4639 0000 0000 b4dd dc35
00000170: fe83 b437 0000 0000 0000 0000 0000 0000
00000180: 0000 0000 0000 0000 0000 0000 0000 0000
00000190: 92f0 b239 9e6a 113a 93aa 1f37 0000 0000
000001a0: 0000 0000 0000 0000 15ab df35 0000 0000
000001b0: 9854 4e36 0000 0000 0000 0000 9233 d138
000001c0: d62e 1e3a 3397 2839 e412 8e39 c43f d635
000001d0: 0000 0000 9a3e bc39 b916 a939 0000 0000
000001e0: 98da 8e37 d722 2739 0000 0000 0000 0000
000001f0: 8823 4737 c32f 3f39 0000 0000 d612 9d39
00000200: 0000 0000 8c0f bf37 0000 0000 0000 0000
00000210: 3c46 6b39 0000 0000 f352 c838 81e5 f738
00000220: 0000 0000 6824 8539 0000 0000 0000 0000
00000230: 0000 0000 cdee 5839 0000 0000 0000 0000
00000240: 0000 0000 0000 0000 2bcc 3039 1d64 3438
00000250: 48c4 eeb6 0000 0000 0000 0000 3cb5 1b38
00000260: 0000 0000 30b4 8238 0000 0000 0000 0000
00000270: 19f0 0ab7 0000 0000 0000 0000 0000 0000
00000280: 0000 0000 0000 0000 0000 0000 0000 0000
00000290: 0625 0039 e2a1 7639 ca16 0f39 0000 0000
000002a0: 0000 0000 0000 0000 0000 0000 0000 0000
000002b0: 0000 0000 0000 0000 0000 0000 cc81 d936
000002c0: a11c 8139 7cdd 9c38 7493 e938 0000 0000
000002d0: 0000 0000 8d02 af37 3310 f338 0000 0000
000002e0: 5ecc bc36 e691 6838 0000 0000 0000 0000
000002f0: c4e6 3239 3abf 04b6 0000 0000 fb3f df38
00000300: 0000 0000 0f5b e73a 0000 0000 0000 0000
00000310: 32b7 253b 0000 0000 855e d838 6b28 be3a
00000320: 0000 0000 5d8d 493b 0000 0000 0000 0000
00000330: 0000 0000 73a6 3e3b 0000 0000 0000 0000
00000340: 0000 0000 0000 0000 f9d2 f439 6e98 cd39
00000350: 2b62 273b 0000 0000 0000 0000 40ad 693b
00000360: 0000 0000 a681 a838 0000 0000 0000 0000
00000370: d25e 393b 0000 0000 0000 0000 0000 0000
00000380: 0000 0000 0000 0000 0000 0000 0000 0000
00000390: fa31 113a 98ca 293b a47c b73a 0000 0000
000003a0: 0000 0000 0000 0000 0000 0000 0000 0000
000003b0: 0000 0000 0000 0000 0000 0000 9aa0 223a
000003c0: 3fcb 613b fb80 943a 6a33 ce39 0000 0000
000003d0: 0000 0000 741e c03a 2a02 113a 0000 0000
000003e0: c478 bd38 5e42 1c3a 0000 0000 0000 0000
000003f0: 0ea0 ff3a 3221 5a3a 0000 0000 5eb4 ba39
