models/E.coli_limonene_gnn_rl_checkpoint.pth (torch, 7186 bytes, 11 tensors)

gat1.att_src f4 [1, 1, 16]
0.109321356 -0.2702102 -0.15384854 0.17640792 -0.03522392 0.0951921 -0.09809479 -0.26858428
0.48106605 -0.19108985 0.0014758339 -0.25828394 0.38416815 -0.47099358 -0.54759294 -0.050418682
00000000: e0e3 df3d fe58 8abe 798a 1dbe 47a4 343e
00000010: f546 10bd 13f4 c23d ece5 c8bd e183 89be
00000020: 4a4e f63e 0fad 43be c570 c13a cb3d 84be
00000030: b0b1 c43e 1226 f1be 0d2f 0cbf d283 4ebd

gat1.att_dst f4 [1, 1, 16]
0.30244356 -0.50996137 0.030063793 0.2651093 -0.06625148 0.4484054 -0.17542472 -0.3179023
-0.2770336 -0.2505587 -0.06307936 -0.012256153 -0.31044117 -0.5421736 -0.23089834 0.08610236
00000000: e2d9 9a3e d48c 02bf 5848 f63c 68bc 873e
00000010: dbae 87bd 6595 e53e 8aa2 33be 17c4 a2be
00000020: 59d7 8dbe 3b49 80be c02f 81bd 08ce 48bc
00000030: 25f2 9ebe e4cb 0abf 9d70 6cbe 6f56 b03d

gat1.bias f4 [16]
0.028606463 0.03643402 0.04589489 0.041287467 -0.015022549 0.0 0.038282428 0.0
-0.028135628 0.011202918 0.03621095 0.010252056 0.030760763 0.0 -0.009411188 -0.007555638
00000000: 1a58 ea3c d73b 153d 48fc 3b3d 0c1d 293d
00000010: 2321 76bc 0000 0000 09ce 1c3d 0000 0000
00000020: b07c e6bc 728c 373c ef51 143d 3df8 273c
00000030: fffd fb3c 0000 0000 6231 1abc 4995 f7bb

gat1.lin.weight f4 [16, 3]
0.41677243 -0.18936546 0.069740236 0.48517767 -0.49740055 0.50758964 -0.09777081 0.50815517
-0.5191091 0.28268814 -0.32176444 -0.3060227 0.00061214354 -0.07770155 0.4230181 -0.06019782
-0.2842738 0.069059014 0.27439678 -0.45834327 -0.3101557 -0.36815736 -0.49713457 -0.23939769
-0.068622544 0.04845399 -0.096079566 0.013231841 -0.37615165 0.40589142 0.20329118 0.5743388
-0.43626165 0.2870753 0.21193136 0.3396459 -0.059175037 0.515604 0.33141968 -0.22229487
-0.2708369 -0.053461306 -0.0011216428 -0.1575597 0.2104345 -0.005407104 -0.24968374 -0.16370131
00000000: 3263 d53e 05e9 41be f8d3 8e3d 3569 f83e
00000010: 49ab febe 65f1 013f 103c c8bd 7516 023f
00000020: 55e4 04bf 80bc 903e 4fbe a4be 02af 9cbe
00000030: 4278 203a fe21 9fbd d495 d83e fd91 76bd
00000040: 568c 91be d06e 8d3d bc7d 8c3e f8ab eabe
00000050: bacc 9ebe 1f7f bcbe 6c88 febe ab24 75be
00000060: fa89 8cbd b177 463d 5dc5 c4bd 5dca 583c
00000070: f396 c0be 00d1 cf3e 902b 503e de07 133f
00000080: b05d dfbe 89fb 923e 8904 593e 11e6 ad3e
00000090: 8661 72bd a0fe 033f d7af a93e 44a1 63be
000000a0: 22ab 8abe 3efa 5abd 1604 93ba 5457 21be
000000b0: 247c 573e 132e b1bb 18ad 7fbe 51a1 27be

gat2.att_src f4 [1, 1, 8]
0.19951786 0.45805454 0.69082224 -0.4805538 0.61642915 -0.7465498 -0.53903997 -0.6265146
00000000: 694e 4c3e 2086 ea3e bad9 303f 260b f6be
00000010: 4dce 1d3f e31d 3fbf 86fe 09bf 4363 20bf

gat2.att_dst f4 [1, 1, 8]
0.12857617 -0.2337491 0.62474734 0.0642294 -0.6990323 0.66871566 0.17484035 0.6497498
00000000: 79a9 033e ed5b 6fbe 71ef 1f3f b48a 833d
00000010: c8f3 32bf f330 2b3f 5909 333e 0156 263f

gat2.bias f4 [8]
0.026975198 0.03523936 0.027810909 0.03135316 -0.023168167 -0.030533351 -0.028001517 -0.034014035
00000000: 17fb dc3c 2657 103d b4d3 e33c 2c6c 003d
00000010: 2bcb bdbc 1421 fabc 7063 e5bc 4d52 0bbd

gat2.lin.weight f4 [8, 16]
-0.42173067 0.44329998 -0.47608602 0.44000503 -0.030083807 -0.12822253 0.023713067 0.18771482
0.3074997 -0.15046814 -0.26617426 -0.21503301 0.029356847 0.22044611 0.103541225 0.06312373
-0.2884718 0.3779205 0.47792736 0.45355397 -0.30233297 0.1467495 0.10741196 0.40553677
-0.09277136 0.38942662 0.48740256 -0.17222615 0.07263579 0.4380594 0.3461651 -0.119039536
-0.20591001 -0.2943079 0.25643757 -0.32340717 0.16848737 -0.2325626 -0.20096092 0.34576827
0.43775535 -0.3150698 0.46719 0.085928656 0.17988947 -0.04273051 -0.43549013 0.2205391
0.38991892 0.4269553 -0.46988055 0.30203238 0.10232478 -0.33058918 -0.10545483 -0.39699316
-0.34535494 -0.14940436 -0.22149062 0.10773852 0.365815 0.3421787 0.19381198 0.41386324
-0.4950431 0.23567963 0.30609357 0.3875122 0.20190136 0.095672905 0.086953156 -0.30320132
0.007220805 0.40731758 0.19760515 -0.39071825 0.40277073 -0.43659228 0.2811553 0.065029405
-0.0078044552 -0.5041412 0.033806257 -0.26535574 0.038208418 -0.48400182 0.23922005 -0.2976247
-0.39235368 -0.33573562 0.2396821 -0.07798252 -0.14375687 -0.30491275 0.25558066 0.02557335
-0.3694184 -0.19893952 0.44849378 0.032351386 0.19541246 0.1942097 -0.51088125 -0.09534669
-0.44303071 -0.16096225 0.11566444 0.32780066 -0.26889476 0.11483729 0.07072411 0.21572727
-0.49791566 0.077369735 -0.3815647 -0.13934433 0.11114393 -0.22002983 -0.12367356 0.09013915
0.117860146 -0.44862452 -0.2721335 -0.41725817 0.37551934 0.13625097 0.4006592 -0.21070272
00000000: 15ed d7be 37f8 e23e 8cc1 f3be 5748 e13e
00000010: 5172 f6bc c44c 03be e841 c23c 5038 403e
00000020: 9a70 9d3e 5214 1abe fe47 88be 9d31 5cbe
00000030: c57d f03c a0bc 613e 6c0d d43d 0447 813d
00000040: 93b2 93be cc7e c13e e5b2 f43e 3a38 e83e
00000050: 63cb 9abe 8045 163e cdfa db3d 84a2 cf3e
00000060: e9fe bdbd ed62 c73e d48c f93e 0d5c 30be
00000070: 13c2 943d 5249 e03e 8d3c b13e 00cb f3bd
00000080: 13da 52be 86af 96be c94b 833e a095 a5be
00000090: f487 2c3e e424 6ebe b3c8 4dbe 8a08 b13e
000000a0: 7821 e03e d450 a1be 8733 ef3e 5dfb af3d
000000b0: f234 383e 3006 2fbd 90f8 debe 00d5 613e
000000c0: 74a3 c73e e399 da3e 2f94 f0be fda3 9a3e
000000d0: a78f d13d fc42 a9be b4f8 d7bd b042 cbbe
000000e0: 5dd2 b0be 75fd 18be 70ce 62be 03a6 dc3d
000000f0: 1b4c bb3e 0c32 af3e a676 463e e2e5 d33e
00000100: 4a76 fdbe 0056 713e 4cb8 9c3e 0068 c63e
00000110: 3bbf 4e3e 28f0 c33d 7f14 b23d 343d 9bbe
00000120: 819c ec3b ee8b d03e 0159 4a3e 390c c8be
00000130: f737 ce3e 0689 dfbe 96f3 8f3e 232e 853d
00000140: 84bc ffbb 660f 01bf 6e78 0a3d b5dc 87be
00000150: 6e80 1c3d 16cf f7be 1af6 743e 4462 98be
00000160: 95e2 c8be 8ae5 abbe 396f 753e 4db5 9fbd
00000170: 0035 13be 861d 9cbe 78db 823e 347f d13c
00000180: 6924 bdbe cdb6 4bbe faa0 e53e e382 043d
00000190: 341a 483e e8de 463e 1dc9 02bf 2045 c3bd
000001a0: ecd4 e2be 4ad3 24be 7ae1 ec3d 7dd5 a73e
000001b0: 93ac 89be d02f eb3d cdd7 903d 9ce7 5c3e
000001c0: cdee febe 0674 9e3d 735c c3be 48b0 0ebe
000001d0: 6e9f e33d 804f 61be 9048 fdbd e09a b83d
000001e0: a960 f13d 1db2 e5be 1555 8bbe dda2 d5be
000001f0: 1244 c03e 6085 0b3e 3423 cd3e 74c2 57be

net.0.weight f4 [32, 8]
-0.06211947 0.10377402 -0.1194508 0.20235154 -0.27207062 0.15351364 -0.22346376 -0.029576179
0.20771714 0.33189508 0.27874482 0.109564446 0.10307869 0.20967826 0.16610523 0.0067523103
0.0023171976 -0.06887584 -0.14099792 -0.010814045 0.23299219 0.30110887 -0.08330041 -0.2559708
-0.20724168 0.36806557 0.2800065 0.18644482 -0.22205031 -0.02903061 -0.052149203 0.13598575
0.093368866 -0.17476621 0.05194403 0.15933329 0.06392258 0.03514516 0.21624245 -0.24907368
-0.108896956 0.3518683 -0.24074984 -0.011590501 0.24744526 0.11236274 0.3140073 0.16941194
0.30847973 0.21030466 0.22450235 0.07202851 -0.051321745 0.019578995 0.1736176 -0.11900507
-0.19532168 -0.14115061 0.27145037 0.16037394 -0.088011585 -0.11649374 -0.21048652 -0.29897118
-0.29817256 0.3235985 0.29865226 -0.3273684 0.12053449 0.3345432 0.2484111 -0.098841615
-0.2574426 -0.19167487 -0.23852311 -0.32829928 0.30933374 -0.028934212 0.2760324 -0.30233073
0.32226956 0.29800072 0.043936957 0.23224692 0.21017323 0.06593712 -0.087801546 0.18705328
0.1521841 0.2667541 -0.11978097 0.15938571 -0.106243595 -0.34617263 -0.26506314 -0.2013746
0.17127371 -0.35148546 0.17040434 -0.24366213 -0.052055277 0.28874865 -0.28238526 0.2954503
-0.34449196 0.28851628 0.32270688 0.13672227 0.18739812 -0.33533162 0.09633778 0.21148506
0.09615557 0.09096231 0.055763856 0.17889762 -0.116479 0.3512906 0.18976255 -0.20332499
0.1963264 -0.25098854 -0.20088989 0.25651634 0.03046183 0.31937 -0.20042755 0.22300896
0.17746389 0.28168705 -0.24423283 -0.20083842 -0.12798734 0.060447555 -0.08245113 -0.3066242
0.16883713 -0.18144736 -0.1063252 -0.13655032 0.20658529 0.21794176 -0.37493792 -0.1629173
0.15499716 0.25340194 -0.19586179 -0.02535958 -0.20244506 -0.33775267 -0.37840375 -0.20858684
-0.2590409 0.07620332 -0.022820998 0.09558162 -0.09784857 0.17944203 -0.14487316 0.23343056
-0.17681916 0.14151762 0.2775342 0.17512263 0.1989654 -0.027247144 0.3754354 0.18909208
0.04091104 -0.1108034 0.287028 0.20535883 -0.23569812 -0.22967248 0.09861498 -0.28903496
-0.022557642 0.22953068 0.2310194 0.17639717 0.045281425 0.19427931 -0.015195116 0.21850778
0.15689635 0.28135687 0.1968204 0.10492385 -0.23350932 -0.37442285 -0.24516757 0.05289644
0.041376363 -0.29498228 0.13584433 0.1166077 0.17592315 -0.20554319 -0.036032412 0.2431523
0.19155668 -0.15983824 0.20049332 0.118386135 0.06714158 -0.18640757 -0.08398048 -0.2496326
0.19856377 -0.278916 0.18100482 0.37941214 -0.3818688 -0.30818084 -0.23215085 -0.33015582
0.26926556 0.10049634 0.20815642 0.30900127 0.31048873 0.36620852 0.28980616 0.30653307
-0.17265606 -0.15418229 0.064066574 0.24570972 -0.33797765 0.16512014 0.08840816 0.06267215
-0.2958296 0.028773597 0.22864881 -0.007436708 -0.20467657 -0.0043919976 0.071235806 -0.3138516
0.27495018 0.0946445 0.28919452 -0.32665327 -0.36909655 0.006588688 0.21217495 -0.025190635
0.0124515 0.31641707 0.05794381 0.27034476 0.16514969 -0.20041908 0.15692638 -0.18546328
00000000: fc70 7ebd 7987 d43d 9fa2 f4bd 3e35 4f3e
00000010: d74c 8bbe ae32 1d3e afd3 64be be49 f2bc
00000020: cdb3 543e 27ee a93e a4b7 8e3e 5363 e03d
00000030: ec1a d33d e6b5 563e 7d17 2a3e 7c42 dd3b
00000040: 20dc 173b c70e 8dbd c261 10be 642d 31bc
00000050: 8195 6e3e f12a 9a3e 6899 aabd 9b0e 83be
00000060: 2a37 54be 1773 bc3e 035d 8f3e 64eb 3e3e
00000070: 2861 63be 9ad1 edbc 679a 55bd d93f 0b3e
00000080: 2d38 bf3d eaf5 32be 43c3 543d 4428 233e
00000090: d7e9 823d 5ff4 0f3d a96e 5d3e 2c0d 7fbe
000000a0: 5e05 dfbd 1528 b43e 2087 76be 16e6 3dbc
000000b0: 4a62 7d3e 701e e63d 91c5 a03e 537a 2d3e
000000c0: 0ef1 9d3e 1b5a 573e f2e3 653e af83 933d
000000d0: c036 52bd 2164 a03c d0c8 313e eeb8 f3bd
000000e0: 6802 48be c989 10be 8bfb 8a3e 1139 243e
000000f0: 6b3f b4bd 4594 eebd c789 57be c012 99be
00000100: 13aa 98be b4ae a53e f3e8 983e d59c a7be
00000110: c9da f63d 3f49 ab3e 7b5f 7e3e 796d cabd
00000120: 84cf 83be 6b46 44be 673f 74be d816 a8be
00000130: fe60 9e3e 7107 edbc 1e54 8d3e 18cb 9abe
00000140: 8400 a53e 8d93 983e 3df7 333d 23d2 6d3e
00000150: a737 573e 0a0a 873d 4cd1 b3bd e58a 3f3e
00000160: 26d6 1b3e fe93 883e ba4f f5bd 0236 233e
00000170: 3e96 d9bd 8a3d b1be 5bb6 87be 2535 4ebe
00000180: 6062 2f3e e7f5 b3be 7a7e 2e3e 9182 79be
00000190: ea37 55bd ddd6 933e cd94 90be 4345 973e
000001a0: 4061 b0be 68b8 933e d639 a53e ec00 0c3e
000001b0: 4be5 3f3e 96b0 abbe be4c c53d 8a8f 583e
000001c0: 36ed c43d 734a ba3d a468 643d f030 373e
000001d0: 8b8c eebd 5ddc b33e 1d51 423e 6d34 50be
000001e0: ca09 493e 9281 80be 14b6 4dbe 1c56 833e
000001f0: 168b f93c 7784 a33e e13c 4dbe 765c 643e
00000200: 18b9 353e 4939 903e 2c18 7abe 96a8 4dbe
00000210: 1d0f 03be db97 773d 23dc a8bd d9fd 9cbe
00000220: a4e3 2c3e 56cd 39be 07c1 d9bd d9d3 0bbe
00000230: 188b 533e 202c 5f3e ddf7 bfbe cbd3 26be
00000240: 93b7 1e3e e6bd 813e fe8f 48be e5be cfbc
00000250: c24d 4fbe ebed acbe 23be c1be ca97 55be
00000260: 02a1 84be 7c10 9c3d 1af3 babc 4cc0 c33d
00000270: d564 c8bd a7bf 373e a159 14be 6c08 6f3e
00000280: 1510 35be ffe9 103e f618 8e3e 5953 333e
00000290: 96bd 4b3e 6735 dfbc 1239 c03e 5ba1 413e
000002a0: 5692 273d e5ec e2bd 56f5 923e 9649 523e
000002b0: d95a 71be 432f 6bbe a7f6 c93d 64fc 93be
000002c0: ceca b8bc 170a 6b3e 5990 6c3e 76a1 343e
000002d0: 0479 393d 28f1 463e f0f4 78bc 81c0 5f3e
000002e0: 70a9 203e 020e 903e 498b 493e 51e2 d63d
000002f0: 111d 6fbe 5ab4 bfbe 350d 7bbe f0a9 583d
00000300: 437a 293d eb07 97be c71a 0b3e 05d0 ee3d
00000310: 3325 343e ea79 52be b996 13bd ebfc 783e
00000320: 6f27 443e a3ac 23be 1f4e 4d3e 6e74 f23d
00000330: 8681 893d a0e1 3ebe f5fd abbd b09f 7fbe
00000340: 4d54 4b3e 14ce 8ebe 5459 393e 4f42 c23e
00000350: 4f84 c3be e1c9 9dbe f4b8 6dbe 2f0a a9be
00000360: 2ddd 893e 06d1 cd3d f526 553e 6a35 9e3e
00000370: 61f8 9e3e af7f bb3e 7961 943e e7f1 9c3e
00000380: c0cc 30be f6e1 1dbe 5635 833d 549b 7b3e
00000390: 680b adbe 4115 293e 560f b53d 425a 803d
000003a0: fa76 97be 9bb6 eb3c ea22 6a3e a1af f3bb
000003b0: bc96 51be bfea 8fbb 14e4 913d 28b1 a0be
000003c0: 45c6 8c3e fad4 c13d 4e11 943e 193f a7be
000003d0: 39fa bcbe ece5 d73b 6444 593e 975c cebc
000003e0: 6001 4c3c 6b01 a23e 7d56 6d3d a16a 8a3e
000003f0: 001d 293e a93a 4dbe 4fb1 203e 16ea 3dbe

net.0.bias f4 [32]
0.3768013 -0.20508072 -0.33594817 -0.078884736 0.31414545 0.15776019 0.34299493 -0.14364518
-0.114452496 0.24252827 -0.0043519805 -0.15471357 -0.25858423 -0.07195059 0.22970411 0.022734184
0.18754907 0.3642439 0.07026031 -0.20373325 -0.009190948 -0.1023274 -0.22714552 0.018818265
0.28266385 -0.26488003 0.07491857 0.23925714 0.34122214 0.13961491 0.025470642 -0.27454764
00000000: 1aec c03e ae00 52be 6601 acbe 528e a1bd
00000010: acd7 a03e e38b 213e 089d af3e b917 13be
00000020: 1266 eabd 5559 783e 0f9b 8ebb 3c6d 1ebe
00000030: 2765 84be d55a 93bd 8e37 6b3e 0a3d ba3c
00000040: dd0c 403e 2d7e ba3e a3e4 8f3d 739f 50be
00000050: a195 16bc 0791 d1bd d698 68be c328 9a3c
00000060: 51b9 903e 5b9e 87be e86e 993d d3ff 743e
00000070: abb4 ae3e 36f7 0e3e cfa7 d03c 8291 8cbe

net.2.weight f4 [1, 32]
0.18335496 -0.18309473 0.12260869 -0.06987762 0.11185128 -0.15476184 0.0349703 -0.13780876
-0.036786664 0.12538864 0.06057376 0.20094386 0.14147148 -0.07684019 -0.16284744 -0.09803127
0.0061656167 0.1030067 0.16563438 0.015764574 -0.06398464 0.011472429 -0.12662011 0.16444097
0.09871167 0.037885725 0.21292488 -0.044612307 0.066265695 -0.008579787 0.03617828 -0.025124703
00000000: 67c1 3b3e 2f7d 3bbe 441a fb3d ff1b 8fbd
00000010: 4912 e53d e379 1ebe 043d 0f3d bd1d 0dbe
00000020: 9dad 16bd e165 003e 311c 783d 3ac4 4d3e
00000030: e6dd 103e 645e 9dbd 7bc1 26be 9ec4 c8bd
00000040: f108 ca3b 2df5 d23d 0f9c 293e b524 813c
00000050: 610a 83bd dbf6 3b3c b4a8 01be 3763 283e
00000060: 5829 ca3d 102e 1b3d fb08 5a3e 65bb 36bd
00000070: 4fb6 873d 3c92 0cbc ad2f 143d 52d2 cdbc
