models/E.coli_limonene_gnn_rl_checkpoint.pth (torch, 7314 bytes, 11 tensors)

gat1.att_src f4 [1, 1, 16]
00000000: ddde dd3d d86a b83e c531 123f ec6a 9fbe
00000010: 3dd3 9f3e 71a2 1b3e 9ce0 583e 3401 b33e
00000020: 80a3 33be f620 92be 7e0e 13bf 38de 9fbe
00000030: f4e1 9fbe 8840 eabc b310 1ebe 3646 d4be
0.108335234 0.36019015 0.5710719 -0.31136262 0.3121585 0.15198685 0.21179432 0.34961855
-0.17542839 -0.28540772 -0.5744399 -0.31224227 -0.31227076 -0.028595224 -0.15436058 -0.41459817

gat1.att_dst f4 [1, 1, 16]
00000000: 2e60 14be c46e edbc 319e 9a3d f0ed ccbe
00000010: cff3 75be 1fa0 f83d baca 03bd 2169 bbbe
00000020: c984 153f b6e7 d0bb a847 843e 37cc 47bd
00000030: 76bc a4bc 64e5 e3be f232 9fbd 50d1 c3be
-0.14489815 -0.028983481 0.07549704 -0.40025282 -0.24018787 0.12139916 -0.032175757 -0.36603644
0.5840574 -0.0063752783 0.2583592 -0.04877874 -0.020109396 -0.4451095 -0.07773389 -0.3824563

gat1.bias f4 [16]
00000000: 0000 0000 57f5 c63b 0000 0000 f591 05bc
00000010: 231d 26bb 1fa4 1ebb 0000 0000 9f66 ab3b
00000020: de4f e7bb 0000 0000 3fed 9dbb 4669 893b
00000030: de97 0c3a 0000 0000 6989 3dba 4b6f 0f3b
0.0 0.0060717273 0.0 -0.008152475 -0.0025346957 -0.002420671 0.0 0.0052307392
-0.0070590815 0.0 -0.0048195417 0.004193458 0.0005363206 0.0 -0.00072302535 0.0021886404

gat1.lin.weight f4 [16, 3]
00000000: cf62 0ebe 4f4f 51be 1d2e df3e 87be 1e3e
00000010: a274 c83e f5bd b13e 7a80 96bd 803b 59be
00000020: b3d5 bebe c628 103d 7cdb 90bd 826d 853e
00000030: f72b e9bd be25 d03e 3dbd 933e 1f85 c6bd
00000040: 3cc1 a03e fa82 313e b648 c1be f060 b0be
00000050: e2cf f23e d324 5e3e 331b 81bd 2cd0 0cbf
00000060: 150c e83e cf90 c43e 9ec7 e8be 75a3 d9be
00000070: ad7a fbbe 9253 f2be d456 3b3b 1d7f f7be
00000080: e2ec bd3c 9bed 163e 8687 333c b13a 023f
00000090: ce2d 90be 13cd 423e cf2f 013e 3b52 cbbe
000000a0: a6a6 a2be 49d1 04bf 966e e8be 8489 f23e
000000b0: 67f6 dcbe 7e12 1b3d 2b56 e2be f7dd 9ebe
-0.1390488 -0.2044041 0.4358987 0.15502368 0.39151484 0.34715238 -0.07348724 -0.21214104
-0.37272415 0.035195135 -0.07073113 0.2606011 -0.11385339 0.40653795 0.28855315 -0.096933596
0.31397426 0.1733512 -0.37750787 -0.34448957 0.47424227 0.21693735 -0.06304016 -0.55005145
0.45321718 0.3839173 -0.45464796 -0.4250752 -0.49117032 -0.47329384 0.002858569 -0.48339167
0.023184244 0.14739077 0.010957604 0.50870806 -0.28159946 0.19023542 0.12615894 -0.39711174
-0.31767768 -0.51881844 -0.4539687 0.4737054 -0.4315674 0.037859432 -0.44206366 -0.3102872

gat2.att_src f4 [1, 1, 8]
00000000: 1a6e 453f 003e 47bf 9fe4 ebbe c666 d7be
00000010: a752 433e bc2c a4be 849d 44be e9cd 89bd
0.77121127 -0.7782898 -0.46072862 -0.42070597 0.19074498 -0.3206538 -0.19200712 -0.06728727

gat2.att_dst f4 [1, 1, 8]
00000000: a6e0 34bf 28de 3c3f f0de 0d3e bcce 11bf
00000010: abca 75be 04da 423f d223 3e3e 94b8 a4be
-0.70655286 0.73776484 0.13854575 -0.56956077 -0.24003093 0.76113915 0.18568352 -0.32172072

gat2.bias f4 [8]
00000000: 3a99 c2bb 33d8 b8bb 72df e5bb 73cb bd3b
00000010: 94f1 dabb c331 c8bb 6523 cdbb f3e5 cdbc
-0.005938676 -0.0056410073 -0.007015162 0.0057920753 -0.0066816304 -0.0061094477 -0.006260323 -0.025134062

gat2.lin.weight f4 [8, 16]
00000000: 1e04 d43e 5b68 8ebe 38d1 18be 170a fcbd
00000010: 9c30 58be 8204 003f 2474 883e 6a2b 34be
00000020: 88b1 bebd ea50 95be d01c a23e a9da 923e
00000030: c69c e7be 9c55 4fbe 979e d5be 0991 fcbe
00000040: 0025 f13b 6ed3 e43d 1c55 4a3e c094 2fbe
00000050: 7fe1 7f3e 51c3 d0be 78e3 713e 3839 d6bc
00000060: 57c0 1e3e 8832 563e d94a be3e 468e be3e
00000070: 175f d03e 28d9 f1be d472 24bc 487c b7be
00000080: 0482 d6be 3d4a ff3e 70fc 8a3d 1ec2 db3e
00000090: a73a fdbe 5902 c8be 544d e9be 402c d6be
000000a0: 6d7e 023e 56c5 f03e 3070 ad3e d78f eabd
000000b0: dccb d3be f6ce e8be 36a2 1e3c c8da 96be
000000c0: a619 a0be c9f7 f13e 0c32 e03e d0ed b83e
000000d0: e0c2 5a3e 4927 e63e 6c9b f2be 550f 3ebe
000000e0: 058f 043e 0cf9 13be 244b b4bd b7d2 b83e
000000f0: 2795 c13e e840 4c3e 0636 713e 3b44 92be
00000100: 0e15 c3be be63 32be 9eef ec3e d29f aebe
00000110: bd34 a13e 2caf c13e 0c47 fbbe 401b 8dbe
00000120: f2aa b53e d415 afbe 3592 b73e 3f54 863e
00000130: 0de3 81be 524a c23e 2f71 713e dcbc 173e
00000140: ec75 aebe fb4e b6be f84c df3e 09f6 c7be
00000150: 58b1 b63e 5d16 80bd a4f4 6b3e cfe1 973e
00000160: 47ef 8e3e a815 8f3e 1288 d23e c7a8 e8be
00000170: e005 ac3e c4d9 903e eba6 99bd 4fdf 21bd
00000180: da71 d23e e652 0d3e 18af ebbe 829a b53e
00000190: 25e7 233d 51d3 143e 6621 dcbe 05e4 da3e
000001a0: 1e88 df3e 46c4 90be e1b2 cdbe bfd8 73be
000001b0: c911 c83e 9074 bcbd 5bc6 f63e 17cb b2bd
000001c0: 0c17 cc3e 46a1 a7be 5684 d6be 57ae b53e
000001d0: d471 ae3c cd11 da3e 0050 6f3b 5d19 d53e
000001e0: ddba e33d 64f8 13be bad6 88be c4a3 e33e
000001f0: 3432 573e 6414 12be 30b0 5abe af30 9d3e
0.4140939 -0.27813992 -0.1492356 -0.12306612 -0.21112293 0.5000688 0.26651108 -0.17594686
-0.09311205 -0.29163295 0.31662607 0.2868245 -0.45236796 -0.20247501 -0.41722557 -0.49329403
0.007359147 0.111731395 0.19759029 -0.17146587 0.24988364 -0.40774015 0.23621929 -0.02615033
0.1550306 0.20917714 0.3716648 0.3721792 0.40697548 -0.4723599 -0.010037143 -0.35837007
-0.4189607 0.49861327 0.0678643 0.42921537 -0.4945881 -0.3906429 -0.4556681 -0.41830635
0.1274354 0.47025555 0.33874655 -0.114532165 -0.4136647 -0.454704 0.009682229 -0.29463792
-0.31269568 0.47259358 0.43788183 0.36118937 0.21363401 0.44951847 -0.47384202 -0.18560536
0.12945183 -0.14450473 -0.088033944 0.36098263 0.37809107 0.19946635 0.23555765 -0.2856768
-0.38102 -0.17420861 0.46276563 -0.34106308 0.3148555 0.37828958 -0.49077642 -0.27559853
0.35481983 -0.3419634 0.35853735 0.2623615 -0.25368538 0.37947327 0.23578332 0.14818138
-0.34074342 -0.35607132 0.4361341 -0.39054897 0.35682178 -0.062542655 0.23042542 0.29664466
0.2791693 0.2794621 0.41119438 -0.45441267 0.33598232 0.28291142 -0.0750254 -0.039519604
0.41102487 0.13801154 -0.46032023 0.35469443 0.04001536 0.14533736 -0.4299423 0.4275209
0.43658537 -0.28274745 -0.40175536 -0.23813151 0.3907607 -0.0920192 0.48198208 -0.087301426
0.39861333 -0.3274023 -0.4189784 0.35484573 0.021294512 0.42591706 0.003651619 0.41620913
0.11119626 -0.14450222 -0.26726323 0.4446088 0.21015245 -0.14265591 -0.21356273 0.30701205

net.0.weight f4 [32, 8]
00000000: c461 353e da90 8a3d e542 0a3e 9b63 febd
00000010: c79f 563e e19e 7d3e b115 5bbc bc4b 203e
00000020: 1848 84be f26d a7be 027f 513e cbb9 863e
00000030: 7771 39be 8270 58be d653 1c3e 7912 d2ba
00000040: 4f6c 2bbe aa41 fdbd e412 c43d c728 ae3e
00000050: 36d3 863e d9e5 303e 9179 483d 703a 923e
00000060: 722e 7b3e 017b 2a3e 7c84 133e e3ac 8bbc
00000070: adf7 7cbe 228b a2be ab0a 53be fc14 933e
00000080: 0b88 143e da25 b63d 60e0 a73e 1aeb 9b3e
00000090: 5e02 8fbe 000e 17be c548 1bbe bfec 723e
000000a0: 897c f13d 5301 3f3e 2eb5 ae3e 6b62 6e3e
000000b0: 3b98 b6bd 7d46 0bbd 9562 aebe a60c 9c3e
000000c0: a8de afbe a41e ad3e 7275 19be 557d 93be
000000d0: e18f bc3d 46cb 2d3e c562 933e 0ef8 a4be
000000e0: d291 4e3d cc8c 79bc 0ef0 82be e59f 88be
000000f0: 5863 b43e 8b4d c13c 97fc 7bbe 5dd2 42be
00000100: e923 4fbd d21b 763e 8004 8dbe 2743 b43e
00000110: a3c7 26be c3bb 673e 41f2 81be 0dfc a13e
00000120: bd15 00be 41f8 9d3e dbc7 b1be 15ba 0cbe
00000130: d55a cd3d 8d9e 9fbd 4b04 713e 3734 8bbd
00000140: 025d 72be 0f8b 99be f59a 32bd da07 89ba
00000150: f71b a83e a961 6ebe 341b 3a3d e057 66bb
00000160: ab83 65be a383 85be e150 a0be 4d51 8abd
00000170: ed93 423e 5e9e d33d b011 b0be 4cfd 6cbe
00000180: 4ae4 793e 7ae0 b3bd 039b 9b3e ed22 75be
00000190: 6e97 89be 314c 1cbe 1ce5 913d b792 943e
000001a0: 9e77 01be f9b4 d2bc 1dcf ebbd bf82 7cbe
000001b0: edc8 743e fbc0 8f3e 9b4a 653e f8ec 63be
000001c0: f9be 623e a7da 183e 1d0e 2abe 821b f13d
000001d0: 361e 353d 319f 343e e929 9c3e af60 163e
000001e0: 303e aabe 4c4a ec3a 2d0f a83d 93de a33e
000001f0: 219a 5abe 49fb 27be e11d 37be a45d 16be
00000200: 3418 ab3c a8af ae3c 7416 db3d 6407 c7bd
00000210: 0509 f13d 3ec6 623e a721 463e 74da 333d
00000220: 38bc 97bd 1e3f 02be 4c5c a53e 035b 8cbe
00000230: 8b8c a33e e9e9 f13d 54a5 a03e e464 82be
00000240: 7f95 ee3c 932a 8c3d 6d2b 9fbd b7a0 973c
00000250: c1ba 3fbd eaf7 84be f8bf ccbd 611b a43e
00000260: 2513 653e 2681 9bbe bbe0 97be 0c9e abbc
00000270: 84f9 51be 204c 883e ed71 aa3e 0079 b83c
00000280: 683d f83d a263 d23c 2e0c 9f3e fd7c 0cbe
00000290: 0e5f a2be f882 1ebe bbe1 113e d322 053e
000002a0: 7af4 293e 05d1 98be 4a21 093d 842e 39be
000002b0: caee d53d dbfa 3e3e e159 2dbe d3d9 503e
000002c0: 425c 8a3e a2e9 13be c824 b33e a626 82bd
000002d0: dbc1 6ebe 18a3 d3bd 7577 13be 6b0b 0cbd
000002e0: c647 653e 0c79 fc3d 25b2 6fbd 5147 abbe
000002f0: f390 383e 5bca 793d 30fc 303e c917 3d3e
00000300: 163b aabe ed4a e0bd b347 c53d 8baf 9f3e
00000310: b4e6 a0bd d922 67bd fcfd 3ebe d008 9e3e
00000320: e122 613e 06e1 2f3c 5907 a03e b8c1 923e
00000330: f28d 0a3e 7ebc b03e d277 b4be 3733 103c
00000340: 658f 9ebe ca27 00be b7d2 9f3c d840 803e
00000350: 9ccd 96be 78e7 e1bd 5550 9fbe 4b26 2d3e
00000360: c267 a53e 9b93 a9bd de3b 963e 7eb4 6fbc
00000370: 27b6 663e 343a 8b3d f859 76be 1ee3 98be
00000380: 25c4 4c3e 6742 39be 2cf0 463d b0b5 21be
00000390: 544f 5d3e 474b b33e aed5 97be 3f5e 82bd
000003a0: c408 a9be 8838 4b3e 116d 5abe f0b2 3d3e
000003b0: 9b3a 7cbe 323d 9e3e fdb5 4cbe b239 713d
000003c0: c016 cdbc 919b 6d3d a013 adbe 12e1 1b3e
000003d0: 2870 4f3e 9498 8b3d 7abf 743d 251c 803e
000003e0: ad28 2ebc 4a5d 03be dce7 723e c80c 113e
000003f0: 74f0 e63c 9716 6cbe ffd9 b33d f9f0 583e
0.17713076 0.067659095 0.1350208 -0.12421342 0.20959388 0.24767639 -0.013371871 0.1565389
-0.25836253 -0.3270107 0.20458606 0.26313624 -0.1810969 -0.21136668 0.15266356 -0.0016027234
-0.16740535 -0.1236604 0.095739156 0.34015486 0.26333016 0.1727518 0.04894406 0.2856021
0.24529436 0.16648485 0.14406008 -0.017050212 -0.24703856 -0.31746775 -0.20609538 0.28726947
0.14505021 0.08893938 0.32788372 0.30452806 -0.27931494 -0.14751434 -0.15164478 0.23723124
0.11791331 0.18652849 0.34122604 0.23279731 -0.089157544 -0.03400277 -0.34059587 0.304784
-0.3434956 0.3381244 -0.14986208 -0.28806558 0.0920713 0.16972074 0.28786293 -0.322205
0.050432034 -0.0152313225 -0.25573772 -0.2668449 0.35232043 0.023596546 -0.24608074 -0.1902556
-0.050571356 0.2403405 -0.27542496 0.35207483 -0.16287093 0.22630219 -0.25380138 0.31637612
-0.12508292 0.30853465 -0.3472279 -0.1374286 0.100270905 -0.07793913 0.23536794 -0.067970686
-0.23668292 -0.29988906 -0.04360481 -0.001045461 0.32833835 -0.23279442 0.0454361 -0.0035147592
-0.22413509 -0.26076993 -0.31311706 -0.06753788 0.19001742 0.103329405 -0.34388494 -0.231435
0.24403492 -0.0878305 0.30391702 -0.23939104 -0.26873344 -0.1526344 0.07123777 0.29018185
-0.12643287 -0.02572106 -0.11514113 -0.2465925 0.23904772 0.2807692 0.22391741 -0.22258365
0.22143163 0.14927159 -0.16606946 0.11772825 0.044218265 0.17638852 0.30500725 0.1468532
-0.3325057 0.0018027513 0.082060196 0.32005748 -0.21347858 -0.16404451 -0.17882492 -0.14684159
0.020885564 0.021323994 0.10697642 -0.097182065 0.117692985 0.22145936 0.19348775 0.043909505
-0.07408947 -0.1271939 0.3229698 -0.27413186 0.31943163 0.11812193 0.31376135 -0.25467598
0.02912402 0.06844058 -0.07771955 0.018509252 -0.04680896 -0.25970393 -0.09997553 0.32052138
0.22370584 -0.3037197 -0.29663643 -0.020949386 -0.20505339 0.2662058 0.33290043 0.022518635
0.12121087 0.025682274 0.3106398 -0.13719554 -0.31713146 -0.15479648 0.14246266 0.13001566
0.16597167 -0.2984697 0.033479013 -0.1808415 0.10445936 0.18650381 -0.16928817 0.20395593
0.27023512 -0.14444593 0.34989 -0.06355028 -0.23316137 -0.10333842 -0.14401038 -0.034190577
0.2239066 0.12327775 -0.0585195 -0.33452848 0.18024044 0.060983997 0.17283702 0.18466105
-0.33248204 -0.10951791 0.09632816 0.31188616 -0.07856503 -0.056429718 -0.18651575 0.30866098
0.21985961 0.010734802 0.31255606 0.2866342 0.1353071 0.34518808 -0.35247666 0.008801273
-0.30968776 -0.12515178 0.019509656 0.25049472 -0.29453743 -0.11030477 -0.31115976 0.16909139
0.32305723 -0.08280107 0.2934255 -0.014630435 0.22530423 0.06798211 -0.24057758 -0.29860777
0.19996698 -0.18091737 0.04856889 -0.15791965 0.21612293 0.3501837 -0.29655212 -0.06365632
-0.330145 0.19845784 -0.21330668 0.1852529 -0.24631731 0.30906063 -0.19991298 0.058892913
-0.025035262 0.058009688 -0.33804035 0.15222576 0.20257628 0.06816211 0.05975292 0.25021473
-0.010629815 -0.12828556 0.2372126 0.14165032 0.028190829 -0.23055492 0.08781814 0.21185674

net.0.bias f4 [32]
00000000: 03f4 b23d eeab 343e 9ace 40be 8dac 60be
00000010: ce0e 243e 700b 333e b124 9b3e e3d5 813d
00000020: f75a 903d f558 25be eea8 9d3c 98ea e53c
00000030: ad2f 283e 7edd 793b 9eca 623c 9218 a53e
00000040: 9367 cd3c bbc3 5cbe 1c76 bdbd d733 583e
00000050: 80b3 9a3e e18c a3be 29bb 833d 5423 56bd
00000060: 8bf2 463b d03b 96be 8789 8b3e 2294 88be
00000070: c006 89bd fede e4bd 1b92 843e 4b9c 3ebe
0.08737948 0.17643711 -0.18828812 -0.21940823 0.16021273 0.17484832 0.3030143 0.06339624
0.070486 -0.16147216 0.019245591 0.028065965 0.16424437 0.0038126404 0.013842253 0.32245308
0.025073802 -0.2155904 -0.09251043 0.21113525 0.30215073 -0.3194342 0.06432182 -0.052279785
0.003035697 -0.29342508 0.27253363 -0.26675516 -0.066907406 -0.11175345 0.2589272 -0.18614309

net.2.weight f4 [1, 32]
00000000: ff9e 0f3e 0fdc 9f3c ca61 0a3c 9a32 8dbd
00000010: 9c9f 793d 5e72 85bd e9af 1e3d 86b3 b83a
00000020: 59a4 c23d 9a48 063e a1b0 bebd aff3 a53a
00000030: eb35 81bd 6d5e 2dbe 83b6 083d f2a7 a03d
00000040: 4296 8c3d 9f27 9dbc 1e38 e53d 7ba0 04be
00000050: a2c9 f93d df07 c53c e1fd f73d ec8f f73d
00000060: 1ba6 20be 5031 2cbe 861e dbbd c1b5 a73b
00000070: 0116 be3d 205d e239 62b5 ecbd 4458 073e
0.14025496 0.019514112 0.008446166 -0.06894417 0.06094323 -0.065159544 0.03874198 0.0014091588
0.09504003 0.13113633 -0.09311033 0.0012661124 -0.06309112 -0.16930552 0.03337718 0.07844533
0.06864597 -0.019183932 0.11192344 -0.12951843 0.121966615 0.024051605 0.121089704 0.12087998
-0.15688364 -0.16815686 -0.10699181 0.0051181023 0.09281541 0.00043175463 -0.115580335 0.13217264
