models/E.coli_limonene_supervised_checkpoint.pth (torch, 52782 bytes, 23 tensors)

conv1.att_src f4 [1, 1, 32]
0.39674714 -0.37727296 0.33476135 0.38062048 -0.41684332 -0.37940446 0.1760678 0.36086872
-0.03643328 -0.09148449 0.31266147 -0.1971366 0.33446068 0.2988066 0.2226717 0.081759855
-0.25919455 -0.09075435 -0.29017955 0.027008448 0.11873052 0.07461876 0.27161953 0.100650586
0.2646829 -0.20783144 0.41668895 -0.36130556 -0.021067878 0.26176986 -0.40729976 0.04986873
00000000: 7122 cb3e ec29 c1be d765 ab3e b0e0 c23e
00000010: 7d6c d5be 4d41 c2be 1e4b 343e c9c3 b83e
00000020: 103b 15bd 385c bbbd 2a15 a03e 2dde 49be
00000030: 6e3e ab3e 2efd 983e 0d04 643e b671 a73d
00000040: 26b5 84be 6bdd b9bd 6a92 94be d240 dd3c
00000050: fd28 f33d b8d1 983d b711 8b3e e521 ce3d
00000060: 8484 873e c4d1 54be 4158 d53e 0bfd b8be
00000070: 8b96 acbc b306 863e 9889 d0be 2743 4c3d

conv1.att_dst f4 [1, 1, 32]
-0.23412775 0.012344108 0.2427522 0.35422078 -0.1743884 -0.014549158 -0.085398436 -0.23529528
-0.0023393957 -0.39308262 -0.11079981 -0.30946326 0.39471465 -0.030639105 -0.24176063 -0.06268491
-0.12399981 0.36577442 -0.13929482 0.33797246 0.03034098 -0.2903259 0.19188127 -0.06975275
-0.32721666 0.23181152 -0.041865084 -0.036601327 -0.3699024 0.29442394 0.07397219 0.10836765
00000000: 2fbf 6fbe f13e 4a3c 0894 783e 6d5c b53e
00000010: df92 32be 975f 6ebc 60e5 aebd 3ff1 70be
00000020: 8c50 19bb 2042 c9be 03eb e2bd f871 9ebe
00000030: 0a18 ca3e dcfe fabc 1990 77be f260 80bd
00000040: 9df3 fdbd c946 bb3e 4da3 0ebe ba0a ad3e
00000050: a68d f83c 99a5 94be 867c 443e 88da 8ebd
00000060: f188 a7be 0060 6d3e b97a 2bbd 46eb 15bd
00000070: d963 bdbe bcbe 963e bb7e 973d dcef dd3d

conv1.bias f4 [32]
0.0 0.0 0.0 0.0 0.0 0.0 0.0 0.0
0.0 0.0 0.0 0.0 0.0 0.0 0.0 0.0
0.0 0.0 0.0 0.0 0.0 0.0 0.0 0.0
0.0 0.0 0.0 0.0 0.0 0.0 0.0 0.0
00000000: 0000 0000 0000 0000 0000 0000 0000 0000
00000010: 0000 0000 0000 0000 0000 0000 0000 0000
00000020: 0000 0000 0000 0000 0000 0000 0000 0000
00000030: 0000 0000 0000 0000 0000 0000 0000 0000
00000040: 0000 0000 0000 0000 0000 0000 0000 0000
00000050: 0000 0000 0000 0000 0000 0000 0000 0000
00000060: 0000 0000 0000 0000 0000 0000 0000 0000
00000070: 0000 0000 0000 0000 0000 0000 0000 0000

conv1.lin.weight f4 [32, 3]
-0.11027791 -0.11108125 0.030932538 0.38401124 0.2958264 0.39011303 -0.06141854 0.35546917
-0.33834928 -0.3424256 0.023146074 0.22991921 -0.29124737 0.24349563 0.12388657 -0.2668467
-0.30809283 -0.2833052 0.15343893 0.28739548 -0.22974883 -0.34010413 0.04757899 -0.24445835
-0.38833147 -0.046930682 0.07096287 -0.2535429 -0.18403742 -0.04134279 0.054920252 -0.09836873
-0.11656317 -0.2029516 -0.21137092 0.22886893 -0.24329609 -0.07005282 0.3715867 -0.2997401
-0.23034012 0.29123804 0.09621695 -0.123014815 0.18473133 0.2387667 0.28320485 -0.34513474
0.3146622 0.35330525 0.05642131 -0.37779725 -0.3196682 0.18636106 -0.115287535 -0.14705332
-0.1600457 -0.08102609 0.36388567 0.3623096 -0.14355482 0.12224835 -0.14452928 -0.095127285
-0.056147624 -0.08434246 0.14795321 0.19277702 -0.046782464 0.28891283 -0.26201153 -0.1805138
0.39287886 0.06401528 -0.08333315 0.054578897 0.26465923 -0.06445184 0.1540128 -0.1409037
-0.37800404 -0.06797626 0.38557324 0.051659018 0.015103789 -0.3375451 0.33373788 0.362551
-0.15407929 0.08385826 -0.006239113 -0.011998867 -0.16506658 0.26018587 0.13759962 0.086222626
00000000: 63d9 e1bd 917e e3bd 3c66 fd3c 1f9d c43e
00000010: 8f76 973e e5bc c73e 0292 7bbd 0e00 b63e
00000020: 1e3c adbe 6952 afbe d69c bd3c f16f 6b3e
00000030: 601e 95be eb56 793e 3eb8 fd3d 21a0 88be
00000040: 58be 9dbe 610d 91be 181f 1d3e 8025 933e
00000050: 4743 6bbe 2122 aebe 30e2 423d 4a53 7abe
00000060: 62d3 c6be 633a 40bd fb54 913d 60d0 81be
00000070: 4e74 3cbe 0f57 29bd 0ff4 603d 8b75 c9bd
00000080: acb8 eebd 8bd2 4fbe 9e71 58be 9e5c 6a3e
00000090: 9c22 79be da77 8fbd 9d40 be3e 8977 99be
000000a0: 48de 6bbe 271d 953e 640d c53d 31ef fbbd
000000b0: 362a 3d3e 427f 743e 3a00 913e 80b5 b0be
000000c0: 671b a13e 6de4 b43e 081a 673d a46e c1be
000000d0: 8dab a3be 6fd5 3e3e df1b ecbd 2595 16be
000000e0: 05e3 23be 02f1 a5bd 394f ba3e a580 b93e
000000f0: 0900 13be 585d fa3d 7cff 13be 18d2 c2bd
00000100: 0dfb 65bd bdbb acbd 0c81 173e 5767 453e
00000110: f89e 3fbd 62ec 933e 6026 86be 9cd8 38be
00000120: 6b27 c93e 711a 833d 92aa aabd 1f8e 5f3d
00000130: 6a81 873e 54ff 83bd 88b5 1d3e 0f49 10be
00000140: bf89 c1be 2337 8bbd db69 c53e 6898 533d
00000150: e275 773c b6d2 acbe b1df aa3e 49a0 b93e
00000160: f6c6 1dbe e1bd ab3d 7971 ccbb e596 44bc
00000170: 3707 29be 1537 853e eae6 0c3e 7d95 b03d

conv2.att_src f4 [1, 1, 16]
0.08161482 0.44900095 0.018379787 0.21305759 0.138664 -0.039781857 -0.55237305 0.37771314
-0.2750759 -0.06353702 -0.06863824 0.38574892 0.37572125 0.45261374 -0.13776848 0.2085104
00000000: ac25 a73d 74e3 e53e 3591 963c c52b 5a3e
00000010: f0fd 0d3e 4df2 22bd 5268 0dbf 9e63 c13e
00000020: c0d6 8cbe b21f 82bd 3592 8cbd e280 c53e
00000030: 895e c03e fdbc e73e 2e13 0dbe c083 553e

conv2.att_dst f4 [1, 1, 16]
0.02328123 -0.22400656 -0.42098823 0.012237422 0.21456274 -0.586341 -0.300823 -0.03670667
-0.3246157 -0.38928536 -0.3253907 0.34333754 0.2730748 0.23753506 0.4821177 0.075331315
00000000: 47b8 be3c fa61 65be c58b d7be 787f 483c
00000010: 56b6 5b3e 721a 16bf 7905 9abe bc59 16bd
00000020: 0734 a6be 6950 c7be 9c99 a6be f0c9 af3e
00000030: 76d0 8b3e 643c 733e 22d8 f63e 4e47 9a3d

conv2.bias f4 [16]
0.0 0.0 0.0 0.0 0.0 0.0 0.0 0.0
0.0 0.0 0.0 0.0 0.0 0.0 0.0 0.0
00000000: 0000 0000 0000 0000 0000 0000 0000 0000
00000010: 0000 0000 0000 0000 0000 0000 0000 0000
00000020: 0000 0000 0000 0000 0000 0000 0000 0000
00000030: 0000 0000 0000 0000 0000 0000 0000 0000

conv2.lin.weight f4 [16, 32]
-0.020804401 0.16935846 0.30269697 0.2857771 -0.11380745 -0.2923001 0.0895851 -0.080318615
-0.2526433 -0.094636194 0.19133696 0.086945705 -0.18094131 0.019338997 0.049220394 -0.30570057
-0.29418564 -0.2926273 -0.0069343788 -0.036633197 -0.14974754 0.19065088 -0.13369562 -0.21402965
-0.15083346 0.013408893 0.33115524 -0.24856664 -0.0061247377 -0.2439691 -0.15239242 0.35035276
0.10027338 0.1218148 -0.3156 0.2734055 -0.25756747 -0.07348994 0.3510556 -0.1306248
-0.34162983 0.15762188 -0.16984248 -0.20295225 -0.23804873 0.05512045 -0.2349782 0.32339787
0.309035 0.027232258 -0.28233123 0.05513149 -0.25566286 0.018014785 0.060540535 -0.18591051
-0.10637771 -0.32747978 0.13425705 -0.10279865 -0.13403448 0.06501265 0.21704438 -0.2523829
-0.14467251 -0.06385534 -0.14093067 0.28728652 0.2836795 0.22892852 0.16264102 0.2808639
-0.31324297 -0.13955985 -0.0474316 0.20528798 0.18569337 -0.13346511 -0.06175141 0.288477
0.27583638 0.2829515 0.23674664 0.12613317 0.2178114 -0.15438749 -0.13841492 0.19127424
-0.02146126 0.14068732 0.1040132 0.08782353 -0.3139167 0.013453822 -0.07982444 -0.14201173
0.1427652 -0.3464136 -0.0053112195 0.012230257 -0.11243839 0.09087767 -0.31764966 0.061171133
0.31405354 -0.05896635 -0.16794933 0.19331916 -0.30626845 0.18760747 0.17566161 -0.32423654
-0.23131534 -0.061131854 0.25080562 -0.30467236 0.0357938 -0.038150653 -0.18814889 -0.22105967
0.22929673 -0.13686956 -0.059017893 0.25877786 0.3221071 0.05203083 -0.28629887 0.32747072
0.09934235 0.19225626 -0.25202695 0.17412464 -0.10043425 0.062203098 -0.20496024 -0.18616971
0.19244672 -0.0138051575 0.2828606 0.29664358 0.34773064 -0.21263283 -0.3230157 -0.17365703
0.34422767 0.044097066 0.18076779 -0.12855202 0.067151055 0.3027512 -0.069407135 0.34546587
0.24506752 0.17480552 -0.20323749 0.04106734 -0.294044 -0.10497616 0.02114166 0.30321774
-0.14840035 -0.033721358 0.24587384 0.093493424 -0.19631095 0.2518237 0.02156827 0.17732477
-0.22667202 -0.33008462 -0.12868334 0.16594677 0.24787316 -0.24414514 0.17999874 0.1818016
0.014506565 0.2248031 -0.094645254 -0.2104747 -0.025218818 0.33500874 0.2556568 0.035886355
-0.15953678 -0.10547771 0.05075846 0.1564043 0.027684452 -0.1538878 0.14554204 -0.3393677
-0.1564684 -0.10853336 0.062631905 -0.21344909 -0.0041870787 -0.06914371 -0.2601031 0.05641187
0.24003607 0.04973307 -0.30756935 -0.31878817 -0.17680189 -0.038897198 -0.16017462 -0.13134463
-0.08400883 0.35248122 -0.2455553 0.22800943 0.25015154 -0.17317124 0.14429176 0.090185866
-0.20542336 0.27856073 0.30105945 0.020509668 0.26080313 0.10329611 0.34418494 -0.22791919
-0.07313713 0.19319332 -0.045628514 -0.073316 -0.3459863 -0.109213695 -0.18764392 0.18258832
0.23045719 -0.105429456 -0.3362113 -0.13823166 0.09805359 0.15391688 0.13713847 0.23999405
0.3177467 -0.2691958 0.35223827 -0.21372578 -0.25471577 -0.031193176 0.07959247 -0.1032315
-0.027890256 0.22856316 0.1398172 0.14796402 0.24536647 0.2480546 -0.006172448 -0.07454062
00000000: fe6d aabc 4e6c 2d3e 19fb 9a3e 6051 923e
00000010: e113 e9bd 5ca8 95be 6578 b73d 167e a4bd
00000020: 765a 81be 9fd0 c1bd d6ed 433e 9710 b23d
00000030: ae48 39be d16c 9e3c 539b 493d c984 9cbe
00000040: 809f 96be 3fd3 95be c939 e3bb b10c 16bd
00000050: 6b57 19be fc39 433e 81e7 08be 972a 5bbe
00000060: 1674 1abe f9b0 5b3c 2e8d a93e 4188 7ebe
00000070: 06b2 c8bb 09d3 79be c20c 1cbe 7061 b33e
00000080: 215c cd3d 0a7a f93d 5396 a1be cefb 8b3e
00000090: e2df 83be e581 96bd 8fbd b33e 82c2 05be
000000a0: 1bea aebe a167 213e 30eb 2dbe b7d2 4fbe
000000b0: 0cc3 73be fbc5 613d 209e 70be 6894 a53e
000000c0: d639 9e3e 2f16 df3c b88d 90be 8fd1 613d
000000d0: 3ee6 82be be93 933c 5af9 773d 535f 3ebe
000000e0: 8fdc d9bd 6eab a7be ae7a 093e 1988 d2bd
000000f0: 5640 09be 5a25 853d e240 5e3e 5538 81be
00000100: 0825 14be 97c6 82bd 2150 10be 3817 933e
00000110: 703e 913e 3d6c 6a3e 5e8b 263e 65cd 8f3e
00000120: 6261 a0be c7e8 0ebe a347 42bd 0337 523e
00000130: 6726 3e3e 14ab 08be 0cef 7cbd 42b3 933e
00000140: 6d3a 8d3e 05df 903e b66d 723e 0e29 013e
00000150: f409 5f3e c117 1ebe a4bc 0dbe 65dd 433e
00000160: 86cf afbc 5610 103e df04 d53d d3dc b33d
00000170: b1b9 a0be 6b6d 5c3c ff7a a3bd 866b 11be
00000180: 0a31 123e 205d b1be bd09 aebb 6a61 483c
00000190: 1946 e6bd 121e ba3d faa2 a2be 958e 7a3d
000001a0: a0cb a03e b386 71bd e9fa 2bbe 75f5 453e
000001b0: 38cf 9cbe 2c1c 403e a3e0 333e 5502 a6be
000001c0: eedd 6cbe 6565 7abd 9869 803e 04fe 9bbe
000001d0: 859c 123d dc43 1cbd 1aaa 40be 775d 62be
000001e0: c3cc 6a3e 8927 0cbe bfbc 71bd 887e 843e
000001f0: 39eb a43e 481e 553d c495 92be 3eaa a73e
00000200: 0174 cb3d d3de 443e ad09 81be bb4d 323e
00000210: 79b0 cdbd adc8 7e3d 19e1 51be 46a3 3ebe
00000220: c110 453e 072f 62bc 1bd3 903e abe1 973e
00000230: c009 b23e 6cbc 59be 5062 a5be 26d3 31be
00000240: 9c3e b03e 209f 343d 311b 393e 24a3 03be
00000250: 7e86 893d 3502 9b3e 5425 8ebd e7e0 b03e
00000260: fbf2 7a3e 3800 333e 7d1d 50be 3a36 283d
00000270: ef8c 96be befd d6bd 4631 ad3c 5b3f 9b3e
00000280: 43f6 17be 681f 0abd 5ac6 7b3e 7b79 bf3d
00000290: bd05 49be 09ef 803e f1af b03c a094 353e
000002a0: b61c 68be da00 a9be 91c5 03be f3ed 293e
000002b0: 76d2 7d3e 2f01 7abe 9751 383e 332a 3a3e
000002c0: f2ac 6d3c c932 663e 5fd5 c1bd ae86 57be
000002d0: b297 cebc 4486 ab3e 73e5 823e 92fd 123d
000002e0: 9c5d 23be b304 d8bd 1ae8 4f3d 7328 203e
000002f0: 81ca e23c c394 1dbe f908 153e 9ac1 adbe
00000300: 4139 20be bd46 debd 2845 803d 6692 5abe
00000310: c333 89bb 389b 8dbd 3c2c 85be 2210 673d
00000320: 04cc 753e e7b4 4b3d bb79 9dbe 3438 a3be
00000330: 8e0b 35be ab52 1fbd d104 24be 357f 06be
00000340: d20c acbd 6b78 b43e d972 7bbe 4e7b 693e
00000350: dd13 803e cd53 31be 38c1 133e 5eb3 b83d
00000360: 805a 52be 839f 8e3e 7724 9a3e e403 a83c
00000370: fd87 853e e98c d33d 0239 b03e a663 69be
00000380: ebc8 95bd 78d4 453e f7e4 3abd b326 96bd
00000390: 1e25 b1be 6eab dfbd ba25 40be 6ff8 3a3e
000003a0: f8fc 6b3e 66eb d7bd e323 acbe 9a8c 0dbe
000003b0: 52d0 c83d 639c 1d3e 076e 0c3e 00c1 753e
000003c0: b2af a23e 08d4 89be 9358 b43e eeda 5abe
000003d0: 1b6a 82be d588 ffbc 6001 a33d 096b d3bd
000003e0: 1b7a e4bc 760c 6a3e 3d2c 0f3e e183 173e
000003f0: 5941 7b3e 0602 7e3e 3f42 cabb c1a8 98bd

fc1.weight f4 [64, 16]
0.04976499 -0.098972976 -0.08528343 -0.15751922 -0.08160961 -0.04754284 0.19724393 0.2091111
0.10479009 -0.19674289 -0.15907606 -0.020670146 -0.22511289 0.03861162 -0.012175649 0.11320582
-0.22118688 0.19748417 -0.14143717 -0.07802788 0.13208075 0.20197861 0.21518286 -0.24472025
0.077451155 0.21019846 0.04983954 0.16191557 0.24284998 0.21404774 0.17346016 -0.01997355
-0.051956955 -0.018684246 0.116810516 -0.23996478 -0.038658757 -0.20860453 -0.23925644 0.14171167
-0.13185075 -0.083026476 0.2185343 0.07715489 -0.08018938 0.19621399 0.09237052 0.21280515
0.23903197 -0.1811463 -0.13848153 -0.16684073 0.09459332 -0.06054151 0.09789273 0.028064638
0.06933427 -0.24848086 0.045375735 -0.19059128 -0.19895074 0.13058063 0.079719305 0.18434069
0.21249449 0.08149713 -0.028151631 0.17649725 0.07103565 -0.087025136 0.19985852 -0.03346929
-0.031215668 0.19604501 -0.009530842 0.080228865 0.04534319 -0.14524198 0.22993061 -0.11985615
-0.1766797 -0.16356747 0.1573959 -0.06971388 0.019405229 -0.05883195 -0.12283378 0.07940734
0.23419942 -0.21338853 -0.14438228 0.022013087 0.14267516 0.045348767 -0.10459352 0.13958542
0.11256108 0.01500389 -0.18189922 -0.048309654 0.1631268 -0.21633562 0.24997577 0.026179224
-0.19693753 0.09913027 0.11809507 0.07957795 -0.12431756 -0.10874167 -0.06136185 0.17696175
0.0014408729 0.008913083 0.26534033 0.04982894 -0.07799384 -0.19781993 -0.09693282 -0.187881
0.05245604 0.23605072 -0.26394042 0.0024390907 0.016264902 -0.19881521 -0.02631525 -0.012012868
0.046882637 -0.20781031 -0.1890007 -0.1218859 0.16045964 0.025542865 -0.16876267 0.17483321
0.19557612 0.1912221 -0.020432267 0.15301389 0.16795439 0.049015008 -0.19291046 -0.04277606
-0.1273807 -0.15295136 -0.039294146 0.14948045 0.15545192 0.09915824 0.0988957 0.031929746
0.25375023 0.19600397 -0.03270628 0.19019794 0.19661005 0.04838364 0.04997787 -0.15334982
-0.12516356 0.03656733 -0.15635753 0.066871256 0.018694252 -0.16505936 0.055447996 -0.088559896
0.0710035 -0.027892202 -0.03796506 0.13298348 0.21919754 0.0311158 -0.04535055 -0.11432174
0.13584557 0.22572035 -0.0018897355 0.009439051 -0.0904147 -0.040776968 0.2130951 0.12851253
0.21190819 0.15041286 -0.019993007 0.024122328 -0.095603764 -0.17037967 0.10035968 0.22352347
0.23884574 0.17057876 -0.11066057 0.012871349 -0.036542233 -0.05161674 0.1557567 0.15831256
0.14109716 0.18993418 0.06534022 -0.14727877 -0.20396894 0.16348812 0.015061769 -0.20549054
0.031634215 -0.18178739 -0.13136424 0.120311536 -0.08470515 -0.23235725 0.17655365 0.17816436
0.11707642 -0.19043557 0.034666292 -0.13057657 0.09016768 -0.27367744 -0.00081049674 -0.15575412
-0.20566314 -0.036126703 0.20089984 0.016464323 -0.14945012 0.074509144 0.23461103 0.086977035
-0.23438007 0.1456646 -0.1827839 0.125171 0.15657789 0.01825586 0.22556621 0.22727498
0.12581421 -0.20620866 0.021940138 -0.14029063 -0.025720362 -0.0705766 -0.2042632 0.15611885
-0.1378089 0.019442033 -0.037970666 0.19884674 -0.19366892 -0.034373645 -0.17713654 -0.088130824
00000000: 60d6 4b3d 58b2 cabd 14a9 aebd b84c 21be
00000010: f022 a7bd 48bc 42bd 50fa 493e 3821 563e
00000020: 309c d63d f876 49be d6e4 22be 7054 a9bc
00000030: fe83 66be 3827 1e3d 607c 47bc 74d8 e73d
00000040: d07e 62be 4a39 4a3e e8d4 10be 15cd 9fbd
00000050: 2d40 073e 7bd3 4e3e e558 5c3e f297 7abe
00000060: b69e 9e3d 443e 573e 8c24 4c3d 32cd 253e
00000070: aaad 783e 552f 5b3e 8a9f 313e 929f a3bc
00000080: d1d0 54bd b40f 99bc 5a3a ef3d 54b9 75be
00000090: a558 1ebd 6d9c 55be a4ff 74be dd1c 113e
000000a0: e203 07be c909 aabd 75c7 5f3e 6203 9e3d
000000b0: 543a a4bd 52ec 483e c12c bd3d 98e9 593e
000000c0: ccc4 743e 6a7e 39be 1ace 0dbe 4cd8 2abe
000000d0: 24ba c13d 60fa 77bd fc7b c83d d0e7 e53c
000000e0: 20ff 8d3d c471 7ebe e8db 393d 5c2a 43be
000000f0: beb9 4bbe eeb6 053e e043 a33d cec3 3c3e
00000100: 2898 593e f8e7 a63d 409e e6bc b2bb 343e
00000110: 247b 913d 3c3a b2bd b6a7 4c3e 1817 09bd
00000120: 00b8 ffbc 06c0 483e 4027 1cbc 084f a43d
00000130: c8b9 393d 50ba 14be ee72 6b3e 2477 f5bd
00000140: 86eb 34be 3b7e 27be 642c 213e 27c6 8ebd
00000150: b7f7 9e3c c5f9 70bd 4790 fbbd 51a0 a23d
00000160: f9d1 6f3e 8682 5abe f3d8 13be ca54 b43c
00000170: 7019 123e a1bf 393d 2135 d6bd 7bef 0e3e
00000180: 6c86 e63d e0d2 753c ca43 3abe 58e0 45bd
00000190: b60a 273e 1687 5dbe a6f9 7f3e d075 d63c
000001a0: fea9 49be d004 cb3d d4db f13d c4f9 a23d
000001b0: 349a febd f4b3 debd 9056 7bbd 7635 353e
000001c0: acdb bc3a 2e08 123c b0da 873e 6e19 4c3d
000001d0: 3cbb 9fbd 4f91 4abe b784 c6bd e063 40be
000001e0: 25dc 563d 48b7 713e 3323 87be 27d9 1f3b
000001f0: f93d 853c 3796 4bbe 1493 d7bc 9fd1 44bc
00000200: 0208 403d 3acc 54be 6689 41be 519f f9bd
00000210: 884f 243e 453f d13c 1fd0 2cbe 7a07 333e
00000220: 1b45 483e bacf 433e 9261 a7bc acaf 1c3e
00000230: 3cfc 2b3e f6c3 483d 528a 45be f335 2fbd
00000240: 1670 02be 489f 1cbe e6f2 20bd 6711 193e
00000250: ca2e 1f3e 7a13 cb3d d489 ca3d c4c8 023d
00000260: 8deb 813e 44b5 483e 05f7 05bd 40c3 423e
00000270: 2554 493e ec2d 463d 98b5 4c3d bc07 1dbe
00000280: e02a 00be a0c7 153d 301c 20be ccf3 883d
00000290: b024 993c 5205 29be 701d 633d e45e b5bd
000002a0: 486a 913d 307e e4bc 4081 1bbd d22c 083e
000002b0: 5275 603e 90e6 fe3c 80c1 39bd 8421 eabd
000002c0: 1a1b 0b3e 3c23 673e 00b1 f7ba 40a6 1a3c
000002d0: 582b b9bd c005 27bd 9a35 5a3e ca98 033e
000002e0: 76fe 583e d405 1a3e 60c8 a3bc 309c c53c
000002f0: e8cb c3bd 0278 2ebe 6089 cd3d 56e3 643e
00000300: fa93 743e 33ac 2e3e 02a2 e2bd 5ae2 523c
00000310: 4fad 15bd 136c 53bd af7e 1f3e b01c 223e
00000320: c67b 103e 1b7e 423e 18d1 853d 3fd0 16be
00000330: 3cdd 50be 6e69 273e a3c5 763c 1d6c 52be
00000340: e192 013d 7926 3abe 5984 06be e565 f63d
00000350: e579 adbd 0fef 6dbe 7bca 343e b870 363e
00000360: c3c5 ef3d 8b01 43be 3efe 0d3d ddb5 05be
00000370: d5a9 b83d 731f 8cbe 8477 54ba 027e 1fbe
00000380: 5c99 52be 98f9 13bd b0b8 4d3e 30e0 863c
00000390: 7409 19be 4098 983d e03d 703e 0421 b23d
000003a0: 5401 70be 1a29 153e b42b 3bbe d42c 003e
000003b0: f455 203e 508d 953c d4fa 663e c6ba 683e
000003c0: 71d5 003e 5d28 53be cebb b33c 59a8 0fbe
000003d0: 82b3 d2bc 778a 90bd 5f2a 51be 9fdd 1f3e
000003e0: c71d 0dbe e644 9f3c 2187 1bbd 7b9e 4b3e
000003f0: 2551 46be 61cb 0cbd 4863 35be ef7d b4bd

fc1.bias f4 [64]
-0.20303825 0.2519032 0.23429067 -0.1752013 0.032197207 0.09839262 -0.1916919 0.03909345
0.0076098028 0.2541714 -0.077916 -0.18938532 0.19535835 0.17502576 -0.093851626 -0.093679085
0.14606532 -0.11037874 -0.13190898 -0.23730767 0.11143826 -0.13808386 -0.13984147 0.013351364
0.06511266 -0.08516428 -0.18415949 -0.23457497 -0.1935651 -0.049638867 -0.0914298 -0.204629
-0.077943206 0.0081428 -0.1219145 -0.112395465 -0.1626564 -0.20608076 0.13906515 0.15773539
0.04043908 -0.12595019 0.17374292 0.18899602 0.18037492 0.18227439 -0.12067485 -0.05124182
0.04870556 -0.14144501 0.11435331 -0.019714247 -0.043945134 2.2172928e-05 0.25615177 -0.14769088
0.07752111 0.22666627 0.021599384 -0.13583225 -0.15191823 -0.020457342 -0.12374541 0.01807379
00000000: 42e9 4fbe 75f9 803e e5e9 6f3e f867 33be
00000010: 38e1 033d 1282 c93d e24a 44be 7420 203d
00000020: a75b f93b c122 823e 6c92 9fbd 3aee 41be
00000030: 050c 483e f439 333e 4835 c0bd d2da bfbd
00000040: 2692 153e 400e e2bd 2613 07be c800 73be
00000050: be39 e43d db65 0dbe 9a32 0fbe aebf 5a3c
00000060: c959 853d 9c6a aebd 4e94 3cbe 6c34 70be
00000070: ee35 46be 2052 4bbd 8c3f bbbd 448a 51be
00000080: b0a0 9fbd 6169 053c 4fae f9bd 982f e6bd
00000090: 668f 26be d606 53be 1867 0e3e 6385 213e
000000a0: 73a3 253d 16f9 00be aae9 313e 2c88 413e
000000b0: 34b4 383e 23a6 3a3e 6024 f7bd f1e2 51bd
000000c0: 7b7f 473d f6d6 10be 1132 ea3d c67f a1bc
000000d0: d0ff 33bd 0000 ba37 5326 833e 473c 17be
000000e0: 63c3 9e3d 341b 683e 31f1 b03c 9c17 0bbe
000000f0: 7490 1bbe 2896 a7bc 3c6e fdbd 7c0f 943c

fc2.weight f4 [32, 64]
0.09007333 -0.12309763 0.08812019 0.049714595 0.08800952 0.019886777 0.08564609 0.08201146
0.080454364 0.010115862 0.12402809 -0.10178892 0.023554161 0.035861626 -0.0016608685 -0.08631775
-0.100692764 0.1228697 0.10099827 0.112595215 -0.05173631 -0.08631468 0.12287404 -0.118425086
-0.12341753 0.11792025 0.04137136 -0.08436863 0.0065542758 0.03060034 0.05813119 -0.110342175
0.015101865 -0.00053979456 0.011215135 0.11715369 0.04580614 -0.1194949 0.039818823 0.07778476
0.12111199 -0.095374644 -0.051450416 -0.123500556 -0.046481594 0.022947371 0.0441024 0.0570869
0.07583742 -0.076161906 -0.08800618 0.102961645 -0.00061000884 0.1150327 0.10926831 0.014372051
-0.06439856 0.081655025 0.10970762 0.08260085 -0.03911546 0.05514033 -0.094044715 0.0028464347
0.0152888745 0.00012888375 0.022095922 0.035858735 0.047762662 -0.052407056 0.09932795 -0.058808215
-0.05682918 -0.07304306 0.08616963 -0.078042254 0.013630418 0.10444209 0.050007418 -0.065450944
-0.0006649939 -0.016246542 -0.021193072 -0.037596494 0.09656329 -0.03399285 0.109604016 0.05228636
-0.0018514094 -0.052052274 0.025347352 -0.0043706596 0.034234613 -0.043112636 0.111206934 -0.0071018487
0.01125422 -0.05692306 -0.106465265 -0.022118375 -0.024160877 -0.10469574 0.034979217 -0.03146363
-0.11269004 0.11301513 -0.09515353 0.086397536 0.09048577 -0.057146598 -0.08267665 0.014067633
-0.0103012575 0.07022925 0.037223376 0.021424204 0.07411848 0.07485588 -0.04543485 0.03714068
0.08713293 -0.13572854 -0.024427315 -0.016217366 0.06881544 0.04952021 -0.029609919 0.10279259
-0.06502594 0.13372897 -0.09152712 0.039651513 0.046034113 0.020086866 0.10295394 0.06398298
-0.023035722 0.008536431 0.12067063 -0.055958197 0.089119576 0.15154772 0.012704298 -0.0528419
-0.035170656 -0.043064147 0.07479283 0.10312702 0.04824638 0.009346946 0.02038461 0.044981968
0.1373072 -0.047280252 -0.07507348 -0.0017499477 0.026328534 0.08176501 0.12130597 -0.034812436
0.13647366 -0.04646804 0.04783389 -0.03334917 -0.026918292 0.00089237094 -0.0005783108 -0.05757129
0.077956975 0.042537138 0.060749635 -0.016118094 0.09869404 0.088989876 0.09662621 -0.020383285
0.011977711 -0.096280545 0.1432129 -0.08285818 -0.0026264638 -0.09265542 -0.09900038 0.081303336
0.116022274 0.051368885 -0.056880753 0.122415856 -0.013839871 0.04272779 0.11977558 -0.078709446
0.008238465 0.09220011 0.012756048 -0.05461006 0.117036626 0.07816 -0.07241048 0.08930864
-0.0679163 -0.007153068 0.07057157 0.10719219 0.06070746 -0.083888486 -0.11892682 0.04899638
-0.1044917 -0.11698048 -0.0074729472 -0.023230404 0.13217215 -0.120585464 0.091905504 -0.1133359
0.10713973 0.107017785 -0.0607457 0.0136104375 0.11923571 -0.12312503 -0.07273598 0.055697396
-0.042567708 0.02551516 -0.025864983 -0.08103888 0.1168568 -0.0001437366 0.049986348 0.024443012
-0.009230478 -0.06925978 0.043546945 0.101852715 -0.048868053 -0.039642997 -0.019761577 0.065195024
-0.09185346 0.029458418 0.106649555 -0.002348865 -0.0004964769 0.0019948632 0.022129847 -0.016370943
0.091006465 0.058209326 0.13093434 -0.0111436695 -0.0047290176 0.06213449 0.1221952 -0.0434964
00000000: 5e78 b83d 9c1a fcbd 5c78 b43d 88a1 4b3d
00000010: 563e b43d 98e9 a23c 3867 af3d a0f5 a73d
00000020: 42c5 a43d 00bd 253c 7002 fe3d b676 d0bd
00000030: a8f4 c03c a4e3 123d 80b1 d9ba 5cc7 b0bd
00000040: 0238 cebd 1ca3 fb3d 2ed8 ce3d 5298 e63d
00000050: 74e9 53bd c0c5 b0bd 62a5 fb3d da88 f2bd
00000060: 54c2 fcbd 2c80 f13d 0475 293d 76c9 acbd
00000070: 40c5 d63b 90ad fa3c f81a 6e3d 14fb e1bd
00000080: d06d 773c 0081 0dba b0bf 373c 46ee ef3d
00000090: 389f 3b3d beb9 f4bd 1019 233d 9e4d 9f3d
000000a0: 9009 f83d c853 c3bd acbd 52bd dced fcbd
000000b0: 7c63 3ebd 20fc bb3c b8a4 343d f4d3 693d
000000c0: a650 9b3d c6fa 9bbd 963c b4bd 8edd d23d
000000d0: 00e9 1fba 4496 eb3d 10c8 df3d c078 6b3c
000000e0: 64e3 83bd c03a a73d 64ae e03d a22a a93d
000000f0: 8837 20bd d4da 613d 849a c0bd 408b 3a3b
00000100: 307e 7a3c f824 0739 8202 b53c 9ce0 123d
00000110: c8a2 433d c8a8 56bd 746c cb3d e2e0 70bd
00000120: b7c5 68bd 9a97 95bd b479 b03d 9ed4 9fbd
00000130: 1e52 5f3c bce5 d53d 94d4 4c3d 250b 86bd
00000140: fc52 2eba 7817 85bc 189d adbc c8fe 19bd
00000150: f9c2 c53d 163c 0bbd 1278 e03d 392a 563d
00000160: feaa f2ba c434 55bd 40a5 cf3c c037 8fbb
00000170: 9839 0c3d e096 30bd 76c0 e33d a0b6 e8bb
00000180: 9f63 383c 2828 69bd 760a dabd 9831 b5bc
00000190: 08ed c5bc b86a d6bd 5e46 0f3d 02e0 00bd
000001a0: 09ca e6bd 7a74 e73d dbdf c2bd 31f1 b03d
000001b0: 9a50 b93d 8d12 6abd 6052 a9bd ee7b 663c
000001c0: 9bc6 28bc 5ad4 8f3d 8a77 183d d081 af3c
000001d0: 6ecb 973d 0a4e 993d e519 3abd d320 183d
000001e0: c072 b23d 6cfc 0abe cb1b c8bc 48da 84bc
000001f0: 1cef 8c3d b4d5 4a3d 8090 f2bc ec84 d23d
00000200: 522c 85bd 3ff0 083e 9272 bbbd a069 223d
00000210: 448e 3c3d 368d a43c 84d9 d23d 8209 833d
00000220: 69b5 bcbc 63dc 0b3c 2a22 f73d 6c34 65bd
00000230: 5384 b63d 532f 1b3e b025 503c c070 58bd
00000240: 1b0f 10bd 0864 30bd fc2c 993d 4234 d33d
00000250: ff9d 453d ef23 193c a0fd a63c 033f 383d
00000260: 429a 0c3e f0a8 41bd 20c0 99bd 805e e5ba
00000270: f0ae d73c 6a74 a73d 446f f83d 7c97 0ebd
00000280: c0bf 0b3e 4655 3ebd 78ed 433d 2499 08bd
00000290: c083 dcbc 00ee 693a c899 17ba dfcf 6bbd
000002a0: e8a7 9f3d 6c3b 2e3d 9cd4 783d 180a 84bc
000002b0: 1a20 ca3d 5340 b63d f6e3 c53d d9fa a6bc
000002c0: 293e 443c bc2e c5bd 67a6 123e 8db1 a9bd
000002d0: c020 2cbb 20c2 bdbd b6c0 cabd 5d82 a63d
000002e0: 169d ed3d 2e68 523d cbfb 68bd 2ab5 fa3d
000002f0: a0c0 62bc 5603 2f3d e64c f53d 6b32 a1bd
00000300: a0fa 063c 69d3 bc3d befe 503c ccae 5fbd
00000310: e6b0 ef3d 5a12 a03d f24b 94bd 73e7 b63d
00000320: b317 8bbd 4964 eabb d487 903d 9487 db3d
00000330: 63a8 783d bacd abbd e88f f3bd 6eb0 483d
00000340: bfff d5bd 7693 efbd a0df f4bb b04d bebc
00000350: 2358 073e 83f5 f6bd f438 bc3d a71c e8bd
00000360: 136c db3d 242c db3d 7cd0 78bd 50fe 5e3c
00000370: da31 f43d fa28 fcbd 9af6 94bd f422 643d
00000380: 7a5b 2ebd 2b05 d13c cde2 d3bc b6f7 a5bd
00000390: 9e52 ef3d 00b8 16b9 7cbe 4c3d b63c c83c
000003a0: 6e3b 17bc 12d8 8dbd 485e 323d 2898 d03d
000003b0: de29 48bd b260 22bd 08e3 a1bc f884 853d
000003c0: ab1d bcbd c852 f13c 156b da3d 6aef 19bb
000003d0: 0026 02ba 40bc 023b a749 b53c 5b1c 86bc
000003e0: 9961 ba3d e76c 6e3d a713 063e f093 36bc
000003f0: e0f5 9abb bc80 7e3d 7a41 fa3d 4829 32bd

fc2.bias f4 [32]
-0.11826442 -0.0066553275 0.0727633 -0.08551284 0.13600048 -0.063929446 -0.051764067 0.094232224
0.02097481 -0.12434304 0.031682722 -0.058812987 0.014252659 -0.036247473 -0.07932268 -0.08263097
-0.036892146 -0.004807621 -0.059563424 0.07542321 0.08230157 0.021281483 0.1157775 0.16292088
0.00505013 0.055821903 -0.0129703265 -0.113274306 -0.092214495 -0.006478518 0.10021866 0.011122606
00000000: 9e34 f2bd ef14 dabb ed04 953d 5b21 afbd
00000010: b643 0b3e 71ed 82bd 8f06 54bd d3fc c03d
00000020: 5dd3 ab3c 90a7 febd bec5 013d e3e5 70bd
00000030: fc83 693c 3b78 14bd ee73 a2bd 6d3a a9bd
00000040: 381c 17bd 3f89 9dbb c7f8 73bd 7c77 9a3d
00000050: ba8d a83d 8156 ae3c c11c ed3d bbd4 263e
00000060: 907b a53b 82a5 643d 7e81 54bc 5cfc e7bd
00000070: f4da bcbd bf49 d4bb 713f cd3d 973b 363c

fc3.weight f4 [1, 32]
0.11240503 -0.10172913 0.11935035 0.015226706 0.16451402 -0.13131543 0.14602336 0.008409874
0.029446844 -0.026276505 0.20080219 -0.010735632 0.09992878 0.13817063 0.03625933 -0.15149692
-0.11164077 -0.16611946 0.085136585 0.09193636 0.15602513 -0.0752324 0.13977881 0.044930622
-0.10663487 -0.12232469 0.16730161 -0.06982129 -0.03275807 -0.057798576 0.09834182 0.12974344
00000000: 9c34 e63d 5d57 d0bd f56d f43d 6f79 793c
00000010: 5d76 283e 8d77 06be 2687 153e 91c9 093c
00000020: 823a f13c d341 d7bc 179f 4d3e 81e4 2fbc
00000030: 76a7 cc3d 9a7c 0d3e aa84 143d 0222 1bbe
00000040: eba3 e4bd 381b 2abe 175c ae3d 2149 bc3d
00000050: 0dc5 1f3e 7213 9abd 2d22 0f3e 2c09 383d
00000060: 6263 dabd 5e85 fabd 1d51 2b3e 77fe 8ebd
00000070: 532d 06bd 33be 6cbd 7067 c93d 77db 043e

exp_avg f4 [64, 16]
0.0 0.0 0.0 0.0 0.0 0.0 0.0 0.0
0.0 0.0 0.0 0.0 0.0 0.0 0.0 0.0
6.933382e-05 0.00011029365 -0.00020064488 0.0001712856 6.601213e-05 -3.837912e-05 -9.1008966e-05 4.0894396e-05
-0.00012791075 3.6240293e-05 3.0224817e-05 0.00014370597 3.787719e-05 0.00010167028 0.00010371887 8.301666e-05
-0.00013157845 0.00050043926 -5.036073e-05 -0.00022972029 0.00058852904 -0.0001820534 -0.00046910613 0.00059390086
-0.00023817574 0.00048525952 -0.00015465137 -0.00015711371 -0.00019353932 -0.00015084425 3.1031144e-05 -3.9934253e-05
0.0 0.0 0.0 0.0 0.0 0.0 0.0 0.0
0.0 0.0 0.0 0.0 0.0 0.0 0.0 0.0
0.0 0.0 0.0 0.0 0.0 0.0 0.0 0.0
0.0 0.0 0.0 0.0 0.0 0.0 0.0 0.0
0.0002983661 0.00011758485 -0.0006465546 0.0006891378 -7.501285e-05 -3.6934714e-05 -6.876948e-05 -0.00016182505
-0.00030851187 -0.0001227574 0.0001790106 0.0005602577 0.00022419874 0.0004163414 0.0003317076 0.00029808277
0.0 0.0 0.0 0.0 0.0 0.0 0.0 0.0
0.0 0.0 0.0 0.0 0.0 0.0 0.0 0.0
-0.00032817316 0.0007749106 0.0001618669 -0.00063652016 0.0009919143 -0.00028410982 -0.0007420568 0.0010335138
-0.0002733726 0.0008408781 -0.0003208472 -0.0004689441 -0.00040159232 -0.00040429662 -7.45398e-05 -0.00017802158
-5.8538048e-05 0.00014162915 2.6805177e-05 -0.00011308234 0.00018035671 -5.190072e-05 -0.00013544301 0.00018757423
-5.1069546e-05 0.00015264923 -5.76979e-05 -8.309366e-05 -7.221767e-05 -7.191464e-05 -1.2203183e-05 -3.1190604e-05
-0.00039126512 0.0006745215 0.0003444632 -0.0007923891 0.00093182 -0.00024917698 -0.00065921876 0.0009962776
-0.00015696044 0.00080788106 -0.0003483476 -0.0005997166 -0.0004360553 -0.0004968153 -0.00016892921 -0.00025356872
0.0 0.0 0.0 0.0 0.0 0.0 0.0 0.0
0.0 0.0 0.0 0.0 0.0 0.0 0.0 0.0
0.0 0.0 0.0 0.0 0.0 0.0 0.0 0.0
0.0 0.0 0.0 0.0 0.0 0.0 0.0 0.0
0.0003754986 -0.00027760153 -0.00055517966 0.0008101242 -0.00052241987 0.00010635411 0.00029830346 -0.00060631335
-9.9895915e-05 -0.00048670569 0.0002836267 0.00063577376 0.00035510698 0.0004987276 0.0002808262 0.00030461943
-0.00038026986 0.00081080914 0.0002404813 -0.0007492684 0.001061764 -0.00029792602 -0.0007810779 0.0011151588
-0.00025774052 0.00090636156 -0.00035983897 -0.0005575773 -0.00045041152 -0.00047364525 -0.00011434148 -0.00022071804
0.0 0.0 0.0 0.0 0.0 0.0 0.0 0.0
0.0 0.0 0.0 0.0 0.0 0.0 0.0 0.0
-1.346855e-07 1.0051834e-07 1.9855906e-07 -2.904518e-07 1.883363e-07 -3.8487663e-08 -1.0785315e-07 2.1837111e-07
3.5189426e-08 1.7531298e-07 -1.01862305e-07 -2.2788795e-07 -1.275337e-07 -1.7882962e-07 -1.0042392e-07 -1.09105365e-07
00000000: 0000 0000 0000 0000 0000 0000 0000 0000
00000010: 0000 0000 0000 0000 0000 0000 0000 0000
00000020: 0000 0000 0000 0000 0000 0000 0000 0000
00000030: 0000 0000 0000 0000 0000 0000 0000 0000
00000040: 5067 9138 744d e738 3364 52b9 219b 3339
00000050: fe6f 8a38 44f9 20b8 11dc beb8 0686 2b38
00000060: c81f 06b9 b800 1838 4d8b fd37 c7af 1639
00000070: 53de 1e38 d137 d538 a583 d938 3b19 ae38
00000080: 52f8 09b9 e92f 033a 6c3a 53b8 12e1 70b9
00000090: 8447 1a3a 96e5 3eb9 5cf2 f5b9 03b0 1b3a
000000a0: d0be 79b9 6e6a fe39 e929 22b9 e4be 24b9
000000b0: d1f0 4ab9 f22b 1eb9 7027 0238 147f 27b8
000000c0: 0000 0000 0000 0000 0000 0000 0000 0000
000000d0: 0000 0000 0000 0000 0000 0000 0000 0000
000000e0: 0000 0000 0000 0000 0000 0000 0000 0000
000000f0: 0000 0000 0000 0000 0000 0000 0000 0000
00000100: 0000 0000 0000 0000 0000 0000 0000 0000
00000110: 0000 0000 0000 0000 0000 0000 0000 0000
00000120: 0000 0000 0000 0000 0000 0000 0000 0000
00000130: 0000 0000 0000 0000 0000 0000 0000 0000
00000140: 056e 9c39 e397 f638 8b7d 29ba 41a7 343a
00000150: 3850 9db8 59ea 1ab8 5538 90b8 95af 29b9
00000160: c3bf a1b9 70b8 00b9 cbb4 3b39 42de 123a
00000170: e416 6b39 6648 da39 0ae9 ad39 fe47 9c39
00000180: 0000 0000 0000 0000 0000 0000 0000 0000
00000190: 0000 0000 0000 0000 0000 0000 0000 0000
000001a0: 0000 0000 0000 0000 0000 0000 0000 0000
000001b0: 0000 0000 0000 0000 0000 0000 0000 0000
000001c0: a80e acb9 5f23 4b3a d1ba 2939 25dc 26ba
000001d0: 1f03 823a 93f4 94b9 9786 42ba f876 873a
000001e0: 7353 8fb9 606e 5c3a 6237 a8b9 9ddc f5b9
000001f0: cf8c d2b9 c6f7 d3b9 4052 9cb8 4eab 3ab9
00000200: c086 75b8 4982 1439 aedb e037 9e26 edb8
00000210: 231e 3d39 f9af 59b8 b505 0eb9 93af 4439
00000220: 8233 56b8 7710 2039 a600 72b8 9242 aeb8
00000230: 9173 97b8 e1d0 96b8 46bc 4cb7 a8d2 02b8
00000240: b722 cdb9 5fd2 303a 1199 b439 55b8 4fba
00000250: 6245 743a f8a3 82b9 6ccf 2cba 8795 823a
00000260: bf95 24b9 fbc7 533a 6ca2 b6b9 4d36 1dba
00000270: 5a9e e4b9 b63c 02ba 9722 31b9 6bf1 84b9
00000280: 0000 0000 0000 0000 0000 0000 0000 0000
00000290: 0000 0000 0000 0000 0000 0000 0000 0000
000002a0: 0000 0000 0000 0000 0000 0000 0000 0000
000002b0: 0000 0000 0000 0000 0000 0000 0000 0000
000002c0: 0000 0000 0000 0000 0000 0000 0000 0000
000002d0: 0000 0000 0000 0000 0000 0000 0000 0000
000002e0: 0000 0000 0000 0000 0000 0000 0000 0000
000002f0: 0000 0000 0000 0000 0000 0000 0000 0000
00000300: 92de c439 0c8b 91b9 7a89 11ba 845e 543a
00000310: 01f3 08ba 6e0a df38 9d65 9c39 00f1 1eba
00000320: 367f d1b8 882c ffb9 bbb3 9439 0eaa 263a
00000330: a72d ba39 0bbd 023a db3b 9339 54b5 9f39
00000340: f55e c7b9 7b8c 543a b529 7c39 8d6a 44ba
00000350: e32a 8b3a f432 9cb9 40c1 4cba 852a 923a
00000360: 5921 87b9 e598 6d3a c5a8 bcb9 612a 12ba
00000370: 3625 ecb9 9753 f8b9 9dca efb8 8c70 67b9
00000380: 0000 0000 0000 0000 0000 0000 0000 0000
00000390: 0000 0000 0000 0000 0000 0000 0000 0000
000003a0: 0000 0000 0000 0000 0000 0000 0000 0000
000003b0: 0000 0000 0000 0000 0000 0000 0000 0000
000003c0: 119e 10b4 8bdc d733 8033 5534 64ef 9bb4
000003d0: 7d39 4a34 a24d 25b3 e59c e7b3 6579 6a34
000003e0: 2f23 1733 aa3d 3c34 65bf dab3 5db1 74b4
000003f0: 32f0 08b4 5004 40b4 a2a8 d7b3 4f4d eab3

exp_avg_sq f4 [64, 16]
0.0 0.0 0.0 0.0 0.0 0.0 0.0 0.0
0.0 0.0 0.0 0.0 0.0 0.0 0.0 0.0
2.6891928e-07 1.9814372e-07 5.3576184e-07 1.2342718e-06 6.1177076e-07 2.8558283e-08 2.1845723e-07 7.9942197e-07
1.1023113e-08 5.1699425e-07 1.5982177e-07 7.5437384e-07 2.505173e-07 4.69633e-07 1.3651194e-07 1.690044e-07
3.8311993e-07 2.951717e-07 7.5926874e-07 1.7563873e-06 8.8947667e-07 4.2395225e-08 3.2261593e-07 1.1569235e-06
1.7728656e-08 7.485963e-07 2.2860593e-07 1.0728608e-06 3.583328e-07 6.6850566e-07 1.9344374e-07 2.399701e-07
0.0 0.0 0.0 0.0 0.0 0.0 0.0 0.0
0.0 0.0 0.0 0.0 0.0 0.0 0.0 0.0
0.0 0.0 0.0 0.0 0.0 0.0 0.0 0.0
0.0 0.0 0.0 0.0 0.0 0.0 0.0 0.0
7.9501416e-07 5.8930993e-07 1.5875065e-06 3.6495783e-06 1.810881e-06 8.487061e-08 6.4849473e-07 2.3648067e-06
3.5236507e-08 1.5294486e-06 4.7237552e-07 2.230856e-06 7.4043857e-07 1.3885643e-06 4.0456382e-07 5.0003575e-07
0.0 0.0 0.0 0.0 0.0 0.0 0.0 0.0
0.0 0.0 0.0 0.0 0.0 0.0 0.0 0.0
1.257468e-06 9.2819016e-07 2.5137126e-06 5.7735315e-06 2.8579511e-06 1.3371115e-07 1.0221071e-06 3.7337745e-06
5.580409e-08 2.4147112e-06 7.467568e-07 3.5294868e-06 1.1705264e-06 2.1965595e-06 6.406297e-07 7.9135185e-07
2.9042644e-07 2.151465e-07 5.7798036e-07 1.3327323e-06 6.6245485e-07 3.0997107e-08 2.3697673e-07 8.6517286e-07
1.1966668e-08 5.595521e-07 1.7270649e-07 8.144702e-07 2.707136e-07 5.0712333e-07 1.4726359e-07 1.8241293e-07
6.2269754e-07 4.6154247e-07 1.2447858e-06 2.858902e-06 1.4175743e-06 6.646293e-08 5.077717e-07 1.8511893e-06
2.8194581e-08 1.1972623e-06 3.6988337e-07 1.7476716e-06 5.797848e-07 1.0876929e-06 3.1724483e-07 3.9183584e-07
0.0 0.0 0.0 0.0 0.0 0.0 0.0 0.0
0.0 0.0 0.0 0.0 0.0 0.0 0.0 0.0
0.0 0.0 0.0 0.0 0.0 0.0 0.0 0.0
0.0 0.0 0.0 0.0 0.0 0.0 0.0 0.0
1.7480458e-07 1.2092778e-07 3.548625e-07 8.0462894e-07 3.8441632e-07 1.7496815e-08 1.346423e-07 5.055688e-07
7.771362e-09 3.2670619e-07 1.03012596e-07 4.925526e-07 1.6147183e-07 3.0590692e-07 9.049345e-08 1.1089753e-07
1.2976778e-06 9.3834484e-07 2.6167972e-06 5.9655395e-06 2.9129499e-06 1.3530575e-07 1.0359157e-06 3.8135713e-06
6.1898305e-08 2.4656906e-06 7.6797863e-07 3.6493752e-06 1.203797e-06 2.2688098e-06 6.671813e-07 8.200727e-07
0.0 0.0 0.0 0.0 0.0 0.0 0.0 0.0
0.0 0.0 0.0 0.0 0.0 0.0 0.0 0.0
5.4678097e-08 3.458794e-08 1.14142175e-07 2.5274878e-07 1.1455564e-07 5.0317572e-09 3.9046192e-08 1.5203382e-07
2.8694258e-09 9.8140035e-08 3.182895e-08 1.5507663e-07 4.9892517e-08 9.597642e-08 2.9143916e-08 3.5172498e-08
00000000: 0000 0000 0000 0000 0000 0000 0000 0000
00000010: 0000 0000 0000 0000 0000 0000 0000 0000
00000020: 0000 0000 0000 0000 0000 0000 0000 0000
00000030: 0000 0000 0000 0000 0000 0000 0000 0000
00000040: fc5f 9034 55c1 5434 46d1 0f35 42a9 a535
00000050: 9138 2435 5450 f532 1191 6a34 dc97 5635
00000060: 2a60 3d32 93c7 0a35 799b 2b34 2d80 4a35
00000070: d67e 8634 de21 fc34 1e94 1234 9377 3534
00000080: 9aaf cd34 1778 9e34 8dd0 4b35 02bd eb35
00000090: 5fc4 6e35 0b16 3633 ff33 ad34 9747 9b35
000000a0: ba49 9832 25f3 4835 b876 7534 37ff 8f35
000000b0: e360 c034 5c73 3335 69b5 4f34 3dd5 8034
000000c0: 0000 0000 0000 0000 0000 0000 0000 0000
000000d0: 0000 0000 0000 0000 0000 0000 0000 0000
000000e0: 0000 0000 0000 0000 0000 0000 0000 0000
000000f0: 0000 0000 0000 0000 0000 0000 0000 0000
00000100: 0000 0000 0000 0000 0000 0000 0000 0000
00000110: 0000 0000 0000 0000 0000 0000 0000 0000
00000120: 0000 0000 0000 0000 0000 0000 0000 0000
00000130: 0000 0000 0000 0000 0000 0000 0000 0000
00000140: f568 5535 1231 1e35 4f12 d535 47eb 7436
00000150: 660d f335 1c42 b633 3814 2e35 12b3 1e36
00000160: f356 1733 7447 cd35 cc9a fd34 d0b5 1536
00000170: 8dc2 4635 b55e ba35 d432 d934 323a 0635
00000180: 0000 0000 0000 0000 0000 0000 0000 0000
00000190: 0000 0000 0000 0000 0000 0000 0000 0000
000001a0: 0000 0000 0000 0000 0000 0000 0000 0000
000001b0: 0000 0000 0000 0000 0000 0000 0000 0000
000001c0: 46c6 a835 be28 7935 41b1 2836 42ba c136
000001d0: 3acb 3f36 3e92 0f34 552f 8935 c291 7a36
000001e0: 3fad 6f33 6c0c 2236 bd74 4835 1fdc 6c36
000001f0: fb1a 9d35 9b68 1336 bdf7 2b35 496d 5435
00000200: e8eb 9b34 0503 6734 8226 1b35 55e0 b235
00000210: 8dd3 3135 ae21 0533 ab73 7e34 3a3e 6835
00000220: f695 4d32 2134 1635 3371 3934 f7a1 5a35
00000230: 9856 9134 4021 0835 821f 1e34 49dd 4334
00000240: 7327 2735 eac9 f734 8412 a735 90db 3f36
00000250: 7b43 be35 62ba 8e33 ce4d 0835 6176 f835
00000260: 8a30 f232 9fb1 a035 6294 c634 8a91 ea35
00000270: 82a2 1b35 d8fc 9135 cc51 aa34 825d d234
00000280: 0000 0000 0000 0000 0000 0000 0000 0000
00000290: 0000 0000 0000 0000 0000 0000 0000 0000
000002a0: 0000 0000 0000 0000 0000 0000 0000 0000
000002b0: 0000 0000 0000 0000 0000 0000 0000 0000
000002c0: 0000 0000 0000 0000 0000 0000 0000 0000
000002d0: 0000 0000 0000 0000 0000 0000 0000 0000
000002e0: 0000 0000 0000 0000 0000 0000 0000 0000
000002f0: 0000 0000 0000 0000 0000 0000 0000 0000
00000300: ebb1 3b34 60d8 0134 ee83 be34 aefd 5735
00000310: c761 ce34 e74b 9632 3292 1034 6cb6 0735
00000320: d082 0532 2866 af34 c637 dd33 f537 0435
00000330: 0a61 2d34 873b a434 4d55 c233 9026 ee33
00000340: df2b ae35 91e2 7b35 3c9c 2f36 982b c836
00000350: 197c 4336 9048 1134 cb09 8b35 a8ec 7f36
00000360: f4ec 8433 3e78 2536 1727 4e35 cae7 7436
00000370: 2692 a135 db41 1836 5a18 3335 f822 5c35
00000380: 0000 0000 0000 0000 0000 0000 0000 0000
00000390: 0000 0000 0000 0000 0000 0000 0000 0000
000003a0: 0000 0000 0000 0000 0000 0000 0000 0000
000003b0: 0000 0000 0000 0000 0000 0000 0000 0000
000003c0: 34d7 6a33 d88d 1433 531e f533 87b1 8734
000003d0: a101 f633 cee3 ac31 beb3 2733 bd3e 2334
000003e0: 792f 4531 0ec1 d233 4db4 0833 2483 2634
000003f0: 6749 5633 981b ce33 2658 fa32 9210 1733

exp_avg f4 [64]
0.0 -0.00027513795 0.0015469146 0.0 0.0 -0.0016995269 0.0 0.0031748998
0.0005712393 0.0034252326 0.0 0.0 -0.0027533614 0.0035531244 0.0 9.889552e-07
5.474647e-05 0.0 0.0 0.0 -0.0038142963 0.003974897 0.0 -0.0005655908
2.157013e-05 0.0 0.0 0.0 0.0 0.0 0.0 0.0
-0.00018544942 0.0031861302 0.0015226396 0.0 0.0 0.0 0.0018163761 0.0016896365
-0.0030991747 0.0 0.00541943 0.0015201572 0.0008625252 -0.001118752 0.0 1.214177e-07
0.007394201 0.0 -0.0024188035 1.4819435e-07 0.0 0.0 0.0020580578 0.0017574787
0.0057064053 -0.00057625014 0.0036253491 0.0 0.0 -0.004835494 0.0 5.9074564e-06
00000000: 0000 0000 6440 90b9 d7c1 ca3a 0000 0000
00000010: 0000 0000 a9c2 deba 0000 0000 fb11 503b
00000020: 38bf 153a de79 603b 0000 0000 0000 0000
00000030: bd71 34bb 89db 683b 0000 0000 3ebc 8435
00000040: 939f 6538 0000 0000 0000 0000 0000 0000
00000050: 46f9 79bb da3f 823b 0000 0000 2844 14ba
00000060: 80f1 b437 0000 0000 0000 0000 0000 0000
00000070: 0000 0000 0000 0000 0000 0000 0000 0000
00000080: 3375 42b9 65ce 503b 4f93 c73a 0000 0000
00000090: 0000 0000 0000 0000 7813 ee3a cb76 dd3a
000000a0: 861b 4bbb 0000 0000 7995 b13b 0340 c73a
000000b0: 161b 623a 17a3 92ba 0000 0000 0b5f 0234
000000c0: 0e4b f23b 0000 0000 ca84 1ebb 5a1f 1f34
000000d0: 0000 0000 0000 0000 7be0 063b 335b e63a
000000e0: ccfc ba3b 7e0f 17ba 4497 6d3b 0000 0000
000000f0: 0000 0000 1073 9ebb 0000 0000 aa38 c636

exp_avg_sq f4 [64]
0.0 1.5113777e-05 2.1626653e-05 0.0 0.0 4.4670807e-05 0.0 7.061477e-05
1.6333097e-05 3.4977817e-05 0.0 0.0 9.734492e-06 7.260102e-05 0.0 3.0046472e-06
1.2171896e-05 0.0 0.0 0.0 3.1711268e-05 5.998305e-05 0.0 1.9135847e-05
1.5747335e-05 0.0 0.0 0.0 0.0 0.0 0.0 0.0
6.327153e-05 1.4034413e-05 3.5669786e-05 0.0 0.0 0.0 4.1410858e-05 1.0963872e-05
1.9355428e-05 0.0 4.015331e-05 3.295434e-05 4.095605e-05 2.9849887e-05 0.0 5.406031e-07
2.1689792e-05 0.0 2.0418218e-05 4.7044753e-07 0.0 0.0 4.7554637e-05 9.187443e-06
3.408772e-05 1.6014123e-05 9.231444e-06 0.0 0.0 3.8987033e-05 0.0 8.808417e-06
00000000: 0000 0000 2e91 7d37 e26a b537 0000 0000
00000010: 0000 0000 ea5c 3b38 0000 0000 0417 9438
00000020: 0f03 8937 25b5 1238 0000 0000 0000 0000
00000030: 5351 2337 6041 9838 0000 0000 72a3 4936
00000040: e535 4c37 0000 0000 0000 0000 0000 0000
00000050: b701 0538 4f96 7b38 0000 0000 eb85 a037
00000060: 2519 8437 0000 0000 0000 0000 0000 0000
00000070: 0000 0000 0000 0000 0000 0000 0000 0000
00000080: a5b0 8438 5875 6b37 249c 1538 0000 0000
00000090: 0000 0000 0000 0000 92b0 2d38 79f1 3737
000000a0: 775d a237 0000 0000 4a6a 2838 7438 0a38
000000b0: 39c8 2b38 2566 fa37 0000 0000 f61d 1135
000000c0: 79f2 b537 0000 0000 ca47 ab37 d191 fc34
000000d0: 0000 0000 0000 0000 6775 4738 c423 1a37
000000e0: 69f9 0e38 1156 8637 c0e0 1a37 0000 0000
000000f0: 0000 0000 0286 2338 0000 0000 ddc7 1337

exp_avg f4 [32, 64]
0.0 0.0 0.0 0.0 0.0 0.0 0.0 0.0
0.0 0.0 0.0 0.0 0.0 0.0 0.0 0.0
0.0 0.0 0.0 0.0 0.0 0.0 0.0 0.0
0.0 0.0 0.0 0.0 0.0 0.0 0.0 0.0
0.0 0.0 0.0 0.0 0.0 0.0 0.0 0.0
0.0 0.0 0.0 0.0 0.0 0.0 0.0 0.0
0.0 0.0 0.0 0.0 0.0 0.0 0.0 0.0
0.0 0.0 0.0 0.0 0.0 0.0 0.0 0.0
0.0 0.00067253807 0.0018602159 0.0 0.0 0.00072597666 0.0 0.0009701225
0.00043574642 0.0015120683 0.0 0.0 0.0013135636 0.0010355199 0.0 4.4200895e-08
0.0010459723 0.0 0.0 0.0 0.001130613 0.00039669138 0.0 0.00020144878
0.0010167633 0.0 0.0 0.0 0.0 0.0 0.0 0.0
-9.313235e-05 0.0003426652 2.3192752e-05 0.0 0.0 0.0 0.00058113656 0.0005560949
0.0005847247 0.0 0.00065013237 0.0012310008 0.0011876449 0.00067359366 0.0 1.7237756e-09
0.00021012325 0.0 0.0021498364 1.7118069e-08 0.0 0.0 0.0008038161 0.00020755592
-3.742567e-05 0.00069438847 0.00031058938 0.0 0.0 0.00062311295 0.0 3.5344897e-07
0.0 -0.00051395677 -0.002533191 0.0 0.0 -0.0013212109 0.0 -0.0012757665
-0.00016583689 -0.0011355461 0.0 0.0 -0.0028173667 7.186436e-05 0.0 -4.0692946e-08
0.00055300316 0.0 0.0 0.0 -0.0013964192 0.0001572794 0.0 -0.0001469619
-0.00034531514 0.0 0.0 0.0 0.0 0.0 0.0 0.0
-0.00034990045 -0.00047547082 -0.00017433337 0.0 0.0 0.0 -0.00030377842 -0.0007528724
-0.0010321803 0.0 -0.0005021377 -0.002539343 -0.0014436212 -0.0007275269 0.0 -1.2334366e-09
8.3043364e-05 0.0 -0.004221784 -1.1958139e-08 0.0 0.0 -0.0011464613 -0.00014763146
0.00030160608 -3.2374504e-05 0.00036038997 0.0 0.0 -0.0011975992 0.0 -4.3169166e-07
0.0 -4.7012827e-06 -0.00016343886 0.0 0.0 -0.00013541452 0.0 -0.000106594
-8.986491e-05 -5.1568197e-05 0.0 0.0 -0.0002993934 -2.782166e-05 0.0 -3.7085376e-10
7.456674e-05 0.0 0.0 0.0 -0.00023695103 2.5588364e-05 0.0 -2.4463487e-05
-3.117374e-05 0.0 0.0 0.0 0.0 0.0 0.0 0.0
5.731267e-06 -2.2097442e-05 -8.034675e-05 0.0 0.0 0.0 -6.09149e-05 -0.00018962292
2.1328242e-05 0.0 -6.1211e-05 -0.000109091285 -0.00017227867 -0.00022984794 0.0 0.0
3.1893283e-06 0.0 -0.00020492876 4.289834e-11 0.0 0.0 -1.8960953e-05 1.3544085e-05
5.3282824e-05 -2.6925693e-06 5.868471e-05 0.0 0.0 -0.0001493276 0.0 -1.5772226e-08
00000000: 0000 0000 0000 0000 0000 0000 0000 0000
00000010: 0000 0000 0000 0000 0000 0000 0000 0000
00000020: 0000 0000 0000 0000 0000 0000 0000 0000
00000030: 0000 0000 0000 0000 0000 0000 0000 0000
00000040: 0000 0000 0000 0000 0000 0000 0000 0000
00000050: 0000 0000 0000 0000 0000 0000 0000 0000
00000060: 0000 0000 0000 0000 0000 0000 0000 0000
00000070: 0000 0000 0000 0000 0000 0000 0000 0000
00000080: 0000 0000 0000 0000 0000 0000 0000 0000
00000090: 0000 0000 0000 0000 0000 0000 0000 0000
000000a0: 0000 0000 0000 0000 0000 0000 0000 0000
000000b0: 0000 0000 0000 0000 0000 0000 0000 0000
000000c0: 0000 0000 0000 0000 0000 0000 0000 0000
000000d0: 0000 0000 0000 0000 0000 0000 0000 0000
000000e0: 0000 0000 0000 0000 0000 0000 0000 0000
000000f0: 0000 0000 0000 0000 0000 0000 0000 0000
00000100: 0000 0000 444d 303a 7dd2 f33a 0000 0000
00000110: 0000 0000 784f 3e3a 0000 0000 d24f 7e3a
00000120: e574 e439 9830 c63a 0000 0000 0000 0000
00000130: e12b ac3a 48ba 873a 0000 0000 66d7 3d33
00000140: 0219 893a 0000 0000 0000 0000 0000 0000
00000150: 1431 943a 04fb cf39 0000 0000 ff3b 5339
00000160: ea44 853a 0000 0000 0000 0000 0000 0000
00000170: 0000 0000 0000 0000 0000 0000 0000 0000
00000180: 0d50 c3b8 bfa7 b339 0e8e c237 0000 0000
00000190: 0000 0000 0000 0000 6a57 183a e6c6 113a
000001a0: 3648 193a 0000 0000 a56d 2a3a 8859 a13a
000001b0: c0aa 9b3a 1b94 303a 0000 0000 f6e9 ec30
000001c0: 8854 5c39 0000 0000 45e4 0c3b 080b 9332
000001d0: 0000 0000 0000 0000 2fb7 523a 5ea3 5939
000001e0: 82f9 1cb8 9f07 363a 9ad6 a239 0000 0000
000001f0: 0000 0000 6758 233a 0000 0000 a8c1 bd34
00000200: 0000 0000 0ebb 06ba e403 26bb 0000 0000
00000210: 0000 0000 7b2c adba 0000 0000 9f37 a7ba
00000220: 80e4 2db9 9bd6 94ba 0000 0000 0000 0000
00000230: 92a3 38bb e2b5 9638 0000 0000 5ec6 2eb3
00000240: 6af7 103a 0000 0000 0000 0000 0000 0000
00000250: 0e08 b7ba 5eeb 2439 0000 0000 c919 1ab9
00000260: 6a0b b5b9 0000 0000 0000 0000 0000 0000
00000270: 0000 0000 0000 0000 0000 0000 0000 0000
00000280: d872 b7b9 9d48 f9b9 42cd 36b9 0000 0000
00000290: 0000 0000 0000 0000 7344 9fb9 695c 45ba
000002a0: 394a 87ba 0000 0000 e4a1 03ba 1b6b 26bb
000002b0: e437 bdba 81b7 3eba 0000 0000 b185 a9b0
000002c0: 9127 ae38 0000 0000 e456 8abb 7470 4db2
000002d0: 0000 0000 0000 0000 dc44 96ba 85cd 1ab9
000002e0: e220 9e39 dcc9 07b8 b9f2 bc39 0000 0000
000002f0: 0000 0000 c3f8 9cba 0000 0000 40c3 e7b4
00000300: 0000 0000 b6bf 9db6 c960 2bb9 0000 0000
00000310: 0000 0000 0ffe 0db9 0000 0000 388b dfb8
00000320: db75 bcb8 ee4a 58b8 0000 0000 0000 0000
00000330: e7f7 9cb9 8f62 e9b7 0000 0000 07e1 cbaf
00000340: b760 9c38 0000 0000 0000 0000 0000 0000
00000350: 0f76 78b9 98a6 d637 0000 0000 f036 cdb7
00000360: 8cc0 02b8 0000 0000 0000 0000 0000 0000
00000370: 0000 0000 0000 0000 0000 0000 0000 0000
00000380: 354f c036 e55d b9b7 d57f a8b8 0000 0000
00000390: 0000 0000 0000 0000 e07e 7fb8 84d5 46b9
000003a0: 0dea b237 0000 0000 685e 80b8 f0c7 e4b8
000003b0: b4a5 34b9 5603 71b9 0000 0000 0000 0000
000003c0: 3e08 5636 0000 0000 25e2 56b9 3dab 3c2e
000003d0: 0000 0000 0000 0000 560e 9fb7 673b 6337
000003e0: ff7b 5f38 fdb1 34b6 3a24 7638 0000 0000
000003f0: 0000 0000 d394 1cb9 0000 0000 7e7b 87b2
